models/best_supervised_model.pth (torch, 61812 bytes, 19 tensors)

input_layer.weight f4 [128, 16]
00000000: 813a 2ebc 9b41 8cbc 9271 8abd f09b 133c
00000010: 2bc2 8bbc 1072 dcbd e16e 84be 3d51 c0bd
00000020: 72ed 7a3d e123 cb3c 1a56 af3e cf74 153e
00000030: cdb7 cdbb 2815 42be cd91 b43c f284 863c
00000040: 3a29 cebe d88d ddbe b800 f5be 7ea1 e3be
00000050: 9ffa 773d 566f 5ebe b263 87be e72b 5abe
00000060: e1df 0c3d c124 69be d66e 40be 6590 febd
00000070: a30e a4be 492b bcbe 81e7 c73e 8c94 8fbd
00000080: 665f 8c3f e0ab 753f 7deb 543f 599c 8d3f
00000090: 296f b6bc 113a 7f3f 69b9 7b3f 8a7d 533f
000000a0: c8cf 843c 5aa5 0bbe 28d5 c63d 0846 1b3d
000000b0: eb22 703f 072f 2f3f 8c0d c9bb 9227 ed3b
000000c0: fb88 533f 7c48 2d3f f17f 153f 2b0e 393f
000000d0: 5ec2 a03c 693a f53e ea74 1b3f 80b8 103f
000000e0: fb3a afbc 1336 a13d 9d52 593e c7fb 9abd
000000f0: 8458 653e ebb3 253f 96e6 dd3d 42a7 94bc
00000100: 7e6f 9cbe 7048 97be d1cc 8fbe 9936 b7be
00000110: fb61 3b3d a7fe 8abe 1d88 9abe b29c 87be
00000120: 3033 8c3e 8569 97bd 158d 29be de11 85bd
00000130: ddf9 d6be b406 5cbe 11e4 813e d8bd 363e
00000140: 93ef 99bc ddc5 b7bc 7e2a e03c cb1c 6dbc
00000150: dd88 243d d6dc 2dbb 28e7 553d 689b 71bc
00000160: 5ee4 76bd d4e1 0c3e 1283 2a3e f493 35be
00000170: 79a4 d03d 380a 613c b6a2 19be dd1f cbbd
00000180: 3c97 6cbf fe57 8ebf 3fc3 98bf ab0b afbf
00000190: 7ab0 9dbc 64cf 47bf d478 8cbf 9665 92bf
000001a0: 6043 6fbb abbc cf3d 9a21 81bd 0d8d ac3b
000001b0: 5c66 aebf 3553 24bf 9eb6 4d3c 1755 2d3b
000001c0: 1d5e b53e 32ed 6a3e 82d1 833e 8857 a73e
000001d0: c246 1f3b bbb6 933e 6f43 f13e c6f0 b23e
000001e0: ec8c 803d 80a7 0fbe bb78 43bd d210 6fbe
000001f0: 60d2 bc3e c3ef 8c3e 054b 9ebc 8479 c9bd
00000200: 7d62 2abe a136 5dbe 29e3 1abe 44bc 42be
00000210: e23a b8bc 1727 993c 3752 1d3c b305 80bd
00000220: a913 983c 1103 e3be 6f7a 4dbd 961b 11be
00000230: 6020 7abd a429 02be f7c6 123e 31f7 d2bd
00000240: 0c17 26bf cf1f 15bf 09a2 04bf 163e 07bf
00000250: 58e3 e93c 3aad 19bf 3a7f ecbe 16b3 12bf
00000260: 332c bbbb c45a 83be 4e7c 083e 7e2e 31bd
00000270: 8ace 83be 431d 20bf 9bc6 943e 0e6e 3bbd
00000280: 24ae 4abf 6b1b 69bf 5182 68bf 278b 93bf
00000290: 55e3 163c ddbe 1dbf 0b99 5abf e826 14bf
000002a0: 9d12 7abb 98c6 54bd ec11 7cbd 4e11 4c3c
000002b0: 4981 52bf 206e e4be ed32 2abe 22bc 593a
000002c0: dfcc e43b b58f 903d aab1 da3d 53ec 0d3c
000002d0: f4c4 223d b650 68bd 12c4 f9bd 4625 c7bd
000002e0: 5f84 953d 7622 9f3e e224 133e d187 9e3d
000002f0: c7d7 9abd fba5 82bd 2bf1 09bc 982d efbb
00000300: 5d0f c03d db0b ea3d c050 ad3d c91d ac3d
00000310: 318b a73b 87a6 8d3d 3c05 e83d 76c0 b73d
00000320: 9cce 1fbe cf09 3abc f840 bf3e bf51 10be
00000330: 9cc9 e53d d5c4 bc3d b166 f1bd 3593 81bd
00000340: eb21 473f eea9 613f 2561 713f 5695 763f
00000350: f1fe c83b c081 043f 01c7 343f 8c57 733f
00000360: 0110 b93c 76b3 53bd 0d44 7f3d 3675 fe3b
00000370: 2f8d 1b3e 6f93 8c3f 5d3a 30bd f6c6 a4bb
00000380: 0ef6 aa3e 14d9 d03e 5517 d93e 22b3 df3e
00000390: 9ce7 49bd cf53 183e 1807 693e b6ee 8e3e
000003a0: 89f3 893b d4ef b93e b4e5 9a3e df14 853c
000003b0: fe6e 023e 528e b83e b331 91be fc8e 2b3c
000003c0: 399b cdbb 5ae3 afbd 2418 81bd 1325 a6bd
000003d0: 8922 74bc 87e1 0fbb 3ecf 913c deaf 493d
000003e0: 2228 b33a 374c f4bc d93c 8fbe da24 f3bd
000003f0: 194d f8bd 4e19 b63d bdde 62bd 2e76 91be
-0.010634066 -0.017121127 -0.06759943 0.009009346 -0.01706036 -0.10763943 -0.25865844 -0.09390495
0.0612616 0.024797382 0.34245378 0.1459534 -0.0062780143 -0.18953383 0.02204218 0.016420815
-0.40265828 -0.4327228 -0.4785211 -0.44459146 0.060541745 -0.21722159 -0.2644325 -0.2130581
0.034393195 -0.22767927 -0.1879228 -0.12429885 -0.32042417 -0.36751774 0.3904381 -0.07010755
1.0966613 0.95965385 0.83171827 1.1063339 -0.022269802 0.9969798 0.9832979 0.8261343
0.01621236 -0.13637295 0.09708625 0.037908584 0.9380328 0.68431133 -0.006135648 0.007237383
0.8263089 0.6768873 0.5839835 0.72287244 0.019623931 0.47896126 0.6072527 0.56531525
-0.021390429 0.07871642 0.2122292 -0.07567554 0.22397047 0.6472766 0.108349964 -0.018146161
-0.30553812 -0.29547453 -0.2808595 -0.35783842 0.04574774 -0.2714741 -0.3018197 -0.26486737
0.27382803 -0.07393173 -0.16557725 -0.064975485 -0.41987506 -0.21486932 0.25369313 0.17845857
-0.018790996 -0.022433216 0.027364012 -0.014472197 0.040169585 -0.0026529334 0.0522224 -0.014746524
-0.06027638 0.13758022 0.16651562 -0.17732221 0.10187621 0.0137353465 -0.15003476 -0.09918187
-0.92418265 -1.1120603 -1.1934584 -1.3675436 -0.01924919 -0.7805083 -1.0974374 -1.1437252
-0.0036508664 0.101434074 -0.06305237 0.005265838 -1.3624988 -0.64189464 0.012555746 0.0026448423
0.35423365 0.22942045 0.2574578 0.3268397 0.002430365 0.2885035 0.4712176 0.3494932
0.06276879 -0.1402874 -0.04772256 -0.2334626 0.36879253 0.27526674 -0.019322881 -0.098376304
-0.16639133 -0.2160287 -0.15125717 -0.1901713 -0.022489015 0.018695397 0.009602121 -0.06251087
0.018564062 -0.44338277 -0.05016559 -0.1417068 -0.06106603 -0.12711197 0.14333712 -0.10301054
-0.64878917 -0.5825166 -0.51809746 -0.5282911 0.028550789 -0.6002995 -0.46190816 -0.57304513
-0.005712056 -0.25655186 0.13328668 -0.04325723 -0.25743514 -0.6254465 0.29057774 -0.045759253
-0.7917197 -0.9105746 -0.9082385 -1.1526841 0.009209474 -0.6161936 -0.85389775 -0.57871866
-0.0038158067 -0.051947206 -0.06154053 0.012455298 -0.82228523 -0.4461527 -0.16620989 0.0008305927
0.0069824304 0.0705866 0.10678418 0.008662301 0.03973861 -0.056717597 -0.121956006 -0.09723906
0.073006384 0.3108098 0.14369538 0.07740749 -0.075606875 -0.063793145 -0.008419315 -0.0072991364
0.0937793 0.114280425 0.084626675 0.084041186 0.0051130285 0.06916528 0.113291234 0.08972256
-0.15606159 -0.011354878 0.37354255 -0.14093684 0.112200946 0.0921723 -0.11787165 -0.06326906
0.7778613 0.8814992 0.94288856 0.9632162 0.006133907 0.5176048 0.70616156 0.9505546
0.02259064 -0.05168482 0.062320758 0.0077654375 0.15190576 1.0982493 -0.04302441 -0.005028601
0.3339085 0.40790617 0.42400613 0.43691355 -0.049293146 0.1487572 0.22756612 0.27916497
0.00420994 0.36315787 0.30253375 0.016245304 0.12737653 0.36046082 -0.2835823 0.010471102
-0.0062746075 -0.08588286 -0.063034326 -0.0811254 -0.014900812 -0.0021954493 0.017799016 0.049239986
0.0013668577 -0.029821498 -0.2797611 -0.11872263 -0.1212408 0.08891545 -0.0553882 -0.28410476

input_layer.bias f4 [128]
00000000: 33e1 4db7 931c af38 23c0 32ba 0c2a e438
00000010: d72c 22b8 80c6 1ab2 33b9 45bc 27bb aa36
00000020: 7123 8b36 e061 b4b7 c26e 3bba c8d6 5637
00000030: 5aa7 9a37 2479 5d39 e564 c937 a8ca 6537
00000040: d898 2638 9aba a238 ebe8 ed37 d040 b4b5
00000050: b699 d937 aba4 0eb8 f4ae 7db8 c542 17b8
00000060: fda7 c938 82b0 deb7 50da a9b7 dc47 3738
00000070: 701e 6ab7 e0f1 1db8 f1c9 b7b8 9688 1cb6
00000080: c01a a7b7 4d6a 3db8 b676 8537 4045 a035
00000090: d2bd 16b8 4bd5 143c a64a 2438 08f3 473a
000000a0: d6e9 8d37 7e61 5f37 709b 1fb7 9e1a 3c37
000000b0: 8b46 7237 e763 2e36 ba1c d436 a89e 9cb7
000000c0: 3cdf 2239 63e3 f9b7 c3f8 4938 fb67 a7ba
000000d0: a69f 0a38 3e42 6336 7eec 8c39 5c7d 0337
000000e0: 8dcd 0b38 5e10 ee37 e9ce 9db7 929c ffb7
000000f0: 473c 3f3c 1bb4 22b7 8825 c1b8 500a bb37
00000100: d8a7 673a 9ea9 0cb7 0219 7eb6 f8a9 d037
00000110: 7e72 ef36 38db e436 da9c 7cb5 dd89 4ab8
00000120: 44fd f83a a775 48b8 2c81 1a36 d3f4 8cb7
00000130: 3e06 4fb7 440b 6c38 dea6 d437 e2a6 a636
00000140: 2087 7b35 7da6 8536 b786 e737 c332 2fb7
00000150: 1a43 90ba 295b 37b8 2a82 7939 ae26 6cbc
00000160: afab 6836 322c e438 8a93 8fb6 6681 8e38
00000170: 298b d738 de92 0338 31a7 0838 3c58 75b8
00000180: 333f 33b8 3589 e6ba 7074 123b 783d efb5
00000190: 368f 9eb9 c3e8 cab6 f4cf 05b9 abf9 7fb6
000001a0: c542 0438 b858 3c38 f4cd f435 bf5b e7b7
000001b0: 1284 c1b8 a6bf 85b8 2ecb e7b6 ca1e 3138
000001c0: 95fc 89b7 c094 6db7 ed23 2eb8 b247 ce37
000001d0: 30df 9736 70b6 8638 87b7 c138 93e5 8337
000001e0: ca3d 25b7 0633 ae3b f688 5e38 b24e a5b7
000001f0: 8994 d0b6 6726 923c f7e5 0238 7466 e337
-1.22713855e-05 8.3499726e-05 -0.0006818792 0.00010879719 -3.866557e-05 -9.0091135e-09 -0.012068081 5.088182e-06
4.1466487e-06 -2.1503249e-05 -0.0007149988 1.2805402e-05 1.843616e-05 0.00021121331 2.400805e-05 1.3696648e-05
3.971983e-05 7.759519e-05 2.8361063e-05 -1.3429908e-06 2.5939993e-05 -3.4008797e-05 -6.048284e-05 -3.606339e-05
9.615717e-05 -2.6546655e-05 -2.024803e-05 4.3697524e-05 -1.3954574e-05 -3.765698e-05 -8.7637345e-05 -2.3325315e-06
-1.9920408e-05 -4.516011e-05 1.5910115e-05 1.1941083e-06 -3.593957e-05 0.009084056 3.917017e-05 0.0007627462
1.6917398e-05 1.3314535e-05 -9.513329e-06 1.12118705e-05 1.4440749e-05 2.5986171e-06 6.3214366e-06 -1.867053e-05
0.00015532685 -2.9788998e-05 4.815381e-05 -0.0012772077 3.3050448e-05 3.3864194e-06 0.0002687908 7.837396e-06
3.3331617e-05 2.8379432e-05 -1.8812209e-05 -3.0471278e-05 0.011672086 -9.6978865e-06 -9.209948e-05 2.229694e-05
0.00088369614 -8.384142e-06 -3.7863506e-06 2.487468e-05 7.1360837e-06 6.82045e-06 -9.4105565e-07 -4.8288948e-05
0.0018996377 -4.7793288e-05 2.3022976e-06 -1.6803306e-05 -1.2339615e-05 5.6277277e-05 2.5350073e-05 4.9666132e-06
9.370142e-07 3.9830907e-06 2.7600077e-05 -1.0442632e-05 -0.0011006326 -4.37155e-05 0.0002379498 -0.014413519
3.4670627e-06 0.00010880119 -4.278908e-06 6.79519e-05 0.000102779195 3.1369615e-05 3.2580636e-05 -5.8494727e-05
-4.2735785e-05 -0.0017588498 0.0022347234 -1.7824777e-06 -0.0003024281 -6.047166e-06 -0.00012761337 -3.8143287e-06
3.1533436e-05 4.490532e-05 1.8239357e-06 -2.7580068e-05 -9.227557e-05 -6.3776315e-05 -6.9079897e-06 4.2228763e-05
-1.644929e-05 -1.4160934e-05 -4.151829e-05 2.45905e-05 4.526133e-06 6.4235996e-05 9.237142e-05 1.572332e-05
-9.849153e-06 0.005316141 5.305648e-05 -1.9706178e-05 -6.216175e-06 0.017840577 3.1208587e-05 2.7108217e-05

bn1.weight f4 [128]
00000000: 60b5 563f 6ff2 5c3f a592 8d3f 3c46 5f3f
00000010: 32d3 4a3f d363 383f 29c1 8d3f 6c15 503f
00000020: 284d 6a3f 5e01 703f 9bff 763f 900b 683f
00000030: 8b00 453f 9dff 733f 1465 5d3f 7f9e 4b3f
00000040: 2d33 4c3f 88e6 6d3f 1c6a 793f 6e82 293f
00000050: fcab 4d3f 1aec 4a3f 4668 683f 0cde 673f
00000060: 2614 7a3f b1d3 683f 3496 5b3f 73c1 663f
00000070: 9985 463f 2417 433f 7e07 623f 0c8b 423f
00000080: 19b5 6f3f 2a8b 6b3f d0ee 593f a2da 683f
00000090: 3839 653f a3fa 933f c2dd 563f 6015 743f
000000a0: d435 3a3f 2c41 1c3f 7919 533f a10f 503f
000000b0: 1126 4f3f 5181 433f 106b 5a3f 2d15 533f
000000c0: 99d4 423f 34cf 473f 5211 563f 8c82 813f
000000d0: 9002 673f 0415 603f 6eb5 663f 81f6 623f
000000e0: f8d2 3a3f c58c 623f 89ee 5f3f d0cd 5b3f
000000f0: 1231 883f 3d48 663f be6b 3d3f 5bb9 2f3f
00000100: b96a 743f ec69 703f da0c 453f 40fc 6e3f
00000110: 13bc 503f 0cfc 613f 84f7 733f 4806 6a3f
00000120: 3e3b 853f 5622 6f3f f8c5 523f c8ed 733f
00000130: 242f 7c3f a383 4e3f 2b76 723f b28b 5e3f
00000140: d8f4 793f a3f6 503f 3363 563f 5b9c 6a3f
00000150: 5438 833f 934c 623f f84d 5c3f d94c 993f
00000160: 473c 2f3f 8cdf 6e3f fca1 3f3f d8d6 543f
00000170: 9f97 683f 098e 243f 9d27 5c3f 9f3e 5b3f
00000180: 3fd0 5e3f c476 893f 9b9b 813f f1c7 5a3f
00000190: e279 613f d2b8 593f 11e4 5f3f b89c 193f
000001a0: 1a04 5a3f 10c1 5f3f ffe4 513f 2a60 5f3f
000001b0: 2625 803f 8b2d 6e3f f234 543f 2799 663f
000001c0: bae6 433f 3352 7c3f 13fd 513f be9d 3f3f
000001d0: 65cd 323f 61f1 723f bd54 633f c6e6 403f
000001e0: 668c 343f 26d1 8b3f 6bb9 573f f2bd 3c3f
000001f0: 8458 463f a5f9 9b3f a296 593f 4799 773f
0.83870506 0.86307424 1.1060377 0.87216544 0.7922851 0.7202732 1.1074573 0.8128269
0.9152398 0.93752086 0.96483773 0.9064264 0.76953954 0.9531191 0.8648236 0.7953872
0.7976559 0.9292989 0.97427535 0.66214645 0.8034055 0.7926651 0.9078411 0.9057319
0.97686994 0.90948015 0.85776067 0.9013893 0.77547604 0.76207185 0.8829268 0.7599342
0.9363571 0.9200922 0.85130024 0.9095861 0.89540434 1.1560863 0.83932126 0.95345116
0.72738385 0.61036944 0.82460743 0.8127385 0.8091746 0.76369196 0.85319614 0.82454187
0.7610565 0.7805054 0.8362018 1.0117965 0.90238285 0.8753207 0.9012059 0.88657385
0.7297816 0.8849605 0.8747335 0.8586092 1.0639975 0.89953977 0.73992527 0.68642205
0.95475346 0.93911624 0.76972735 0.9335365 0.8153698 0.8827522 0.95299554 0.91415834
1.0408704 0.9341177 0.82333326 0.952847 0.9850943 0.8066961 0.9471156 0.8693191
0.97639227 0.8162634 0.83745116 0.9164483 1.0251565 0.88398093 0.8605647 1.1976577
0.6845135 0.93309855 0.74856544 0.83140326 0.90856355 0.6427923 0.85997945 0.8564243
0.8703651 1.0739369 1.0125612 0.85461336 0.88076603 0.8504764 0.87457377 0.6000476
0.8516251 0.87403965 0.81990045 0.8725611 1.0011337 0.93038243 0.8289329 0.9007744
0.76523936 0.98562926 0.82026786 0.7485007 0.6984466 0.94899565 0.88801175 0.7535213
0.7052673 1.0923202 0.842673 0.73727334 0.77478814 1.218556 0.8499547 0.9671826

bn1.bias f4 [128]
00000000: 608a b5be ab31 03bf 7aaa efbe 5d4c e5be
00000010: 9611 29be 248e 5dbe 4e7e f4be 0fd5 83bd
00000020: 9bba b0be 5987 edbe e6cc 1fbf 90ca 26be
00000030: 5986 57be 684e f6be 3309 8cbe bee5 00bd
00000040: b261 74be fb66 83bd 250e dfbe 6f62 a3be
00000050: 1a32 80be 3710 d5be 5a17 28bf 15ea b2be
00000060: 0274 02bf 31c0 ccbe 07cf 21be 2915 0dbf
00000070: 96c1 61be c0ef d4be d622 03bf 12f2 42be
00000080: 8114 1fbe 8a3e abbe 7141 86bc 0726 02bf
00000090: 7171 edbd 86b3 e6be 8f52 a4be 0044 1dbf
000000a0: ad83 31be bdf7 95be 693d 7dbe 621f 83be
000000b0: 0459 b6be e9c6 bfbe 192a 8abe e520 03be
000000c0: d6ef 19be 9bd5 2bbe 62f3 b5be d998 06be
000000d0: 06b3 27bf 4b83 35be 72cc efbd 08c0 18be
000000e0: d235 74be 97ec babe d203 08be db21 f2be
000000f0: 40b1 09bf 3503 86be 4354 95be e8e1 50be
00000100: f625 e2be de3b aebe afb7 06be 50f6 ccbe
00000110: 3242 f8bc 5bad 86be 28d2 00bf 9f1e b4be
00000120: dcc4 12bf 7275 aabe 6db9 ebbe 0e8a a8be
00000130: 7e39 e1be 4629 bebe 0243 f9bd e092 c4be
00000140: ae10 8dbe f870 edbd 444c 37be 3dfd b1be
00000150: 3e93 18bf 82b2 54bd 07b6 b9be 6715 e8be
00000160: d8c3 42be 0388 cabe a276 9bbe e3db d8be
00000170: b27a 89bd cfd0 7bbe 9f11 edbe fba7 513c
00000180: 2844 03bf b373 23bf 4b30 1fbe b98f 8abd
00000190: ca43 a0bd 8d68 acbe 5eea 3cbd 4ed2 89be
000001a0: 79f9 9bbe 2b28 693b a811 0cbe 59c4 f6be
000001b0: 25d6 a3be 3b8c 01bf 71b2 a3be 027c bf3c
000001c0: 982c acbe 3f4f 83be 746d 60be cec7 dbbd
000001d0: 9a4f 92be 0bfb 87bd fd73 b9be 857e 9dbe
000001e0: e650 9bbe 9a08 18bf 463c 70bc 14ba 3bbe
000001f0: d99c ebbd 5a58 69be add2 9c3d a217 bebe
-0.35457134 -0.5124766 -0.4680975 -0.44784823 -0.16510615 -0.21636254 -0.47752613 -0.06437122
-0.3451737 -0.46392325 -0.62422025 -0.16288209 -0.21047343 -0.48106694 -0.27350768 -0.0314691
-0.23865393 -0.06416126 -0.4356548 -0.31911036 -0.25038224 -0.41613933 -0.6566063 -0.34944215
-0.50958264 -0.3999038 -0.15801631 -0.5511041 -0.22046503 -0.41589165 -0.5122503 -0.19037655
-0.15535165 -0.3344615 -0.016388627 -0.50839275 -0.11593903 -0.4505884 -0.32094237 -0.61431885
-0.17335387 -0.29290572 -0.24730457 -0.2560988 -0.3561479 -0.37456444 -0.26985243 -0.12805517
-0.15032896 -0.16780703 -0.3553725 -0.13144244 -0.65507543 -0.17725866 -0.11708917 -0.14917004
-0.23848656 -0.3650863 -0.13282707 -0.47291455 -0.5378609 -0.26174322 -0.2916585 -0.20398676
-0.44169587 -0.3403005 -0.13156007 -0.40031672 -0.030305002 -0.26304135 -0.50320673 -0.35179612
-0.57331634 -0.3329273 -0.46039906 -0.32917827 -0.43989176 -0.37140864 -0.12170984 -0.38393307
-0.27551788 -0.11593813 -0.17900187 -0.34763518 -0.59599674 -0.05192805 -0.36271688 -0.4532883
-0.19020021 -0.39556894 -0.30363947 -0.4235526 -0.067128554 -0.24591373 -0.46302506 0.012796397
-0.51275873 -0.6384842 -0.15545766 -0.06765694 -0.0782543 -0.33673516 -0.046121947 -0.26918262
-0.3046377 0.003557692 -0.1367861 -0.48196676 -0.31999317 -0.506046 -0.31972077 0.023374561
-0.33627772 -0.25646397 -0.21916753 -0.10731469 -0.28576356 -0.066396795 -0.36221305 -0.3076059
-0.30335158 -0.59388125 -0.014662808 -0.18332702 -0.11504526 -0.2278761 0.07657371 -0.37127405

bn1.running_mean f4 [128]
00000000: fb8d 753e f7c1 2240 f18d 8ec0 d0d0 2ac0
00000010: e065 fa3f 9cfb 8bbe 1655 9e40 acf1 bdbf
00000020: a0b6 533f 6064 4440 b14d 6040 515e 133d
00000030: feb2 35bf 1dde 6dc0 d723 0fc0 74ef e63d
00000040: 39c5 84bf e5ca 55c0 95bb 1540 531b 0ebf
00000050: f433 ba3e 3dfe 613f 58b5 7240 7ed6 3dc0
00000060: 4ad1 47c0 df4b f53f c849 3940 a44b 27c0
00000070: cdb4 aabf 070a fbbe 8cf5 0bc0 6e72 b43f
00000080: 3f66 8c3f a870 0b40 40a6 c1bf 9c01 543f
00000090: a590 2f40 b9e7 9340 f97a 47bf 161d 7ec0
000000a0: f6ce 5cbf 91e3 1a3f 8ff7 1fbf 1e2e c0be
000000b0: d469 333f 966e a33e 93d4 383f 4c3c 8d3e
000000c0: 023b ecbf 7725 7ebf 6912 73bf aa20 6b40
000000d0: 2638 ea3f 045d 5d3f e89a 4ec0 85c6 36bf
000000e0: 404d 2f3f 743e 0f3f 677a b6bf e060 73bf
000000f0: 08a4 7dc0 0a23 bd3f f9c3 96bf 566d 9bbf
00000100: 1255 7e40 218b a7bf 487f 093f 1865 883f
00000110: 7df0 a4be 405c 543f 401e 60bf 729f 543f
00000120: 6c04 94c0 78b6 b1bf 8ecb 0040 3221 d5bf
00000130: 181a 9b3d 621a 87bd d558 b83f 2efc 6abe
00000140: 8f2c 233d 6e42 b7bf 0303 3c3c a559 2abf
00000150: dd29 8ec0 7a78 a23f 9d6e 05c0 4c7a 9c40
00000160: 4f2f f73e 15d6 2bc0 6ca5 cf3e e837 c73f
00000170: dddc 3ac0 9d84 4dbe bb86 ddbf 62d6 ec3f
00000180: 22e0 f1bf 017e 91c0 f368 6440 6795 3abf
00000190: a6bc 5440 8850 af3f a12c 2e40 5a51 713f
000001a0: 026c ac3f 5ed1 89bf 0446 4bbe 2bbd fd3f
000001b0: ee7d 50c0 1ba6 69c0 43a4 32be ba43 4d40
000001c0: 1d4c 2fbf 06ed 1c40 4a61 0f40 bcef 8abc
000001d0: f2ea d63e d9df 9e3e 6a55 2ac0 f987 ac3f
000001e0: 44a4 a8be e7b1 9240 4a21 1a3e f864 31bf
000001f0: 3843 17bd 9eb8 9440 0854 24c0 b9a2 0e40
0.23979943 2.5430887 -4.454827 -2.668995 1.956234 -0.273404 4.9478865 -1.4839377
0.8270054 3.0686264 3.504742 0.03597862 -0.70976245 -3.7166817 -2.2365625 0.11276141
-1.0372688 -3.3405087 2.339574 -0.55510443 0.36367762 0.8827856 3.7923183 -2.9662166
-3.122149 1.9163779 2.8951283 -2.6139917 -1.3336426 -0.49031088 -2.186862 1.4097421
1.0968703 2.178751 -1.512886 0.82814956 2.7432034 4.6220365 -0.77922016 -3.9705253
-0.862533 0.6050349 -0.6248712 -0.37535185 0.70083356 0.31920308 0.7219936 0.27585065
-1.8455508 -0.99275917 -0.94949967 3.6738687 1.8298385 0.86470056 -3.2282047 -0.71396667
0.6847725 0.5595467 -1.4256104 -0.95069695 -3.9631367 1.4776318 -1.1778556 -1.2142742
3.9739423 -1.3089334 0.5370984 1.0655851 -0.32214728 0.8295326 -0.8754616 0.83055794
-4.62554 -1.388381 2.012424 -1.6650755 0.07573336 -0.06596829 1.4402109 -0.22947761
0.039837416 -1.4317148 0.011475327 -0.66543037 -4.4426103 1.2693017 -2.0848763 4.889929
0.4827828 -2.6849415 0.40555894 1.5563936 -2.9197304 -0.20070119 -1.7306741 1.8502924
-1.8896525 -4.5466313 3.5689056 -0.7288422 3.3240142 1.3696451 2.721474 0.9426476
1.3470461 -1.0767019 -0.19850928 1.9823354 -3.2576861 -3.6507633 -0.17445473 3.2072587
-0.68475515 2.4519668 2.240313 -0.016960017 0.41976124 0.31030157 -2.6614633 1.3478996
-0.32937825 4.5842166 0.15051761 -0.6929469 -0.03692934 4.6475363 -2.5676289 2.2286818

bn1.running_var f4 [128]
00000000: 1510 af3e 32bf fc3e 7c2c 0c3d c37c 8b3e
00000010: 7acf 913e 86fb 9d3e 3e4f 703d 7058 bb3e
00000020: ec91 303f e0dc 0b3e 2950 ed3d ff0d f53e
00000030: bf15 cc3e 79a2 053d 99b5 503f 5e70 083f
00000040: f9c8 463f 602b 1a3e 9cf1 3e3e 825b 353e
00000050: 121b b93e d02e 4e3f 12c7 833e 8866 f13e
00000060: 8a04 733e 8665 553e 644d 6c3d 2679 203f
00000070: 36a2 a23e 13e9 d33e 9b19 e33e 60f6 623e
00000080: 32e4 b93e d447 003f 5c32 d33e d5c3 a43f
00000090: 3c63 b93d 725e 5f3d 4697 083f b31e 2f3d
000000a0: 56e6 833e 2d90 5c3e 5234 693e 593c 7d3f
000000b0: 2a6b 113f 32bf a93f ce80 b83e 6bea 423f
000000c0: 8f3d 4a3d bc5f d83e fd32 c83e fb2c a23c
000000d0: 4fae 403f 8e6c 693f 5f6f f53c 9425 003e
000000e0: 8e45 873e 7d3a 393f 4244 833e 6236 a93f
000000f0: 04fa 593d 9498 d53e ed1f 6f3e 5219 b23e
00000100: af46 853d 9f7c 363e 481d 073f ceee 943f
00000110: 1fae 723f 8139 cc3e adcd 583f c09d 2e3f
00000120: e466 4f3d b413 2b3f 7a9f 4b3f 2405 413f
00000130: bdd8 c83e c096 0f3e 837d b43e 109b 043f
00000140: 114d 873f 9282 ef3e f060 db3e 1632 4b3f
00000150: 796b 1f3d ef2d e73e 6fd5 7e3e 6353 2a3d
00000160: 9f67 a73e 2e3a 6f3d a682 553f c040 873e
00000170: e523 4a3d 8a2d 1a3f c45f cb3e 6c47 413e
00000180: d7d8 a63e 8945 3a3d d8e6 db3c cb2a 173f
00000190: 944a 8c3d a953 4b3f 5ab3 503d b0c6 9e3e
000001a0: b16a e93e 42a5 a83e 9660 613f 9f59 b33e
000001b0: eb61 8b3d 715b 2d3e d782 6d3f 6e2e 0f3e
000001c0: 8b4c bc3e 83b2 913e 6397 a73d 494e b33e
000001d0: 36a1 ad3e 449b 843e 7d5f 413e 5a71 383f
000001e0: 355e a43e 4149 623d c23f db3e e7c4 1d3e
000001f0: d20a e03e c8a7 043d fd00 553e d3bf 163f
0.34191957 0.4936462 0.03422211 0.27243623 0.28478605 0.3085596 0.05866932 0.3659091
0.6897266 0.13658476 0.11587555 0.4786224 0.3986034 0.03262565 0.81527096 0.5329646
0.7765041 0.15055609 0.18646854 0.17710689 0.36153466 0.8054018 0.25737816 0.47148538
0.237322 0.2083951 0.057690993 0.6268486 0.31764382 0.4138876 0.44355473 0.22164297
0.36306912 0.501096 0.4124936 1.2872263 0.090521306 0.05453343 0.53355825 0.042753886
0.2576167 0.21539374 0.22773865 0.9892021 0.56804144 1.3261473 0.3603577 0.76138943
0.049375113 0.4226054 0.391014 0.019796839 0.75265974 0.91181266 0.029960332 0.12514335
0.26420254 0.7235487 0.25638014 1.3219721 0.05321695 0.4171797 0.23352022 0.34784943
0.065076225 0.17820977 0.52779055 1.1635377 0.9479694 0.39887622 0.84688836 0.6820946
0.050635234 0.6682694 0.79540217 0.7539847 0.39227858 0.1402235 0.35252008 0.51799107
1.0570394 0.46779305 0.42847395 0.793733 0.038920853 0.45152232 0.24886106 0.04158343
0.32696244 0.058405094 0.8340248 0.26416588 0.049350638 0.6022574 0.397215 0.18874902
0.3258731 0.04547647 0.026843473 0.5904967 0.06850162 0.7942453 0.050952293 0.31010962
0.45589212 0.32938582 0.88038003 0.35029313 0.06805786 0.16929413 0.9277777 0.13982555
0.36777148 0.28456506 0.081831716 0.35020664 0.33912057 0.25899708 0.18884082 0.7204796
0.32103124 0.05524564 0.4282208 0.15407144 0.43758255 0.03238657 0.20801158 0.5888645

hidden1.weight f4 [64, 128]
00000000: 452f 173e f299 88bd 4c00 b93c 7adf 3d3a
00000010: 68b8 8f3b 23e3 87bd bc25 ac3c 2c82 0bbe
00000020: 852e 85be d378 c43d ab2b adba a36b a93d
00000030: 41c9 ffbd 2939 01bd e592 60bd aaff 0ebe
00000040: d228 7cbb e6c3 b03d 62e8 cfbc 6fa1 00be
00000050: 8113 cebc b340 1bbd 099e 13bd 6672 e63d
00000060: 997b 0a3d cab9 9bbd 8197 7bbd b98d 383d
00000070: 85fe b5bd 0092 363d cfe6 373c 4cec f63d
00000080: bc1b c83d adc5 15bd 665e 933d b99c 81be
00000090: 6682 8b3c aad7 283e da49 abbd ee6b 7ebc
000000a0: 48cc 473c 99d6 a2bc 2dbf 3d3d f6cf 883d
000000b0: 6e31 983d 64a8 b3bd 2721 47bd 73e8 67be
000000c0: 0f7a 973b 12e2 cc3c 72b9 52bd fd9c 973c
000000d0: 339d 18be 0983 ba3d b821 c93d 3692 e9bd
000000e0: a4ba 70bd 47f2 61be 16bb 3ebe ed01 d1bc
000000f0: d7bc e23d cbe5 133d a75f b1bd cc6a 37bd
00000100: 8268 943d e431 c13c 2444 213d 7205 a4be
00000110: 98e6 003e 18f1 01bd c7c7 b4bb 7306 1dbe
00000120: b1e4 cc3d 812d 42bd 9855 0cbe bfa4 adbd
00000130: 9628 a2bd d21d b7bd 1f45 3e3c 3fa8 bf3c
00000140: 71fd 2b3d bd16 71bd 8f6c adbd 7dc0 d0bd
00000150: f545 d3bd d94a bc3b 5fb7 d13d 9c11 cfbc
00000160: 58d9 f6bc 2834 ac3d aa25 44be d2e2 06be
00000170: f6ea 8a3d 3f74 dd3d 75cf aebc ddaa 453d
00000180: ddcd a03d ab16 003d b217 69bc 41f2 2ebe
00000190: de2e d4bd 92c1 0ebd 6ebb 1e3d 4367 0f3d
000001a0: 6482 a8bd 0753 79be 6c3e 4a3c 3de8 e0bd
000001b0: 5b0a 863d be4f b5bd 46bd 903d 9341 30bc
000001c0: 650c 20be 9302 da3d 9af9 5b3d 8a3c 0b3e
000001d0: 95b7 7dbd 5ead 36be 063e 113d f65a 62bd
000001e0: 2a70 1f3d 0c50 b63c 5ff6 49bc e680 9fbd
000001f0: 2ce7 6fbd bb6a 59bd 6a35 0abc db8e 19be
00000200: 23e8 66bc 24f7 97bd 8565 efbd 11af 96bd
00000210: d854 f9bc a756 2c3d b35c 273e 4b99 16bb
00000220: 7282 c63d dc77 1c3c eab6 a83d 1eb5 98bd
00000230: 577a 92bd 7a6b 1cbd 7416 39bd 4271 96ba
00000240: 2785 cdbc ba2d d9bd 3aac d93d 2ed5 3c3d
00000250: 7456 4c3d 956c cbbc b00c 753d c19d 1fbd
00000260: 7366 28be 3192 c6bd 15e3 a2bd 6e80 1ebd
00000270: 3e02 6abd 2a9a 50bd 86c1 7c3c 34b6 95bd
00000280: 75d9 033d 53a7 863b 26e7 c73b 3830 7a3d
00000290: 981b 303c 283d a43d b23c ecbd 8c73 4dbd
000002a0: fe35 4e3c 05cf acbb 74d3 a8bd 739c 4dbd
000002b0: 8f87 39be 4a75 c2bd c131 e2bd adc0 b63d
000002c0: be90 923c 958b d2bc e54d e5bd 1c6b 04bd
000002d0: eb58 893d 8652 b1bd e22c 4ebd da6a 8d3d
000002e0: 425c 92bc 033e d4bc 90c3 c03d 8f90 b0bd
000002f0: 4e66 78bd 6d16 973d 1f32 92bd e3f5 443d
00000300: 457f 4bbc 17ab dabb e21f ad3d 731e 9f3d
00000310: 02c7 00be 5a9d 8d3c 49f5 adbd c3ea 3a3d
00000320: d566 fcbd e13b 55bd 75f7 f9bc 80bb 0dbe
00000330: 548a f3bd 6474 b9bd 1898 c9bd dde6 2dbe
00000340: ee13 0c3d 84f2 18bc a23f 203e cf83 47bd
00000350: cbd8 3fbe b361 86bc 9893 0ebe 2aa1 763d
00000360: d253 773b abc8 09be cfd9 11be e789 efbc
00000370: b6cc 9a3d 5fcd f83d 13c0 2fbd 1946 e6bd
00000380: 7565 08be cf53 4cbd d7a8 a63c 1ab3 1e3d
00000390: 5c2c 40bd d767 cfbd ab42 b93d 133b f1bd
000003a0: 9c00 1abd 73bf af3d 0f07 5fbc 6a24 313d
000003b0: d63c 893c 124d c4bd 622e 8bbd 5250 dabc
000003c0: 7dd7 90bd 6250 da3d a133 01be bebc 593d
000003d0: 41bd 43bd 8b64 f8bc f7b0 dabc 317a 253d
000003e0: 03fe 86bd 6d43 543e dd2a 99bd 95b8 ef3c
000003f0: 375a 833c df2b 8d3d cc03 9c3d f2af c1bd
0.14764126 -0.06669988 0.02258315 0.00072430784 0.0043859966 -0.0663512 0.021014087 -0.13623875
-0.26012054 0.09593358 -0.0013211867 0.08272483 -0.12489558 -0.031548653 -0.05482759 -0.13964716
-0.003847648 0.08631115 -0.025379363 -0.12561582 -0.025155785 -0.0379035 -0.036039386 0.112522885
0.03380928 -0.07603796 -0.061423782 0.045057032 -0.088864364 0.04457283 0.011224463 0.12056789
0.09770915 -0.03656547 0.071957394 -0.25314882 0.017029952 0.1648852 -0.083636954 -0.015528662
0.012194701 -0.019877719 0.046324898 0.066802904 0.07431303 -0.08772352 -0.0486156 -0.22647266
0.004622705 0.025010142 -0.051446386 0.018507475 -0.14903717 0.09107024 0.098208845 -0.11404841
-0.058771744 -0.22065078 -0.18626055 -0.025513614 0.110711746 0.03610782 -0.08660822 -0.044779584
0.07246496 0.02358336 0.039371625 -0.32035404 0.12587965 -0.031724066 -0.0055169794 -0.15334491
0.10004557 -0.047406677 -0.13704526 -0.084786884 -0.079178974 -0.08941235 0.011613159 0.023395656
0.041989747 -0.058859576 -0.084679715 -0.10192964 -0.103160776 0.005746227 0.102400534 -0.025276951
-0.030132934 0.084083855 -0.19154993 -0.13172463 0.067830965 0.10813188 -0.021339158 0.04825865
0.07851765 0.031271618 -0.014226841 -0.170846 -0.10360502 -0.03485257 0.038752966 0.035010587
-0.08227995 -0.24348079 0.012343984 -0.10981796 0.06544944 -0.088531 0.07067351 -0.010757822
-0.15629728 0.10645022 0.053704835 0.13597313 -0.061942656 -0.17839572 0.03545954 -0.05526253
0.038925327 0.022254966 -0.012326806 -0.07788257 -0.058570072 -0.0530803 -0.0084355865 -0.14995901
-0.014093432 -0.07420185 -0.11689285 -0.0735761 -0.030435964 0.042074826 0.16343956 -0.0022979553
0.09692849 0.009550061 0.08238013 -0.0745642 -0.07152241 -0.038188435 -0.04518743 -0.0011477845
-0.025087906 -0.10604425 0.10628553 0.04610174 0.049887136 -0.02483205 0.059826553 -0.038968805
-0.16445331 -0.096958525 -0.07953469 -0.0386967 -0.057131045 -0.050928272 0.015426999 -0.07310143
0.032189805 0.004109302 0.006100553 0.06108114 0.010748766 0.08019477 -0.11535014 -0.050159022
0.012586115 -0.005273702 -0.082434565 -0.05019803 -0.18118118 -0.09495027 -0.11044646 0.08923469
0.017891284 -0.025701324 -0.11196498 -0.03232871 0.06706413 -0.08658318 -0.050335772 0.06905146
-0.017866258 -0.025908476 0.094123006 -0.08621322 -0.06064444 0.07377324 -0.07138466 0.04808606
-0.01242048 -0.0066732275 0.08453347 0.077694796 -0.12575915 0.017286945 -0.0849405 0.045634042
-0.12324301 -0.052059058 -0.030513505 -0.13841057 -0.11891618 -0.09055403 -0.09843463 -0.16982599
0.034198694 -0.009335164 0.15649274 -0.048709687 -0.18735044 -0.016404008 -0.1392349 0.06021229
0.003773917 -0.13455455 -0.14243244 -0.029240562 0.07558577 0.121485464 -0.042907786 -0.11243839
-0.13319953 -0.049884614 0.020344181 0.038745023 -0.046917304 -0.10127228 0.09045919 -0.11778846
-0.037598237 0.08581438 -0.013612523 0.043247618 0.016752642 -0.095850125 -0.06795956 -0.026649628
-0.07072351 0.10659863 -0.12617351 0.053158514 -0.04778791 -0.03032138 -0.026695712 0.040399734
-0.06591418 0.20728846 -0.07478879 0.02926282 0.016034229 0.06893133 0.07617912 -0.09457387

hidden1.bias f4 [64]
00000000: bc0e 0438 3ceb 2fb7 9cf7 6537 cc42 92b6
00000010: 9015 9fb5 c08d 04b8 8ec6 8836 0623 bc37
00000020: 41a7 05b7 4b15 5eb7 c899 5336 44eb 88b7
00000030: baf3 0eb7 acbe 5036 f6de 0837 94bf 74b5
00000040: 40bf 5436 94ea e037 2c04 8237 42ef 22b7
00000050: 28d1 9bb7 132d 0cb8 6d1a 2db7 a7e9 e536
00000060: 86b6 1036 de81 12b8 9fff 2e37 5165 0538
00000070: 3447 6d36 1e8a 9537 aa96 ebb6 78b8 7bb7
00000080: 0010 17b4 45e5 8fb6 4073 3036 2bbf b7b5
00000090: bb14 4c37 c74c 03b8 5137 cab7 9fa7 1c38
000000a0: 6ce1 d736 8c86 c1b5 b20a 06b6 1222 a538
000000b0: e262 c237 4a25 4337 b096 3d37 2193 5837
000000c0: 309e 0db8 bd34 0438 528d aa37 1a70 90b7
000000d0: 3cf5 9337 5af0 01b6 8c02 9434 03bd 3eb7
000000e0: 2a66 2637 ef2a a3b7 4d1a 3ab7 759a adb6
000000f0: e607 2038 de71 e7b7 ef65 1837 41cd d7b6
3.1484975e-05 -1.0485583e-05 1.3707115e-05 -4.3589152e-06 -1.1852699e-06 -3.1603267e-05 4.0762307e-06 2.2427655e-05
-7.96636e-06 -1.3237189e-05 3.1530963e-06 -1.6322017e-05 -8.520607e-06 3.11054e-06 8.158144e-06 -9.1175866e-07
3.1701784e-06 2.6812115e-05 1.549915e-05 -9.711659e-06 -1.8574836e-05 -3.342058e-05 -1.0317756e-05 6.8519325e-06
2.1563915e-06 -3.493006e-05 1.0430725e-05 3.180403e-05 3.5357198e-06 1.78265e-05 -7.0210854e-06 -1.5003716e-05
-1.4068792e-07 -4.2884226e-06 2.6293128e-06 -1.36902e-06 1.2164174e-05 -3.130434e-05 -2.4106035e-05 3.7349408e-05
6.433742e-06 -1.4418779e-06 -1.9973781e-06 7.874159e-05 2.3172648e-05 1.1631588e-05 1.13003625e-05 1.2908859e-05
-3.3764343e-05 3.152037e-05 2.0331387e-05 -1.7218339e-05 1.7637962e-05 -1.93624e-06 2.7569e-07 -1.136889e-05
9.918158e-06 -1.9451107e-05 -1.1092588e-05 -5.173783e-06 3.815433e-05 -2.759037e-05 9.083639e-06 -6.431394e-06

bn2.weight f4 [64]
00000000: fa61 673f 2166 603f 2687 803f b682 5b3f
00000010: 053b 5f3f 23c9 643f 294f 693f b617 833f
00000020: ed25 7d3f e990 573f a424 763f 3a2c 793f
00000030: d1fd 773f 173d 7c3f a837 763f b413 723f
00000040: 21f1 733f 2d35 6d3f 0253 853f cc10 533f
00000050: 2260 703f 4fb4 7f3f 01f9 673f e9bb 673f
00000060: a732 6b3f 89f1 6c3f c123 793f 2e68 653f
00000070: 3042 7a3f 01bd 653f 3301 6a3f 4217 653f
00000080: af48 853f 58d6 6b3f b8e3 6e3f 90fd 5b3f
00000090: a745 6d3f 8d3c 753f 668a 733f 2a5f 6e3f
000000a0: fb24 673f 9f12 683f dc24 633f e70e 6f3f
000000b0: 9505 6c3f 4a90 613f 377f 5a3f 3f62 6f3f
000000c0: 198d 743f fb27 803f fec4 783f 527d 633f
000000d0: fad4 803f 6065 7d3f c527 4e3f 86ef 653f
000000e0: eccd 833f f40c 693f 6b04 763f a9c4 673f
000000f0: 37ee 753f fb10 6e3f 2045 813f 5b40 7e3f
0.90383875 0.87655836 1.0041244 0.85746324 0.8719943 0.8936941 0.91136414 1.0241611
0.98885995 0.8420549 0.9614966 0.9733311 0.9687167 0.98530716 0.96178675 0.94561315
0.9528981 0.92659265 1.0415957 0.82447505 0.9389669 0.99884504 0.90614325 0.90521103
0.91874164 0.92556053 0.9732018 0.8961209 0.97757244 0.8974152 0.9140808 0.89488614
1.0412806 0.9212394 0.9331622 0.8593378 0.92684406 0.9579552 0.95133054 0.9311396
0.902908 0.90653414 0.8872812 0.93382114 0.9219602 0.8811079 0.85350364 0.93509287
0.955278 1.0012201 0.97175586 0.888631 1.0064995 0.9898281 0.80529433 0.8981861
1.0297217 0.9103539 0.9610049 0.90534455 0.9606661 0.9299466 1.009922 0.9931695

bn2.bias f4 [64]
00000000: 795a 15bd 7d4b e2bd 22f8 42bd d7fb 8cbe
00000010: 9e44 b4bd 8f20 90be 7f05 c2be 547f 0abf
00000020: b1f0 f2be 51a7 5cbe ba1f 9abd 7b30 eabe
00000030: 28c0 38be 0f8f b9be 708b 81be 7648 b8be
00000040: 8300 bebe 7c16 50be 47fe 97be 04e6 84be
00000050: fa77 4dbe e275 a7be 92e7 06bf 78d8 a8be
00000060: 8edf 5bbe ca63 a2be 6cd6 fdbe 33aa bbbe
00000070: c73e bcbe 4687 67bd c67c d4bd 996d cbbc
00000080: e4c5 2cbe 5fe0 adbe 153a f3be 5396 94be
00000090: b89e a9be 1866 c9be 0319 a1be 87f8 46bd
000000a0: aebe afbe dfde a6be 9e29 6ebd 7c4b 25be
000000b0: 6c4f 1abe dc26 f5bc ea80 81be bd12 02bf
000000c0: 8280 e8be 2479 8abe 6652 e1bd 18fb a0be
000000d0: ddec 9cbe e8e3 acbd 18c5 f4be 8224 78be
000000e0: 0a10 49be bb47 bbbe be50 abbd a465 8fbe
000000f0: ac0b 20be a69f f1be 55d6 86be d8b2 d2be
-0.036463235 -0.110495545 -0.04759992 -0.2753589 -0.0880215 -0.2814984 -0.37894818 -0.5410054
-0.47449258 -0.21548201 -0.075255826 -0.45740113 -0.18042052 -0.36241958 -0.25301695 -0.35992783
-0.37109765 -0.20321077 -0.29686186 -0.25956738 -0.20065299 -0.32707125 -0.526971 -0.32977653
-0.21471998 -0.31716758 -0.49577653 -0.3665329 -0.36766645 -0.05652549 -0.10375361 -0.024832534
-0.16872364 -0.33960244 -0.4750525 -0.29020938 -0.33128905 -0.39335704 -0.31464395 -0.048576858
-0.34325165 -0.32591912 -0.058145158 -0.16142076 -0.1506936 -0.029925756 -0.25293666 -0.5080984
-0.45410544 -0.27045548 -0.110020444 -0.3144157 -0.30649462 -0.08441907 -0.4780662 -0.24232677
-0.19635025 -0.36578164 -0.0836501 -0.28007233 -0.15629452 -0.47192115 -0.26335397 -0.41152072

bn2.running_mean f4 [64]
00000000: 557d 2bbf c887 02bf eff0 1dbf f8df 693f
00000010: 5256 97bd 8152 873f ad90 d1bd ee8c 3a3f
00000020: 787b b83e 2d64 a73d 5a40 ffbe 74e1 bbbe
00000030: dc4e 823f 4dc7 b43f 2c24 533f 24e8 9abd
00000040: 73a2 12bc 35dd 1fbf e973 d73f b575 a7bf
00000050: 0479 b23f 3b77 3c3f b82f 613f eb4f 723f
00000060: 07c3 a6be c188 74be fbf6 9a3e f3d6 7b3f
00000070: 37c1 223f 6417 edbe a620 53be 9d7f 1bbf
00000080: 33e3 493d 061d 8e3f 4f0a 563e b1f2 873f
00000090: 7753 29bf 1553 42bf d7e4 ddbd d341 10bf
000000a0: 79a9 9b3f c380 093f 24d3 f9be 7787 1abf
000000b0: 7a76 153d 5b47 42bf 38d0 e0be c9d5 6d3f
000000c0: b5f1 9c3f c0fd d4be 67b5 48bf f362 79bf
000000d0: aacf 8d3d acb1 c03e 4572 7d3f 7a79 8c3f
000000e0: 8481 66bf 5a3e dabd 761c febe 82d2 853f
000000f0: 7b84 8bbe c4eb e1bd 7bdf dcbe ec80 25bf
-0.66988117 -0.50988436 -0.6169576 0.91357374 -0.07389511 1.0572053 -0.10232673 0.7287129
0.360317 0.08173404 -0.49853784 -0.36695445 1.0180316 1.4123322 0.8247707 -0.075638086
-0.008949864 -0.6244691 1.6832248 -1.3082796 1.3943181 0.7361943 0.8796344 0.94653195
-0.3257067 -0.23880292 0.30266556 0.9837486 0.6357607 -0.46306908 -0.20617923 -0.607416
0.04928894 1.1102607 0.2090237 1.0620939 -0.6614298 -0.75908023 -0.10834663 -0.5635044
1.2161094 0.537121 -0.487939 -0.6036295 0.03648994 -0.7589013 -0.43908858 0.92904335
1.2261263 -0.41599846 -0.784018 -0.9741661 0.069243744 0.37635553 0.99002486 1.0974572
-0.90041375 -0.10656424 -0.4963109 1.0454867 -0.27249512 -0.11031297 -0.43139252 -0.64649844

bn2.running_var f4 [64]
00000000: 55a6 0c40 b805 a83f c536 d93f 6039 a53f
00000010: 9e47 723f a523 8f3f 01cc 533f b365 b03f
00000020: dd20 913f 85f9 5d3f 12ed 973f 8d70 b13f
00000030: 3fd8 253f 3ef3 e23f 710f 963f 2edb 743f
00000040: 0a85 233f d867 913f 4fb8 dc3f 16f4 a03f
00000050: e24b 863f 1470 893f db7a 0f40 b01b 883f
00000060: ab26 8e3f e873 8e3f 203d 953f 24e2 913f
00000070: c1b3 943f c3a5 a13f e031 773f a5bc 1a40
00000080: d315 613f 3647 833f 4d3f 7a3f 09a4 aa3f
00000090: 7e28 af3f 7c4d 823f eb41 833f a8de ba3f
000000a0: 60d5 f73f b8e6 7a3f 95e7 0040 319c d73f
000000b0: 2868 483f 6e7f 1240 5176 193f bd51 fb3f
000000c0: 815e c33f ab7d bf3f 8c49 7e3f f829 ca3f
000000d0: 0b86 b03f 7d8f 763f aacb b23f b02a 9c3f
000000e0: be13 693f 5b45 8c3f efb3 9e3f 2ebf 3d3f
000000f0: 997a 483f d859 833f ae1e ad3f 1458 663f
2.197652 1.3126745 1.6969839 1.2908134 0.9464053 1.1182753 0.8273316 1.3781036
1.1338154 0.8670886 1.1869223 1.3862473 0.6478309 1.7730482 1.1723462 0.9564694
0.63874876 1.1359816 1.7243747 1.2574489 1.0491908 1.0737329 2.2418735 1.063345
1.110555 1.1129122 1.1659279 1.1397138 1.1617357 1.2628711 0.9656048 2.417764
0.87923926 1.0256107 0.9775284 1.333131 1.3684232 1.0179896 1.0254492 1.4599199
1.9361992 0.980083 2.0141346 1.6844541 0.7828393 2.2890277 0.5994616 1.963432
1.5263215 1.4960226 0.99330974 1.5794058 1.3790907 0.96312696 1.3968403 1.2200527
0.9104575 1.0958666 1.2398661 0.7411984 0.7831207 1.0261793 1.3524988 0.89978147

hidden2.weight f4 [32, 64]
00000000: f886 bd3c babd b83d e4fd 32be 88a1 833d
00000010: 9009 613c 8914 2f3d d824 6b3e 6de5 703e
00000020: 8ffe 3c3e 7105 38bd 67f2 9fbd 43de 253e
00000030: 3778 563d a392 743d a3e2 0a3e 5192 583c
00000040: 4ace b33d 39e5 0abc 9998 613c b298 953d
00000050: 1c6d 7c3d bfc0 263d 0477 4cbd 1695 263d
00000060: 58c0 373e 9d99 9f3d 6a4c ba3d 6cb7 283e
00000070: dfb5 c1bd 3384 c8bc bf0a 0ebe 633f f03d
00000080: b5e3 103d 4a7d 33bd 3636 94bd 97c1 123e
00000090: c7e0 86bc db91 c23d 9df6 2e3e afd4 25be
000000a0: 222f 13bd 5984 213e b539 9e3d 4e65 37be
000000b0: e0f5 01bc 4ae2 cbbb d81f 003c 85a6 2fbd
000000c0: ef79 ab3d 18e9 ad3c 02e3 9b3d 3358 163e
000000d0: aea5 063e 9241 0fbd 6b04 6d3d 8995 623d
000000e0: 73fd 903d 2118 863d b044 26be 5bc2 4c3d
000000f0: 88e0 c53b 1bad bd3c d3c9 033e 6211 ad3d
00000100: 0a72 1d3e 33f3 3cbe 1544 c6bc ed9a 383d
00000110: ad41 eebc a4e0 073e 56be ad3b eafa 763e
00000120: 9c07 313d 6380 efbc 736b e3bc 5b48 1ebe
00000130: 31e5 8fbd f9a7 d0bd beb0 dbbc 980e f6bd
00000140: b00b acbc 19f0 fbbc 7d6a babd 4db8 86bd
00000150: 6b43 da3c 4200 19be ecc5 61bd b037 293e
00000160: c58f 31be 7664 463b 918b c73d 1d7d 773c
00000170: 9217 87bd 3069 003e 8dcf 0b3d 43e2 d0bd
00000180: 19a4 24ba 6615 043e 4097 87bd 188b 0e3e
00000190: f934 a8bd 6bd2 58bd 767d 47be 8fc8 6d3d
000001a0: f526 23bc cf16 bd3d fb57 3ebe ed1b d3bd
000001b0: 854e 653d 52b5 f73b f8b0 b4bc a228 27be
000001c0: 2865 26be 6b73 40be 4c8a cbbd 1041 9d3d
000001d0: d5ef ef3c aaf8 49bd 494e 07be da35 2cbc
000001e0: 01b9 50bd 0620 a6bd da7b 26bd d64f de3c
000001f0: ddf1 a8bd 01f3 dcbd b46d 963d 9834 83bd
00000200: 876b 433e f1c5 763d 3a58 c3bb 8595 39be
00000210: 7282 afbd b50c 75bd 15e9 58bd 48e5 d9bd
00000220: c818 193e 7abb a7bd de59 313c 1c43 d6bd
00000230: f2d6 79bc 1369 c3bd 95ec 8fbc 774c 08bd
00000240: 5ab6 a13d 9bdb 893c f80a bbbd ea49 bebd
00000250: 605c e5bd 0f28 2dbd 4f57 48be 98df 2cbe
00000260: fdbb 04be de5c 7d3d e52b 443a 843e 38be
00000270: 8c32 57bd 78c5 f23d aab7 6cbd 6dc2 f5bd
00000280: ec1f 05bd 9e94 3cbe dbbf 11be 5f91 86bd
00000290: 7401 dfbd 5a42 02be c766 c83d 19b2 05bd
000002a0: 95c0 01bd 70a1 7b3d 5b80 9dbd c496 20bd
000002b0: c403 6dbd be32 56be d9c9 8dbd 408e f5bd
000002c0: 9e49 64bd b4ed 46bd 906c d1bd ae2d d73d
000002d0: 58ad 603c 2148 3cbe 84ac 79bd a521 6abc
000002e0: 1d78 c4bd daf8 2f3c c063 b93d d7e1 86be
000002f0: fc33 a2bd 8daa 13bd eadb d43d 31ae 07be
00000300: b180 f1bd 31c8 5c3d ad94 aabc 1203 6dbd
00000310: 3e81 40be 7b27 be3c 40b5 dd3c 648a 22be
00000320: 2351 f3bd d03e 6a3e f4af d43d 868f 1abe
00000330: e3e7 223d cd76 143e 9459 d8bd 8770 c7bd
00000340: 8995 adbd a5e8 a23b e927 143c 3100 3b3d
00000350: eefa c23a 5cc9 ebbc 5949 503e eab3 46bd
00000360: c31c 87bd 36a3 99bd f840 31be 74d6 9abd
00000370: a3d8 2fbd 4f2e d9bd dcac cebd 3ee8 fc3d
00000380: 93ec 3b3d 5cc7 48b8 d58d 023e a881 19bd
00000390: dce4 24be 4a7d 20be 5b91 01be 6187 abbd
000003a0: ddde 7e3c fa08 6ebd 33c9 483d 059f 013e
000003b0: 1e47 06be b613 203e 6096 923d 353d 063e
000003c0: c346 1a3e a9c4 73be c628 d9bd 0de3 f0bc
000003d0: 90f7 36bd 3fbb febd d277 eb3c 4a6e 05bd
000003e0: b7de 9a3d a014 98bd a8a7 f53d ae56 0bbe
000003f0: b331 b13d 4911 ae3d 9011 d6bd 983a 18be
0.023135647 0.090205625 -0.17479664 0.06427294 0.01373519 0.042744193 0.22963274 0.23525019
0.18456481 -0.044927064 -0.078099065 0.16198067 0.05236074 0.059710156 0.13563018 0.013218478
0.08779581 -0.0084775025 0.013769292 0.07304515 0.061627492 0.04071116 -0.04991819 0.040669523
0.17944467 0.07792971 0.09096606 0.1647622 -0.09458517 -0.0244771 -0.13871287 0.1173084
0.03537341 -0.043820657 -0.072369024 0.14331661 -0.016464604 0.09500476 0.17086263 -0.16194414
-0.03593362 0.15773143 0.077258505 -0.17909738 -0.007932156 -0.006222044 0.007820092 -0.042883415
0.08372866 0.021229312 0.07611658 0.14682083 0.1314914 -0.034974642 0.05786554 0.05531839
0.070795916 0.06547571 -0.1623714 0.04999004 0.006038729 0.023153832 0.12869959 0.08450581
0.15375534 -0.18452148 -0.024202386 0.045069624 -0.029084051 0.13269287 0.005302231 0.24119154
0.043220147 -0.029236024 -0.027761197 -0.15457289 -0.07026137 -0.10188288 -0.026817676 -0.12014502
-0.021001667 -0.030754136 -0.09102342 -0.06578121 0.026643476 -0.14941505 -0.055120394 0.1652515
-0.1734 0.0030272282 0.09743417 0.015105513 -0.065962926 0.12540126 0.034133483 -0.10199406
-0.0006280556 0.12898788 -0.066206455 0.13920248 -0.08213229 -0.052935045 -0.19481453 0.058052596
-0.009958019 0.09232866 -0.1858825 -0.10308061 0.055983085 0.007559457 -0.022057042 -0.16324094
-0.16249526 -0.18794028 -0.099384874 0.07678425 0.029289166 -0.04930941 -0.13213457 -0.010510886
-0.050957683 -0.08111577 -0.040645458 0.027137678 -0.08249257 -0.10788537 0.07345143 -0.06406516
0.19083987 0.060247365 -0.005961445 -0.18123443 -0.08569802 -0.05982657 -0.05295666 -0.10639435
0.1495086 -0.08190055 0.010824649 -0.10462019 -0.015249001 -0.09541526 -0.017568866 -0.033276048
0.07896109 0.016828349 -0.091329515 -0.09291442 -0.1119926 -0.04227453 -0.19564556 -0.16882169
-0.12962337 0.061856143 0.00074833474 -0.17992598 -0.05253844 0.118540704 -0.057792343 -0.119999744
-0.032501146 -0.18416068 -0.14233343 -0.06570696 -0.10888949 -0.12720624 0.09785228 -0.03264055
-0.0316778 0.061433256 -0.076904975 -0.03920628 -0.05786492 -0.20917794 -0.06923265 -0.11990023
-0.05573427 -0.048566535 -0.10225785 0.105067596 0.013713203 -0.1838689 -0.06095554 -0.014290248
-0.09593222 0.010740483 0.09052229 -0.26344177 -0.079200715 -0.03605132 0.10393508 -0.13250042
-0.11792124 0.053901855 -0.020822847 -0.057864256 -0.18799302 0.023212185 0.027063966 -0.15873104
-0.1188071 0.22875524 0.10385123 -0.15093812 0.039771926 0.14498444 -0.10563961 -0.0973826
-0.08475787 0.004971581 0.009042718 0.04565448 0.0014875808 -0.02878254 0.2034048 -0.048511423
-0.06597283 -0.07501833 -0.1730994 -0.07560435 -0.04293121 -0.10604536 -0.10091564 0.12348984
0.04587991 -4.7869384e-05 0.12749417 -0.037477165 -0.16102928 -0.15672794 -0.12653105 -0.08375431
0.015556064 -0.05811403 0.049020004 0.12658317 -0.13113067 0.15632519 0.07157588 0.13109286
0.15066056 -0.23805489 -0.1060348 -0.029405141 -0.044669688 -0.12438058 0.028743658 -0.032575883
0.07562011 -0.07425809 0.119948685 -0.13607284 0.086520575 0.08499391 -0.104525685 -0.14866102

hidden2.bias f4 [32]
00000000: 4efe 8f36 e3aa 01b9 6a7a 0fb8 90f6 1fb8
00000010: b8e0 78b7 5864 8038 b288 17b8 f25b 51b8
00000020: 6a77 c2b6 cc84 90b8 834a 2d38 5912 c0b8
00000030: 5939 8c38 5be9 4db7 ac0a 44b7 e58d 3c38
00000040: d094 d2b6 e0c7 c1b6 6e83 12b8 21c0 d5b7
00000050: c0c3 9837 c2ae b3b7 ec70 cf36 1581 43b7
00000060: 0a42 89b7 fc43 0e38 5b90 67b8 d2f7 1938
00000070: 3f11 3b37 ba86 1138 1db4 95b6 d8e1 fdb8
4.291337e-06 -0.00012366059 -3.4207864e-05 -3.8138183e-05 -1.4834273e-05 6.122206e-05 -3.6128513e-05 -4.9915114e-05
-5.795552e-06 -6.8911904e-05 4.131581e-05 -9.158691e-05 6.686402e-05 -1.22732845e-05 -1.1684995e-05 4.4954842e-05
-6.2758118e-06 -5.7751167e-06 -3.4931516e-05 -2.5481046e-05 1.8210965e-05 -2.141984e-05 6.1822266e-06 -1.165296e-05
-1.6362425e-05 3.3918754e-05 -5.5209133e-05 3.6708843e-05 1.1150084e-05 3.4696168e-05 -4.461514e-06 -0.00012106047

bn3.weight f4 [32]
00000000: 078c 7b3f 5a4b 713f 6dd4 613f ceff 813f
00000010: 72c7 6d3f ab2e 783f 2445 6f3f 605b 663f
00000020: 1612 6b3f aa19 703f 5d35 673f 9a8b 693f
00000030: 8cf0 683f a17f 6f3f 781b 7c3f 663f 6b3f
00000040: 9387 723f e7c3 6f3f e287 773f a566 633f
00000050: 4ebe 763f d942 6a3f 89e2 6b3f 18fa 7c3f
00000060: bfa7 803f 8c9f 783f 7e08 7b3f c2cd 793f
00000070: 6af6 6b3f 18b8 6e3f 28d2 723f 28bb 693f
0.9826054 0.942556 0.8821476 1.015619 0.92882454 0.9694621 0.93464875 0.8998318
0.9182447 0.9378916 0.903158 0.9122864 0.90992045 0.9355412 0.98479414 0.91893613
0.9473812 0.936583 0.96691716 0.888285 0.9638413 0.9150825 0.9214254 0.9881911
1.0051192 0.9711845 0.98059833 0.97579587 0.92172873 0.93249655 0.94851923 0.913012

bn3.bias f4 [32]
00000000: 9867 b8bd 892e 13be 9c70 11be 60dc b9bd
00000010: 0573 b4bc 0a37 bebd 45f9 1cbe ec66 0ebe
00000020: 0e0f 1ebe 8a34 f1bd 8821 7dbe 71ae 13be
00000030: 0735 14be 80a0 a2bd 2490 41be a677 f5bd
00000040: 704e 5bbe 8bc4 4a3c d8ac 8a3d ea4f 1abe
00000050: 185c 1cbb 580c 5ebe b11a d2bd 5a97 96bd
00000060: 5653 54bd 9d5e 08be 6259 02be d777 20be
00000070: 5987 c0bc aed7 66bd 2dba 28be 9598 c0bd
-0.09004134 -0.1437322 -0.14203113 -0.09075236 -0.022027502 -0.092878416 -0.15329464 -0.13906449
-0.1543543 -0.11777599 -0.24719822 -0.14422013 -0.14473353 -0.07940769 -0.18902642 -0.11985712
-0.2141664 0.012375961 0.067712486 -0.15069547 -0.0023858603 -0.21684396 -0.10258997 -0.07353087
-0.051837288 -0.13317342 -0.1272941 -0.15670715 -0.023502039 -0.056358032 -0.1647727 -0.09404103

bn3.running_mean f4 [32]
00000000: 5045 1c3f a875 fbbe dfb5 5dbf 9028 b6be
00000010: 6b81 983e bf03 f1be b8e9 983e 15c5 23bf
00000020: 983a 133f 8bd0 1abf e8f4 76bf aa61 b6be
00000030: f8d5 41bf a837 eb3e 0b51 9cbf efe5 33bf
00000040: e07b 4e3f 620e b83e 8a34 e43e eed4 183e
00000050: 4cae b73e 7696 bd3c cd50 d43e 389d 3fbf
00000060: 03ed d13e 9a5e 003f 3003 ddbe 893c 2dbf
00000070: daa7 883e 7244 913e 4055 3c3f 84fa 303c
0.6104326 -0.49113202 -0.8660564 -0.35577822 0.29786238 -0.4707317 0.29865813 -0.639726
0.5751128 -0.6047446 -0.9646745 -0.35621387 -0.75717115 0.459409 -1.2212232 -0.70272726
0.8065777 0.35948473 0.44571334 0.14924976 0.35875165 0.023143034 0.41467896 -0.7484927
0.41001138 0.5014435 -0.43166494 -0.67670494 0.2669056 0.28372532 0.7356758 0.010801915

bn3.running_var f4 [32]
00000000: 7502 903f 6847 2d3f 0bac 743f e79e 153f
00000010: 1b51 743f 4178 533f 5e4b a73f 2450 893f
00000020: 9c2c 6a3f c127 913f 1873 c53f 4ada 0d3f
00000030: f71a 843f 62ac 423f 6ee9 e53f 229b 8c3f
00000040: a3f4 7b3f ba87 983f dd18 913f 1c7b 773f
00000050: 1bb7 803f 64ff 963f 4cdf 663f 53b2 7d3f
00000060: 9468 8f3f f595 c53f 7b70 593f 3eda 8b3f
00000070: 74e1 843f c5ab 923f c5aa 853f 432a bf3e
1.125075 0.6768708 0.95575017 0.5844559 0.9543626 0.8260537 1.3069875 1.0727582
0.9147432 1.1340257 1.5425749 0.5541121 1.0320729 0.76044285 1.7961862 1.0984843
0.9842016 1.191642 1.1335713 0.96672225 1.0055879 1.1796689 0.90184474 0.99100226
1.120379 1.5436388 0.84937257 1.0925977 1.0381303 1.145867 1.044274 0.3733693

output_layer.weight f4 [1, 32]
00000000: 874e 9b3d 4c75 fa3d 2191 943d 3a20 01be
00000010: 9dec d7bd b2ea b73d 9ced c9bd 4196 e9bd
00000020: ae2e ad3d 30a2 f3bd 9c7c 0d3e 1091 e7bd
00000030: 3b87 c4bd 3417 9f3d 8a60 dd3d bfd0 c1bd
00000040: e7e9 a73d 04df b2bd 68ab d9bd e825 bcbd
00000050: 5dfc c1bd a389 f0bd 5ce7 d23d 17c2 e2bd
00000060: d75d a53d 03cd bebd 8959 d2bd 8175 123e
00000070: 4e18 8d3d 479e 973d 63fd 873d c771 bfbd
0.07583337 0.12229404 0.07254244 -0.1260995 -0.10543177 0.089803115 -0.098597735 -0.11405612
0.08456169 -0.11896169 0.13817066 -0.11306965 -0.09596106 0.077680975 0.10809429 -0.09463643
0.0819891 -0.08733943 -0.10628396 -0.091869175 -0.094719626 -0.11745002 0.102980345 -0.11072176
0.08074539 -0.09316447 -0.10270984 0.14302637 0.068894014 0.07403236 0.066401266 -0.09347873
