models/best_supervised_model_robust.pth (torch, 750717 bytes, 25 tensors)

fc1.weight f4 [512, 16]
000000 c6 dc c5 3e b7 a4 1f bf 5f 82 bb be a3 9a 61 be
       0.38645 -0.6236071 -0.36622903 -0.22031645
000010 7f 45 17 3f 10 e1 d4 bc 12 7d a5 3d 54 30 ba 3e
       0.5909042 -0.025986224 0.08080496 0.36364996
000020 22 5c b7 3d bb 5a 8f bd c6 7b 93 3e 22 7a 65 3e
       0.0895312 -0.06999727 0.2880537 0.22409871
000030 bc 9d f6 3e 46 18 a7 be d7 d8 99 3e 26 0e 32 be
       0.48167217 -0.32635707 0.30048248 -0.1738821
000040 af 0c 90 be f5 01 cc bd 71 fb 1b 3e da 88 a1 3d
       -0.28134677 -0.09961311 0.15232636 0.078874305
000050 f1 73 53 3e 5e c9 db be 9b 80 9e be 2e 83 ed bd
       0.20649697 -0.42927068 -0.30957493 -0.11597286
000060 62 54 c9 3d 00 bd e3 3d 37 d4 a7 3e ec e0 9f 3e
       0.09830548 0.11120033 0.32779095 0.3122629
000070 8e 9a ea 3e 27 d7 d9 3e 0b 2c f0 bd b8 e0 fd be
       0.4582104 0.4254696 -0.117271505 -0.4958551
000080 44 1c d2 3c 03 dd 99 be dc 16 88 bd 23 ea 07 3e
       0.025648244 -0.3005143 -0.06644985 0.1327291
000090 68 c5 b4 bc 5b 4f 82 bf f0 07 d6 3e 46 a9 9f bd
       -0.022066787 -1.0180467 0.4180293 -0.07795958
0000a0 8b 8e b8 be 0f 0a ad 3e c3 f5 7c be 1d 2d ce be
       -0.36046252 0.33796737 -0.24703126 -0.40268794
0000b0 03 37 81 3e 22 22 98 be 4c 6d e5 3e 8b 70 2b bc
       0.25237283 -0.2971354 0.4480995 -0.010463844
0000c0 67 2e 97 be 78 fc a1 bc 77 00 b9 be ce e9 7e be
       -0.2952759 -0.019773707 -0.36133167 -0.24893877
0000d0 ab dc af bd c9 b8 e7 be 03 55 67 be 59 63 c0 be
       -0.08587011 -0.45258167 -0.22591023 -0.37575796
0000e0 f9 c2 1c 3f 22 c3 1e 3e 40 c9 6a 3e 07 f3 2e be
       0.61235005 0.15504125 0.22928333 -0.17084895
0000f0 f3 61 fd 3e 65 2f f1 3b dd 81 69 3d cb f8 66 be
       0.49488792 0.007360386 0.057008613 -0.22555844
000100 4a 50 1a be 41 6b c2 be 9b 42 d5 3e 1a 84 24 3e
       -0.1506969 -0.37972453 0.41652378 0.16066018
000110 fc ff 10 be db fe 8b be b5 a0 45 be 4c 95 c5 3d
       -0.1416015 -0.27342877 -0.19299586 0.09647617
000120 fb ef 4b bf bd f3 72 3f 92 f8 0a bf c6 26 17 bd
       -0.79663056 0.94903165 -0.5428554 -0.03690221
000130 f9 a9 4f 3f be 99 3b be 92 59 0a 3f 0e f2 02 3f
       0.8111873 -0.18320367 0.54042923 0.51150596
000140 9a ea a7 be 91 08 74 be 33 48 ad be 15 4d 14 be
       -0.32796174 -0.23831393 -0.33844146 -0.1448253
000150 9d b7 83 3e c1 78 06 3f e3 b8 2b 3d 66 ab d7 be
       0.25726023 0.52528006 0.04192437 -0.42122954
000160 c1 a9 7e 3f 39 0e 0e bf 9b 51 8f be ed f0 c5 bd
       0.99477774 -0.5549045 -0.27991948 -0.096650936
000170 28 f5 44 bf e8 4a ee 3c ce dc 92 be 8c c8 41 be
       -0.7693658 0.029088452 -0.28684086 -0.18924159
000180 fc 8d 90 be 3a 0c 0e bd e6 20 a3 3e 05 0d b1 be
       -0.28233325 -0.03467963 0.31861037 -0.34580246
000190 e0 0e 50 be 33 43 70 be d6 f1 87 be cc b5 20 bb
       -0.20318174 -0.23463134 -0.26551694 -0.0024522422
0001a0 6e c2 59 3f df 15 09 bf 27 06 2e 3e fb 71 16 3e
       0.850623 -0.53549 0.16994534 0.14691918
0001b0 b7 39 04 bf 86 38 61 3d 82 e1 8f 3f 84 ea a2 bd
       -0.51650566 0.054985546 1.1240695 -0.079548866
0001c0 be 63 ad 3e 04 f7 64 bd 05 3a 31 3f 08 25 09 be
       0.3386516 -0.055899635 0.69229156 -0.13393033
0001d0 2d 34 69 3d 0a 24 b1 be 98 b8 69 be 58 ec 82 3e
       0.056934524 -0.34597808 -0.22824323 0.2557094
0001e0 be 45 92 3e c5 95 44 be 5c 4c be 3e d0 09 94 be
       0.28568834 -0.19197758 0.37167633 -0.28913736
0001f0 2d df cb 3d ca 75 d3 3e 8b 68 e0 3e 87 82 8c 3d
       0.09954677 0.41300803 0.4382976 0.068608336
000200 53 d6 5a be 49 d2 f5 3e d9 ec 77 3e bb 0f 2e 3e
       -0.2137082 0.48011997 0.24211444 0.16998188
000210 70 81 0c bf f4 9e 9e 3e 56 b3 1c bf 56 6d b4 be
       -0.54885006 0.30980647 -0.61211145 -0.35239667
000220 04 d0 e9 be f0 dd 75 bf 94 49 05 3e b2 c1 04 3f
       -0.45666516 -0.96041775 0.13016349 0.51858056
000230 9f 8c 6a 3e c4 d3 d7 be 13 31 ef bd 12 bf 4d 3d
       0.22905205 -0.42153752 -0.11679282 0.050231047
000240 eb 21 70 be 22 cd d4 3d 49 bb b0 be 5b 98 52 be
       -0.23450439 0.103906885 -0.34517887 -0.20565931
000250 15 29 16 3f 7c 50 85 3e d7 d8 78 be 06 7a 5c 3d
       0.58656436 0.26037967 -0.24301468 0.053827308
000260 e1 35 ac bd 95 c1 70 be 24 84 2d be 42 a0 5a 3f
       -0.08408714 -0.23511346 -0.16944939 0.85400784
000270 d2 91 fa 3e 09 fa 4c 3e 8c b7 89 3e a2 a2 86 3e
       0.48939377 0.20017256 0.26897848 0.26295954
000280 a7 5e 22 3f 52 d6 36 3e 0c 70 e0 bc 9a c2 df 3e
       0.6342568 0.17855194 -0.027397178 0.43703157
000290 06 ae a5 3e dc 87 dd 3e 6d c9 e8 be d3 d8 a5 bc
       0.32359332 0.43267715 -0.45466176 -0.020244991
0002a0 a6 ba 09 bf 2c 99 83 be e1 7a 41 3f 5d d3 18 3e
       -0.5380043 -0.25702798 0.75578123 0.14924379
0002b0 6a 96 90 bc df 21 f2 be fc d4 20 3f 56 5a 88 3e
       -0.017649848 -0.47291467 0.6282499 0.2663142
0002c0 4d 4a 99 bc d1 be 7b bf 90 f5 e4 3e d6 09 0d 3c
       -0.018712187 -0.9833804 0.447186 0.008608302
0002d0 42 08 ca be 2d bc 66 bf fb 95 bd 3d 3e 86 ae be
       -0.39459425 -0.90130883 0.09257122 -0.34086794
0002e0 4b cd 18 3c 3b 58 86 3d a3 ea 31 3f cd c8 0c bf
       0.009326289 0.065597974 0.6949865 -0.549939
0002f0 c5 48 ec 3d 64 b8 42 3e 1a 90 b8 bc 55 40 9d 3e
       0.11537317 0.19015652 -0.02252965 0.30713144
000300 4d a5 2a be ac 21 16 3e 43 e5 b3 be e7 f4 ff 3e
       -0.1666462 0.14661282 -0.3513585 0.49991533
000310 e2 df 60 3d f5 2c e0 3c 04 5e 41 be 95 45 a8 be
       0.05490101 0.027365187 -0.1888352 -0.32865587
000320 b1 27 b1 bc b7 47 0b 3f 47 a4 b7 3e 61 2f c4 be
       -0.021625372 0.54406303 0.3586752 -0.38317397
000330 90 a5 ae be c9 48 a2 3e fe 49 03 3d 42 9a e5 3e
       -0.3411069 0.31696156 0.032052986 0.44844252
000340 47 a6 72 3e d1 66 48 3e 2b 32 ac be 16 ea b7 bd
       0.23696242 0.19570471 -0.33632025 -0.08980195
000350 c5 7b 21 3f 03 7f f2 3d b7 0b f4 be a3 c3 29 be
       0.6307948 0.11840632 -0.47665188 -0.16578536
000360 2e f3 19 bf b1 52 2c 3f e1 df 04 3e 3c bc cf bc
       -0.6013669 0.6731368 0.12976028 -0.025358312
000370 1a f2 05 bf c0 37 af be a0 09 18 3d 57 d5 11 3f
       -0.5232254 -0.3422222 0.037118554 0.56966156
000380 9a b2 15 3f b3 73 46 3e e8 6b 82 3e be 5f 60 be
       0.5847565 0.19380073 0.2547295 -0.21911523
000390 a0 d0 1d bf 13 11 6d bd 41 ee 1d 3f e2 9a 0e 3e
       -0.6164646 -0.05787761 0.6169167 0.1392627
0003a0 a7 c4 90 3d ee 14 df 3e 28 95 55 bd a4 3e 95 be
       0.070687585 0.43570656 -0.0521442 -0.29149354
0003b0 5c 68 f7 bd df ff 95 3e 28 2f f9 3d bf 8f 46 3c
       -0.12080452 0.29296777 0.121671975 0.012119233
0003c0 84 fe f1 3e ca 1d 71 3e 7e 8e d9 3d ad 99 40 3e
       0.47264493 0.2354652 0.10622881 0.18808623
0003d0 8e 00 25 bf d0 61 ac be 6d e8 95 bc f9 21 ec 3d
       -0.6445397 -0.33668375 -0.018299306 0.11529917
0003e0 9e bb 2f 3e 36 64 2d 3c a4 70 86 3f 28 c3 f7 3c
       0.17161414 0.010582974 1.0503125 0.030244425
0003f0 6f 4f f7 3e 2a 19 94 be 31 c8 08 be bb 2a 09 3c
       0.4830279 -0.2892545 -0.13357617 0.008372004

fc1.bias f4 [512]
000000 f6 8e 28 36 d5 59 e5 b6 18 46 f7 b5 71 68 60 36
       2.5117165e-06 -6.8351897e-06 -1.8423334e-06 3.3439394e-06
000010 32 7e df b6 f1 cd c1 b5 78 83 36 36 87 9c 1a 37
       -6.660609e-06 -1.4439557e-06 2.7196638e-06 9.21556e-06
000020 7f 54 61 b6 37 17 95 b6 d2 83 1d b7 3a 9e 81 36
       -3.3576796e-06 -4.4432486e-06 -9.388621e-06 3.8629196e-06
000030 35 5b 51 b7 8e 0f af b6 cf 57 e6 35 5b a7 e1 b5
       -1.2478607e-05 -5.217217e-06 1.7161891e-06 -1.6812513e-06
000040 0b 9c 8f b6 29 1d 7b b6 fd 75 d2 37 68 19 a7 35
       -4.279898e-06 -3.7418888e-06 2.5088893e-05 1.2449864e-06
000050 27 4c eb 37 07 78 bb b5 f0 7d df b5 69 e8 49 37
       2.8049644e-05 -1.3967518e-06 -1.6651447e-06 1.2034646e-05
000060 91 f8 60 37 43 a3 fc b6 6d 70 d0 36 54 e4 b4 36
       1.3409314e-05 -7.5291914e-06 6.211971e-06 5.390999e-06
000070 65 71 0e 37 88 e2 d7 b6 9d 2d a6 36 e0 a6 1d 37
       8.490261e-06 -6.433871e-06 4.9524956e-06 9.396783e-06
000080 ec 51 63 b7 54 92 0d 37 dd 31 99 b5 43 1b ad b6
       -1.3549328e-05 8.438325e-06 -1.14139e-06 -5.1589755e-06
000090 c3 b0 18 b6 3a 87 47 35 c7 cc b7 b7 f8 75 aa b5
       -2.2752654e-06 7.433006e-07 -2.1910657e-05 -1.270032e-06
0000a0 61 1c 5c b6 47 f9 95 b7 c9 e0 17 37 eb 7e 23 34
       -3.2799073e-06 -1.7878263e-05 9.052638e-06 1.522673e-07
0000b0 7c 68 6d b6 26 19 a3 37 23 8e 2d b7 34 20 08 36
       -3.537657e-06 1.9442825e-05 -1.0344697e-05 2.0284324e-06
0000c0 90 03 56 34 08 d1 3f 36 3c 2f 99 b6 ca 74 4a 36
       1.9931599e-07 2.858289e-06 -4.565254e-06 3.0168326e-06
0000d0 f7 b7 98 36 0f b3 6b b6 8a 03 b0 b6 8c 9d eb 36
       4.5513693e-06 -3.5121955e-06 -5.2456207e-06 7.0218866e-06
0000e0 c1 ae d0 b5 4e 1a 81 b7 a1 78 71 36 fd 5b db b6
       -1.5548068e-06 -1.5390247e-05 3.5982014e-06 -6.5374174e-06
0000f0 65 f2 21 37 e5 8d 27 b7 5c 17 ec 35 60 6d 76 b6
       9.652785e-06 -9.987013e-06 1.7590169e-06 -3.6720521e-06
000100 b9 46 1d 37 75 8a 6d b6 f1 5f 82 b5 01 f1 01 b5
       9.374396e-06 -3.5396345e-06 -9.713677e-07 -4.840695e-07
000110 78 f8 e3 b6 5c 0e b5 36 92 b5 be 35 3d 4b 6a 36
       -6.7940528e-06 5.395892e-06 1.4208947e-06 3.4912512e-06
000120 7f 0b 16 b7 29 9c 3e 37 ad 56 22 36 f6 1c 96 b6
       -8.943373e-06 1.1361241e-05 2.4190333e-06 -4.47372e-06
000130 55 5e 06 37 95 8b 88 b7 c8 a7 7b 36 2f c1 92 36
       8.008986e-06 -1.6277461e-05 3.7499576e-06 4.3736286e-06
000140 aa ba 5c b7 01 b6 65 36 3c b5 59 37 84 76 0e 37
       -1.3156483e-05 3.42296e-06 1.2976405e-05 8.491454e-06
000150 a2 2a e3 b6 fd 08 82 37 8c bf 44 b6 95 cb 01 36
       -6.7700903e-06 1.5501393e-05 -2.931777e-06 1.9340998e-06
000160 63 14 83 36 ab 0b 98 b7 e4 85 df 36 c1 05 66 37
       3.9064776e-06 -1.8125245e-05 6.661505e-06 1.3710408e-05
000170 52 b2 c5 b5 52 7c f2 b6 45 b0 91 37 08 79 77 b7
       -1.4729542e-06 -7.226635e-06 1.7367429e-05 -1.4750527e-05
000180 6d b9 ae b5 22 67 84 37 6e 03 d6 35 cf 80 79 36
       -1.3017976e-06 1.5783651e-05 1.5945241e-06 3.7178868e-06
000190 fc 29 a8 35 b8 4a 2b b7 53 23 88 b7 6f 26 26 37
       1.2529194e-06 -1.0209791e-05 -1.6228913e-05 9.90332e-06
0001a0 3d a2 e7 36 bd c6 8c b6 45 b5 ad 37 03 15 1b 37
       6.9032235e-06 -4.1954613e-06 2.0707617e-05 9.243612e-06
0001b0 c8 ba e0 36 0b 82 f1 b4 c6 a7 1e 37 74 09 0d b7
       6.6974644e-06 -4.4984367e-07 9.456597e-06 -8.406456e-06
0001c0 4e c4 57 b7 96 23 9b b6 cb fc 3e b7 4e 88 be 34
       -1.2860704e-05 -4.6235027e-06 -1.13837405e-05 3.5489433e-07
0001d0 0d 95 be 36 ec 2a 1d 36 fd 29 6d 37 e6 d3 e4 b6
       5.679793e-06 2.3419807e-06 1.4136077e-05 -6.8195977e-06
0001e0 ff 4a b5 b5 56 6d db 36 b5 b1 3f b4 48 d7 7c b7
       -1.3507378e-06 6.539437e-06 -1.785291e-07 -1.5070495e-05
0001f0 de 80 7d b5 7c 1a 06 38 6f f1 24 37 96 71 46 36
       -9.443737e-07 3.1972755e-05 9.831375e-06 2.9570415e-06
000200 c5 08 9f b6 f7 9d 96 b6 ed 4b 21 b7 b3 60 a7 b6
       -4.73959e-06 -4.488738e-06 -9.614026e-06 -4.988245e-06
000210 98 57 c5 b6 86 0e ae 36 6a 43 27 b6 5e ec 31 36
       -5.8812548e-06 5.187295e-06 -2.492418e-06 2.651264e-06
000220 97 26 6e 37 74 d7 37 36 e5 37 3f 37 94 b1 85 b6
       1.419489e-05 2.7394535e-06 1.1397501e-05 -3.9843817e-06
000230 d4 62 5a b6 61 53 91 37 c5 ec c5 35 01 13 b6 36
       -3.2542057e-06 1.7324173e-05 1.4746553e-06 5.426235e-06
000240 31 c7 e0 b5 d3 fd 67 b6 0e f7 15 37 04 05 bc 36
       -1.6747273e-06 -3.4569427e-06 8.938614e-06 5.6034205e-06
000250 24 15 d8 b6 de f6 64 37 2f 42 3e 36 21 17 87 b6
       -6.4397627e-06 1.3647337e-05 2.835073e-06 -4.026006e-06
000260 81 bd 0e b7 a9 52 5a b6 e0 95 67 b6 79 ca 32 36
       -8.507982e-06 -3.2532646e-06 -3.450892e-06 2.6641922e-06
000270 26 31 fa 36 ea 1e 1a b7 84 65 4d b6 23 63 0a 36
       7.4563022e-06 -9.186313e-06 -3.060647e-06 2.0621308e-06
000280 3b 19 a9 37 93 de 46 37 fc 7a 0f b6 72 76 fa 34
       2.0158119e-05 1.1853542e-05 -2.1380247e-06 4.665231e-07
000290 90 99 de 35 8f 2a 6a b7 85 64 0d 36 fa c7 39 b6
       1.6584981e-06 -1.3957396e-05 2.1069147e-06 -2.768355e-06
0002a0 4b 7d 42 b6 c1 76 3a 36 97 84 f9 35 37 29 5b 36
       -2.8981183e-06 2.7785284e-06 1.8590534e-06 3.2657533e-06
0002b0 88 10 c3 36 04 b3 04 36 ce ba 33 35 50 b2 92 36
       5.8133774e-06 1.9773734e-06 6.6954533e-07 4.3718974e-06
0002c0 de aa 02 b7 87 9d ce 35 a7 7c fc 36 0a e6 c4 36
       -7.788387e-06 1.5394043e-06 7.5246967e-06 5.8680353e-06
0002d0 a2 0a 0e b7 b2 df 5b b6 7a 77 4d 36 d7 ba 84 36
       -8.466335e-06 -3.276375e-06 3.0616925e-06 3.9556576e-06
0002e0 31 35 ba 36 17 0d ee b5 27 0c 01 b7 b7 85 d3 b7
       5.5494243e-06 -1.7736191e-06 -7.691829e-06 -2.5215426e-05
0002f0 84 2c be b6 9a 1a 32 37 f7 4b 17 b5 1f f6 7c b6
       -5.6676236e-06 1.061582e-05 -5.6362427e-07 -3.7694188e-06
000300 f6 f7 98 b4 17 86 66 b5 35 a2 18 37 da 70 a9 b5
       -2.8492622e-07 -8.5876803e-07 9.097673e-06 -1.2624325e-06
000310 35 ce de 36 d1 8d a8 b5 6b 42 92 37 42 d2 c7 36
       6.6401212e-06 -1.2558249e-06 1.7435485e-05 5.9551394e-06
000320 13 ad be b6 8c 3d f5 35 98 6c be 35 0c 78 8a b7
       -5.6825897e-06 1.8271835e-06 1.4187708e-06 -1.6506783e-05
000330 bd 0b de 36 a4 8e 64 b6 0f 3c c9 36 36 f7 1e 37
       6.617482e-06 -3.4057675e-06 5.9972585e-06 9.475092e-06
000340 b1 ba 8a b6 08 c4 fb 36 88 17 9e b6 33 3d 66 36
       -4.1344542e-06 7.503204e-06 -4.7115063e-06 3.4308293e-06
000350 22 9f 3a 37 cf 6c 31 b7 c9 a1 67 b5 3b 7a bb 34
       1.1123515e-05 -1.0575356e-05 -8.6289634e-07 3.49204e-07
000360 a4 d3 b9 b4 59 9a c9 37 d9 9b 85 b4 10 a4 f1 35
       -3.4612924e-07 2.4032941e-05 -2.4886575e-07 1.8003648e-06
000370 ee e2 62 b6 d2 3f 13 b7 ed 06 60 b6 09 ee fa 36
       -3.3808715e-06 -8.776742e-06 -3.3382632e-06 7.4782915e-06
000380 9f 5a 5d b7 9b ab 7b b6 1f e0 1e b5 fa 37 93 36
       -1.3193726e-05 -3.7501802e-06 -5.9185726e-07 4.387458e-06
000390 b7 f0 a0 b6 c4 63 9c b5 45 6e 06 b6 6b cb e6 b5
       -4.7963945e-06 -1.1651941e-06 -2.0031741e-06 -1.7195538e-06
0003a0 d0 47 b5 b6 70 50 97 b6 0a d8 dd b7 10 a5 ec b6
       -5.4025804e-06 -4.509515e-06 -2.6445854e-05 -7.052564e-06
0003b0 87 2d 9e 36 35 05 ee b5 9e bb 56 36 11 66 8f b6
       4.714067e-06 -1.7733897e-06 3.1997693e-06 -4.273614e-06
0003c0 d0 5c c5 b6 a7 f7 fd b5 37 5d 90 36 95 ea 29 b7
       -5.8818623e-06 -1.8922045e-06 4.302386e-06 -1.0127803e-05
0003d0 5e 53 23 b7 da cf 5b b6 c5 ec 3d b6 25 c3 e1 b5
       -9.7349675e-06 -3.2754529e-06 -2.8301013e-06 -1.6820601e-06
0003e0 4e a2 dc 36 d2 63 71 b5 8f 7c 61 b7 03 64 05 37
       6.5754057e-06 -8.9924754e-07 -1.3440046e-05 7.950704e-06
0003f0 4c 46 2c b7 85 3c 29 b7 27 f4 b4 36 f1 2d a4 b6
       -1.0268366e-05 -1.0087276e-05 5.392841e-06 -4.892929e-06

bn1.weight f4 [512]
000000 33 17 82 3f af 2f 80 3f c4 d7 80 3f 87 5f 80 3f
       1.016333 1.0014552 1.0065846 1.0029153
000010 11 a1 7f 3f b5 61 7f 3f e4 2e 7f 3f 67 4f 7f 3f
       0.9985514 0.99758464 0.99680924 0.99730533
000020 63 7d 7f 3f 9c 4c 7f 3f 71 fd 7f 3f 14 70 7d 3f
       0.998007 0.9972627 0.99996096 0.9899914
000030 e0 7d 7f 3f 9d a6 7c 3f ae 64 81 3f fa 6d 80 3f
       0.99801445 0.9869173 1.010885 1.0033562
000040 e9 1f 80 3f 99 cc 7d 3f bc c9 7d 3f db f9 7e 3f
       1.0009738 0.99140316 0.9913595 0.996
000050 79 6c 80 3f fb 73 7e 3f 1b b5 80 3f 52 99 7f 3f
       1.0033103 0.9939572 1.0055269 0.99843323
000060 c8 18 80 3f 8a 30 7f 3f 4a ca 80 3f 89 67 80 3f
       1.0007563 0.9968344 1.0061734 1.0031596
000070 78 1b 80 3f 72 ab 7f 3f 14 23 7f 3f 06 42 7e 3f
       1.0008383 0.9987098 0.996629 0.99319494
000080 79 58 7d 3f 61 f5 80 3f f9 35 80 3f 0a 3d 80 3f
       0.98963124 1.0074884 1.0016471 1.0018628
000090 dc 62 7f 3f 74 3c 80 3f 19 5e 80 3f 77 fb 7f 3f
       0.9976022 1.0018449 1.0028716 0.9999308
0000a0 fa 99 7f 3f 67 23 82 3f 4f 0b 81 3f 14 1a 81 3f
       0.99844325 1.0167054 1.0081576 1.0086083
0000b0 1e be 7e 3f 20 ea 7f 3f 66 40 80 3f e4 fa 80 3f
       0.99508846 0.9996662 1.0019653 1.0076566
0000c0 70 a5 80 3f 2b f4 80 3f 3d 3c 80 3f a2 1d 7e 3f
       1.0050488 1.0074514 1.0018383 0.99263966
0000d0 27 28 80 3f 84 27 7f 3f b4 ab 7f 3f a9 a4 7e 3f
       1.0012254 0.9966967 0.99871373 0.9947
0000e0 ff 2b 80 3f 02 1a 80 3f 46 7c 7d 3f 80 af 81 3f
       1.0013427 1.0007937 0.9901775 1.0131683
0000f0 b9 9f 80 3f 29 55 7f 3f 65 b8 80 3f 6f 8c 80 3f
       1.0048743 0.9973932 1.0056273 1.0042857
000100 32 5a 7e 3f f6 87 7e 3f fa 21 80 3f 0d 2a 80 3f
       0.9935638 0.9942621 1.0010369 1.0012833
000110 6a 41 80 3f ce 9d 80 3f c0 ba 7d 3f 8b 76 80 3f
       1.0019963 1.0048158 0.9911308 1.0036176
000120 f5 b1 80 3f 89 69 7f 3f ff 10 80 3f 47 2c 80 3f
       1.0054308 0.9977041 1.0005187 1.0013512
000130 50 28 80 3f bf 17 7e 3f 72 6f 80 3f c7 24 80 3f
       1.0012302 0.99254984 1.003401 1.0011224
000140 98 19 7e 3f 55 07 80 3f 21 05 80 3f 51 36 80 3f
       0.992578 1.0002238 1.0001565 1.0016576
000150 d3 3b 81 3f d1 ef 7e 3f 1b dd 7f 3f 94 c8 7d 3f
       1.0096382 0.9958468 0.99946755 0.9913418
000160 78 f8 7e 3f 8a 4a 7f 3f 6e 42 80 3f 98 18 81 3f
       0.99597883 0.9972311 1.0020273 1.008563
000170 8c bb 80 3f b6 10 81 3f 5c 0d 80 3f 83 ae 7e 3f
       1.0057235 1.0083225 1.0004077 0.99485034
000180 00 6e 80 3f 76 d9 7d 3f a5 4f 7f 3f c9 07 7f 3f
       1.0033569 0.99159944 0.997309 0.99621254
000190 77 60 80 3f 85 a8 7f 3f ea 52 80 3f 67 d7 80 3f
       1.0029439 0.99866515 1.0025303 1.0065736
0001a0 03 4d 80 3f ac af 7f 3f 1c cc 7e 3f 2f 9d 7f 3f
       1.0023502 0.9987743 0.99530196 0.9984922
0001b0 82 b0 80 3f 23 0f 7e 3f 21 b4 80 3f 4c 41 80 3f
       1.0053866 0.99241847 1.0054971 1.0019927
0001c0 87 35 80 3f 70 68 7f 3f 6b fa 7e 3f 98 7b 7f 3f
       1.0016335 0.99768734 0.9960086 0.99797964
0001d0 e0 ef 7e 3f 77 c4 7e 3f 7c 56 7e 3f 3a e4 7d 3f
       0.9958477 0.9951853 0.99350715 0.9917637
0001e0 b8 2e 7f 3f fd b5 7f 3f 7c e4 7e 3f c9 22 81 3f
       0.9968066 0.9988707 0.9956739 1.008874
0001f0 36 44 7f 3f ff 40 7f 3f cc f6 7d 3f 25 1b 7f 3f
       0.99713457 0.9970855 0.9920471 0.99650794
000200 41 a9 7d 3f 8c e4 7e 3f 26 79 7f 3f 41 bf 7f 3f
       0.99086386 0.99567485 0.9979423 0.99901205
000210 7a 35 7f 3f a8 3d 80 3f db 9e 80 3f e4 b6 7e 3f
       0.99690974 1.0018816 1.0048479 0.9949782
000220 11 6a 80 3f 0c 3b 80 3f 8a 86 7f 3f 0d 6b 80 3f
       1.0032369 1.001802 0.99814665 1.0032669
000230 2c dd 7f 3f ff 5f 80 3f 0e 22 7e 3f fe 15 80 3f
       0.99946856 1.0029296 0.99270713 1.0006711
000240 fd ee 7f 3f 04 d2 7f 3f e4 af 7f 3f 36 90 7f 3f
       0.9997404 0.99929833 0.9987776 0.99829423
000250 79 4b 80 3f 5e fe 7e 3f 00 24 7f 3f fb 2e 80 3f
       1.0023032 0.99606884 0.99664307 1.0014337
000260 37 09 80 3f af 07 80 3f a0 de 7d 3f 54 ed 7f 3f
       1.0002812 1.0002345 0.99167824 0.9997151
000270 2c 23 7f 3f 7d 0d 7f 3f 29 36 7f 3f a8 44 7d 3f
       0.99663043 0.99629956 0.99692017 0.98932886
000280 1b 7e 80 3f 6c 46 80 3f bb 6a 7e 3f ec 97 80 3f
       1.0038484 1.0021491 0.9938161 1.0046363
000290 aa 06 80 3f eb 34 80 3f f8 ca 7d 3f 3c ce 7f 3f
       1.0002034 1.0016149 0.9913783 0.99924064
0002a0 b0 b1 7e 3f f2 79 80 3f eb cf 7e 3f 34 b1 7e 3f
       0.9948988 1.0037215 0.9953601 0.9948914
0002b0 7e cf 7f 3f 80 7c 7e 3f 80 3f 81 3f ef fa 7e 3f
       0.9992598 0.9940872 1.0097504 0.99601644
0002c0 4f 9f 7d 3f e7 9a 7f 3f c9 9a 7e 3f 53 95 7f 3f
       0.9907121 0.9984574 0.99454933 0.99837226
0002d0 2d 4b 7e 3f 13 ab 80 3f 87 14 81 3f 32 8f 80 3f
       0.9933346 1.0052208 1.008439 1.00437
0002e0 29 68 80 3f f0 a6 80 3f 39 c4 7d 3f 2d 0c 80 3f
       1.0031787 1.0050945 0.99127537 1.0003716
0002f0 d8 91 80 3f 0a 57 7e 3f b1 ec 80 3f 1d 28 80 3f
       1.0044508 0.9935156 1.0072232 1.0012242
000300 8f 81 80 3f b4 82 7e 3f 43 16 80 3f f6 2a 80 3f
       1.0039538 0.9941819 1.0006794 1.0013111
000310 29 f2 7d 3f cc a7 7f 3f 34 01 7e 3f 53 9c 80 3f
       0.9919763 0.9986541 0.99220586 1.0047706
000320 be 09 80 3f e9 d8 7e 3f c4 14 7e 3f a7 d9 7f 3f
       1.0002973 0.9954973 0.99250436 0.99941486
000330 48 bc 7f 3f d3 72 80 3f 91 34 7f 3f 68 6d 7f 3f
       0.9989667 1.0035042 0.99689585 0.99776316
000340 6f f2 81 3f f7 a4 7f 3f 00 10 7f 3f 2e 3e 7e 3f
       1.015211 0.9986109 0.9963379 0.9931363
000350 91 4f 7d 3f 27 06 80 3f fd 37 80 3f 1a d1 7d 3f
       0.98949534 1.0001878 1.0017086 0.9914719
000360 53 e4 80 3f 6c 8d 7e 3f ff 3a 80 3f b2 0d 80 3f
       1.0069679 0.9943454 1.0018004 1.000418
000370 60 65 7f 3f 36 ce 7e 3f 1b ad 7e 3f 1c 5f 7f 3f
       0.9976406 0.995334 0.9948289 0.997545
000380 00 27 80 3f 7d 83 80 3f 12 58 80 3f 7e 5c 7f 3f
       1.0011902 1.0040127 1.0026877 0.99750507
000390 24 d9 80 3f 74 c5 7f 3f 04 62 80 3f d9 61 81 3f
       1.0066266 0.99910665 1.0029912 1.0107986
0003a0 5a 18 80 3f 39 af 7d 3f 63 09 7f 3f ba cb 7e 3f
       1.0007432 0.99095494 0.996237 0.9952961
0003b0 5e 58 7e 3f af 68 7e 3f c5 62 80 3f 07 ab 7f 3f
       0.9935359 0.99378484 1.0030142 0.9987034
0003c0 44 a3 7f 3f 98 49 7e 3f 0c c3 80 3f 01 ec 7e 3f
       0.998585 0.99331045 1.0059524 0.99578863
0003d0 3c 8d 80 3f 9d 80 80 3f a7 f6 81 3f a6 cc 7f 3f
       1.0043101 1.003925 1.0153397 0.99921644
0003e0 36 7f 81 3f fa 13 81 3f d7 91 80 3f 92 1a 81 3f
       1.0116947 1.0084221 1.0044507 1.0086234
0003f0 d6 a8 7f 3f 24 b5 7f 3f 0f 73 7f 3f 14 ac 7e 3f
       0.99867 0.99885774 0.9978494 0.9948132

bn1.bias f4 [512]
000000 cc d9 22 3c 96 4b 6e bb da d6 d8 b9 9e fe 92 b8
       0.009939622 -0.003636097 -0.00041358807 -7.009249e-05
000010 33 4b 0a 3b f0 81 7a ba d3 e1 1e bc 5e cd 8d bb
       0.002110195 -0.00095561054 -0.009697395 -0.00432746
000020 93 d2 98 bb bc 1c 98 bb 15 d9 23 bb 52 ed 2e bc
       -0.0046637743 -0.0046420973 -0.0025001217 -0.010676699
000030 a7 71 81 bb 64 72 2a bc e2 32 03 3c 1c 28 33 3b
       -0.003950316 -0.010403249 0.008007737 0.002733714
000040 bb 4e ca b8 6d 9f a0 bb cb 70 2f bc 92 2d 55 bb
       -9.646775e-05 -0.0049018175 -0.010708044 -0.0032528383
000050 0c c2 f2 ba 84 ce 63 bb 49 0c 26 bb 93 ca 73 bb
       -0.0018520965 -0.0034760544 -0.0025336912 -0.00371996
000060 08 4a 9d bb 9c fd 7a bb b4 58 e2 ba e3 75 e5 3a
       -0.004800085 -0.0038298136 -0.0017268867 0.0017506446
000070 2e 67 cb 3a 69 af 86 37 9e a0 34 bb 53 39 96 bb
       0.0015518421 1.6055727e-05 -0.0027561556 -0.0045844703
000080 99 9c 66 bb b9 a7 45 3a 01 e7 0d 3b 18 07 89 3a
       -0.0035188554 0.0007539946 0.0021652582 0.0010454385
000090 ce 96 d8 37 91 b8 25 bb 19 40 06 bb aa 1b 3e b9
       2.581943e-05 -0.0025287012 -0.0020484983 -0.00018130118
0000a0 75 31 86 ba ea 97 69 3b 04 78 bf bb b6 93 e6 3a
       -0.0010238128 0.0035643526 -0.0058431644 0.0017591629
0000b0 b3 b5 d5 bb 9c 07 3b bb f0 1a a5 3a 34 72 b3 b9
       -0.0065219044 -0.002853847 0.0012596529 -0.00034226628
0000c0 38 39 4f 3b f4 94 01 3b 59 ee 71 bb 21 8d 0d bc
       0.0031619798 0.001977262 -0.0036915748 -0.008639605
0000d0 b6 68 68 ba 4f 81 87 bb a9 f4 e2 ba 3f b7 c0 bb
       -0.0008865701 -0.004135288 -0.0017315346 -0.0058812196
0000e0 79 be 86 ba 36 08 5b bb ed 97 23 bc 45 85 8a 3b
       -0.0010280154 -0.0033421642 -0.009984952 0.0042273127
0000f0 c6 73 ba 3a 8e 1a 72 39 e4 d5 15 3a cb 6b 14 3a
       0.0014225177 0.00023088811 0.0005715771 0.00056618144
000100 14 49 43 bb b9 76 9b bb cd 3a f0 b9 99 1a bf b9
       -0.0029798197 -0.0047443775 -0.00045820177 -0.00036450176
000110 f5 ee fa ba 02 65 5a 3b b7 63 ec bb d3 c5 2c bb
       -0.0019144701 0.0033324366 -0.0072140354 -0.002636303
000120 91 df 1f 3b 0a be 8a ba 77 16 c3 bb 94 b8 51 bb
       0.002439473 -0.00105852 -0.0059536058 -0.0032000886
000130 40 05 a8 3a f9 e0 a2 bb 28 3e dc ba 70 0c 1d bb
       0.0012818947 -0.0049706665 -0.0016803192 -0.0023963712
000140 04 ed f2 bb b9 6a 5b bb a0 ac cd 3b 4c 8b 71 3b
       -0.0074135084 -0.003348036 0.006276682 0.003685671
000150 10 4f 7b 3b e4 3d 3b bb bf fc 2f 3a fb 96 fe bb
       0.0038346685 -0.0028570825 0.00067133823 -0.007769463
000160 e2 ae f4 ba f2 dd c7 ba 8c 71 b9 b9 68 49 7e 38
       -0.0018667842 -0.001524864 -0.0003537055 6.0626684e-05
000170 53 4b 00 bb 24 94 15 3c 7a d6 f7 b9 31 97 0d bc
       -0.0019576147 0.009129558 -0.0004727131 -0.008642004
000180 6b 03 19 3b 1b 8c 09 bb 2b e2 2f bb c9 84 25 bb
       0.0023347985 -0.002098805 -0.0026837687 -0.0025256148
000190 29 ad bb bb d6 95 e5 ba e6 f6 a1 bb 2c 3a 9b 39
       -0.0057274294 -0.0017515968 -0.0049427627 0.00029607245
0001a0 ef b5 d2 ba ec 2c b6 bb b1 f4 89 bb 42 1d af ba
       -0.0016075949 -0.0055595543 -0.0042100777 -0.001336016
0001b0 60 36 1d 3b 7e 78 c0 bb 12 41 78 bb 2c 4b 34 3a
       0.002398871 -0.005873739 -0.0037880582 0.00068776566
0001c0 7a 80 72 39 02 9a 8a bb e7 6f 34 bb 68 3a d4 ba
       0.0002312678 -0.004229785 -0.002753252 -0.0016191723
0001d0 79 7c f1 bb ec 74 dd bb 0d 6f 31 bb 26 72 8b bb
       -0.0073695746 -0.006758323 -0.0027074248 -0.004255551
0001e0 87 3f b7 bb 7d 31 ad ba f7 f5 ca bb 31 75 df ba
       -0.00559229 -0.0013213601 -0.006193872 -0.0017048476
0001f0 e1 d7 51 bb 51 f6 2e bc c5 fd 2c bc 49 b3 cd bb
       -0.0032019543 -0.010678844 -0.01055855 -0.006277476
000200 56 69 12 bc 41 f0 24 bc 22 e7 fc bb 48 fe d6 ba
       -0.008936247 -0.010067047 -0.007717983 -0.0016402686
000210 0a 7d 84 ba f7 99 f6 ba ba a7 16 3b 34 ba 07 bc
       -0.0010108065 -0.0018814196 0.0022988156 -0.00828414
000220 32 c7 1f ba 6b fa 06 bb 8a bb 46 b8 a4 bc 70 3b
       -0.0006095051 -0.0020596038 -4.7381538e-05 0.0036733532
000230 2a e7 3b 3b 44 81 a3 ba eb c6 d6 bb 52 62 9a bb
       0.002867172 -0.0012474437 -0.0065544746 -0.0047114277
000240 88 7b 7e 3b 38 d1 4b bb ee 0b f4 39 a5 3d 1f 3a
       0.0038830955 -0.0031100046 0.00046548195 0.00060745544
000250 d7 7b 91 bb 0c 88 f2 bb 7d d3 68 bb 10 68 a6 b8
       -0.0044398117 -0.007401472 -0.0035526447 -7.93488e-05
000260 a4 d7 18 bb 4f d7 6b 3a 5b 69 e1 bb 72 3d 62 bb
       -0.0023321891 0.0008996622 -0.0068790144 -0.0034521488
000270 bc dc 6f bb 0d 78 90 3a ca 2f fb bb 80 c5 2a bc
       -0.0036600074 0.0011022106 -0.007665609 -0.010423064
000280 b9 ac 97 bb 20 45 90 3a 2d 76 41 bb 40 ec 57 ba
       -0.0046287444 0.0011006929 -0.00295199 -0.0008236803
000290 9a 36 18 ba bf 11 35 3b 56 4e 02 bc fe 2c 1e bb
       -0.0005806476 0.0027628986 -0.007953247 -0.0024135704
0002a0 1d fc 09 bb a1 f3 96 b8 af d6 21 bb e1 43 81 bb
       -0.0021054812 -7.197937e-05 -0.0024694612 -0.0039448594
0002b0 f8 f7 c2 3a c4 5b 85 bb fd 75 ad 3a c9 65 5f bb
       0.0014874926 -0.004069777 0.0013234016 -0.0034087768
0002c0 68 06 2f bc 17 e2 94 bb 2b e3 f5 3a 01 b2 21 bc
       -0.01068268 -0.0045435536 0.0018759718 -0.0098691
0002d0 c8 43 c1 bb 55 52 86 39 97 5f 1f 3b d7 ca 19 3b
       -0.0058979727 0.00025619814 0.002431845 0.002346685
0002e0 6a 0f e3 39 4f 74 76 3b a6 23 3f bc 88 65 77 bb
       0.00043308298 0.0037605946 -0.011666214 -0.0037749726
0002f0 ec 18 b9 ba e9 9d 9c bb e6 9e 8f 3b 68 25 57 ba
       -0.0014121807 -0.0047795665 0.004382956 -0.0008207173
000300 e3 98 3d bb e5 73 f5 bb c4 c1 3f 3b 6e 22 b2 bb
       -0.002893024 -0.0074906223 0.002925978 -0.0054362332
000310 64 37 c2 bb 1e fa f4 bb e5 18 f7 bb ee 53 54 bb
       -0.0059270132 -0.0074761054 -0.0075408095 -0.0032398659
000320 d8 e5 c6 ba 22 77 b2 39 94 76 06 bc 4f 82 68 bb
       -0.00151747 0.00034039567 -0.008206982 -0.003547806
000330 77 72 d4 3a 74 1d 02 bc 74 85 fe b9 94 20 90 3a
       0.001620843 -0.0079415925 -0.00048546086 0.0010996037
000340 16 0f ac 3b 13 ab f6 ba 5b d6 82 bb 8e b9 ca bb
       0.005250822 -0.0018819295 -0.0039928383 -0.0061866706
000350 cd 3c 13 bc ef ee c5 bb d4 3e 44 3a ae 20 ff bb
       -0.008986664 -0.006040446 0.0007486169 -0.007785878
000360 17 63 99 39 f4 de 0b bc 94 a2 71 3b d3 88 5f 3b
       0.00029256262 -0.008537043 0.0036870586 0.0034108653
000370 04 68 dd bb 49 62 9b bb 0b cc cd bb b5 77 ba ba
       -0.0067567844 -0.004741941 -0.0062804273 -0.0014226349
000380 d2 06 40 3b 7f 6d c5 3a 7b d8 02 bb 2f 70 31 bb
       0.002930094 0.001506254 -0.0019965458 -0.0027074923
000390 40 3e d7 3b b7 59 f3 3a 45 d1 69 bb b9 62 19 3c
       0.0065687 0.0018566166 -0.0035677713 0.009361916
0003a0 b5 38 2c ba 8b 41 0a bc ce e1 3a bb 0a e9 4f bb
       -0.00065697293 -0.008438478 -0.0028515938 -0.0031724595
0003b0 39 f6 02 bc 40 35 99 bb 62 da ee bb 81 b0 80 bb
       -0.007993274 -0.0046755373 -0.007289217 -0.003927291
0003c0 ea 9f c9 3a 3e 31 20 bb 0d b0 da b9 96 a9 8c bb
       0.0015382741 -0.0024443413 -0.00041711368 -0.004292677
0003d0 64 86 32 bb e1 00 83 bb 36 d8 91 3b 6c 36 c3 3a
       -0.0027240748 -0.0039979075 0.004450823 0.0014893538
0003e0 e8 12 c2 ba ad 53 e0 3b 94 98 ce 3b e5 30 d0 3b
       -0.001480666 0.0068459124 0.00630481 0.006353485
0003f0 8b 80 65 3a 94 19 f6 39 31 a1 80 bb b3 48 16 bc
       0.0008754811 0.00046939834 -0.0039254655 -0.009172606

bn1.running_mean f4 [512]
000000 6e e0 d7 bb a4 ed 7d bb 10 9b 7b bc 81 e6 6b bc
       -0.0065880334 -0.0038746381 -0.015356794 -0.014398218
000010 cc 15 77 3a 7e b6 8b bc c9 46 d2 bc a2 92 48 3c
       0.000942555 -0.017054792 -0.025668519 0.012241991
000020 b5 f0 0f bc 52 63 9d bb 67 78 a8 3b a2 3d af bb
       -0.008785416 -0.0048030997 0.005141306 -0.0053479234
000030 eb ac e1 3b d1 9a 00 bc 57 c7 ab 3c a2 bc 9c 3c
       0.0068870685 -0.007849411 0.020969076 0.019132916
000040 5e 91 ed 3a 60 3d 34 3c ec 8f b2 3b b2 5a 84 3a
       0.0018124988 0.011000961 0.0054492857 0.001009783
000050 f0 61 84 3b 36 c3 44 bc 68 14 8a bb 00 b1 ec 3b
       0.0040399954 -0.012009433 -0.0042138584 0.0072232485
000060 be 91 a9 bb 60 bc 4c 3c 30 c0 da bb a0 08 9c bc
       -0.0051748445 0.012496084 -0.0066757426 -0.019047081
000070 0c 01 9c bc 80 84 ed bc 13 40 83 bb 85 9c a7 bc
       -0.019043468 -0.028993845 -0.004005441 -0.020460377
000080 16 cc 52 bb 12 2e ad bb b0 38 98 bc 1c c8 82 3b
       -0.0032165102 -0.005285033 -0.018581718 0.00399114
000090 06 4f a1 bc e4 2c 8a bc 77 39 ea 3b f5 73 50 3c
       -0.019691002 -0.016867109 0.0071479636 0.012722959
0000a0 c1 58 f2 bb 84 11 e9 3b f6 84 47 3b 32 9f fd bb
       -0.007395834 0.0071126837 0.003044424 -0.007739925
0000b0 56 c5 e3 3b e0 50 52 3b 5e 8d 8a 3b f5 08 cd 3b
       0.0069510145 0.0032091662 0.004228278 0.0062571713
0000c0 e2 98 8a bc d8 1b e7 3b 00 cb ce b8 bd 2e 04 3c
       -0.016918603 0.00705288 -9.860657e-05 0.008067784
0000d0 54 b7 d5 3b dd cf 31 bc c4 48 1f 3c b8 29 93 bc
       0.0065220986 -0.010852781 0.0097219385 -0.017964229
0000e0 d8 21 30 bd c9 96 ed bb 54 90 fe bc b5 5a e8 bb
       -0.043001026 -0.007250641 -0.03107468 -0.0070908912
0000f0 aa 77 bd 3b e6 73 49 bb 5c ec 98 3b 8e af a4 3b
       0.0057820873 -0.0030739247 0.004666848 0.0050258106
000100 ed 95 81 3b 29 2b 20 bb 1a 16 04 bc a6 0e ec bc
       0.00395464 -0.0024439788 -0.00806191 -0.028815579
000110 6c 1e 7c 3b 7c 0b 64 3b ba 9c 6e 3c 94 de ac bb
       0.0038470281 0.0034796884 0.014563734 -0.005275557
000120 de 01 83 bc 81 87 31 bc 67 30 2f 3c 37 53 17 3a
       -0.015992101 -0.010835529 0.010692692 0.0005772593
000130 7a 83 ab bc d5 18 c0 3b 90 f9 00 bc 01 13 ea bb
       -0.020936716 0.005862335 -0.007872 -0.0071433787
000140 86 b9 97 bc 6c 2f ed 3c a8 b5 a6 bb 13 1b 4c bc
       -0.018521082 0.028953277 -0.005087573 -0.012457627
000150 05 a6 a0 3c 74 37 25 bc 3c 53 8f bb 75 68 04 bd
       0.019610414 -0.010084022 -0.004373936 -0.03232618
000160 ae 76 20 3c 5e 1a b1 3b 0a 3b 95 bb 8e 29 b7 39
       0.00979392 0.0054047545 -0.004554157 0.0003493544
000170 53 23 04 bc c7 86 c6 3c 64 bf 18 bc c7 8d a2 3c
       -0.008065063 0.024234189 -0.009322975 0.019842995
000180 d4 ba 27 bc 86 86 ea 3b ea 95 de bc 52 f0 92 bc
       -0.010237414 0.0071571497 -0.027171094 -0.01793686
000190 c6 3d d1 3c 3c 27 ca bc 85 66 88 bb 34 e7 e3 bb
       0.025542151 -0.024676912 -0.004162612 -0.006955052
0001a0 38 ce 3a ba 58 07 c5 bc ca 1e 7a bc 8a 92 a7 bc
       -0.0007126066 -0.024051353 -0.01526613 -0.020455617
0001b0 f2 be 24 bb de 3b 41 3c 52 d7 d6 ba 7c 70 50 bc
       -0.0025138226 0.011794059 -0.0016391075 -0.012722131
0001c0 6b 78 cc 3b 35 df 60 3c fc 9c 2b 3c 4d c5 08 bb
       0.006239941 0.013725092 0.01047444 -0.0020869554
0001d0 ef 6e 05 3c 16 81 3d 3c 74 75 7a bb fb 02 51 3c
       0.008144124 0.011566421 -0.003821698 0.012757058
0001e0 cf 81 fc 3c 44 ad b4 3c 5f 2a 0d bc 1b c9 c4 3b
       0.030823616 0.022055276 -0.008616059 0.006005419
0001f0 45 73 86 3b a2 a9 ff 3a 4e 2d 9d 3b 22 7d 60 bc
       0.0041030967 0.001950551 0.0047966605 -0.013701709
000200 bf 72 e5 3b bd b7 03 3c 29 55 2d 3c 08 e2 58 ba
       0.007002204 0.008039412 0.010579386 -0.00082734274
000210 96 a2 20 3c 8b 8a 69 bc cc 46 d4 bc 1e 0b 42 3c
       0.0098043885 -0.014254223 -0.025912665 0.011843471
000220 ac 6a f2 3a f0 bf 81 bb 54 99 81 3c a0 17 86 bb
       0.0018494925 -0.0039596483 0.015820183 -0.004092172
000230 5c 29 a8 3c 5a 57 e8 bb 00 a3 c6 bb 1d 5d 9d 3a
       0.020527534 -0.0070904912 -0.0060619116 0.0012005899
000240 7d 6b 81 bc 1d 7b 4b bb 42 19 87 3c ff 02 ff bb
       -0.015798325 -0.0031048723 0.016491536 -0.0077823396
000250 48 d0 f2 bb 3b 74 d6 bb 25 50 25 bc 7f e3 a5 3c
       -0.007410083 -0.0065446175 -0.010089909 0.02025008
000260 a8 b6 75 ba 20 ed 6d ba 80 8a 18 3b 3b 51 d2 bb
       -0.0009373226 -0.0009076167 0.0023275912 -0.006418375
000270 c6 97 7a 3c 4a ce 4d 3c 00 99 64 b8 9e 3b c3 3c
       0.015294975 0.01256139 -5.450193e-05 0.023832139
000280 c8 69 1e 3b a7 58 ed bb d2 72 3f bb e3 66 95 bc
       0.0024171937 -0.007243234 -0.0029212725 -0.018237537
000290 5a 34 05 bc 3a be 82 bc d5 9b ba bb ad 07 2b bc
       -0.008130157 -0.015959848 -0.005694846 -0.010438842
0002a0 75 59 f7 bb 08 d1 73 3a c4 2a 1d bc 8b bb 94 3c
       -0.007548506 0.00093008624 -0.009592716 0.018155834
0002b0 16 65 80 3c 60 ff d0 3b 36 7d 5a 3c 5a 42 d2 bc
       0.015673202 0.0063780993 0.013335517 -0.025666405
0002c0 87 68 ec 3c 0b 50 8a 3c 44 1f c9 3b 23 0e a8 bc
       0.028858436 0.01688387 0.0061377604 -0.020514553
0002d0 8e 6d 21 3c ad 19 39 3c ae ea 65 bb be 7e a4 bb
       0.00985278 0.0112976255 -0.0035082507 -0.0050199917
0002e0 f1 0c d9 3b 7e 57 00 bd a0 c2 18 ba a2 d1 11 bc
       0.006623857 -0.03133344 -0.0005827341 -0.008900078
0002f0 9b b7 bf bc 10 4f 1f 3a 14 ec 8d bb 70 4a f8 bb
       -0.02340298 0.000607715 -0.004331121 -0.007577233
000300 9e fa b4 3c c1 d1 9b bb 22 6c 99 3b 76 92 77 bc
       0.02209216 -0.004755229 0.00468208 -0.015110603
000310 ee e4 ba bb 89 97 1b 3c 48 48 3b 3c 5e 3d 15 3c
       -0.00570356 0.009496578 0.011430807 0.009108869
000320 c4 fa e4 3c ef 37 4b bb dc d6 51 3c 31 75 a2 3b
       0.027951606 -0.003100868 0.012807574 0.004957818
000330 4c ec 3d bc 4e d2 b6 bb 6a 62 76 bb 20 43 2d b8
       -0.011591982 -0.0055792695 -0.003759528 -4.130893e-05
000340 eb 63 90 3b a0 44 7e bc a0 d2 a8 ba 59 c0 a4 bc
       0.0044064424 -0.015519291 -0.0012880154 -0.02011125
000350 6a 9e 45 bc 98 23 38 3b f0 ac f7 bb 1a 9a 99 3c
       -0.012061695 0.0028097387 -0.0075584576 0.01875024
000360 6c 33 0c bc 70 da de 3a d1 56 dc bb a2 22 30 bc
       -0.008557182 0.0017002355 -0.0067242165 -0.010750445
000370 9c 85 2d 3b 4d 4c 26 3b 22 52 62 3b ec 3b ef 3b
       0.0026477342 0.0025375069 0.0034533818 0.0073008444
000380 7b c8 a5 bc 78 c0 67 ba c4 d1 c6 3c 49 cb 2d 3c
       -0.020237198 -0.0008840631 0.024269946 0.010607549
000390 96 13 ef bb 11 96 84 3c 03 fb 5c bc 5c e1 a5 bc
       -0.007296036 0.016184838 -0.01348758 -0.020249061
0003a0 d7 90 dd 3c d9 a2 0c 3c 98 b4 50 ba 08 49 ae b9
       0.027046604 0.008583748 -0.0007961481 -0.0003324228
0003b0 00 bc 18 36 c4 ee 98 bb 30 e9 fc 39 18 5c a0 3c
       2.2759195e-06 -0.004667135 0.00048238924 0.019575164
0003c0 40 12 92 3c 83 f2 58 3c 78 63 84 bc bf 5b 0d 3c
       0.017830968 0.013241413 -0.016160712 0.008627831
0003d0 fe 44 78 3c 49 51 c7 3b 97 37 10 3c 2e 6f ad 3c
       0.015153168 0.006082688 0.008802316 0.021171179
0003e0 40 79 89 b8 b4 58 29 3c a2 e5 fe 3b 10 fd 08 bd
       -6.555254e-05 0.01033609 0.007778839 -0.033444464
0003f0 92 ff 00 3c 02 5f 31 bc c0 ae 15 3b 04 f7 12 3b
       0.007873433 -0.010825874 0.0022839755 0.0022425065

bn1.running_var f4 [512]
000000 b4 d9 26 3f 59 39 14 3f a9 e5 b2 3f 69 12 37 40
       0.6517594 0.57900006 1.3976337 2.8604987
000010 2c fd 49 3f c3 b1 50 40 3c 1b 53 40 8b 4f c1 3f
       0.78901935 3.2608497 3.2985373 1.51024
000020 60 1f a6 3f 1b 4d ce 3f 94 23 cb 3f dc d2 5a 40
       1.2978325 1.6117281 1.5870233 3.4191198
000030 37 09 81 3f e2 90 16 40 95 ac 2c 40 d4 0d 19 40
       1.0080937 2.352593 2.6980336 2.391469
000040 c8 67 81 3f 78 15 05 40 ef 91 ac 3e ce 14 17 3f
       1.0109797 2.0794353 0.33705088 0.5901612
000050 ab 67 8a 3f e9 1a de 3f e3 5e cc 3f 2d 2a 09 3f
       1.0812887 1.7351962 1.5966457 0.5357998
000060 21 a4 97 3f 9a ac e5 40 bc 6a 38 3f 31 1e 9a 3f
       1.1846963 7.1773195 0.72037864 1.2040464
000070 35 ae 29 40 8c 72 e2 40 01 41 06 40 82 e5 3a 40
       2.6512578 7.076483 2.0977175 2.920258
000080 9c 4f 0b 3f 57 98 bb 3e b0 bf 80 40 d0 9c 18 40
       0.5441835 0.36639664 4.0233994 2.384571
000090 87 61 24 40 58 94 d0 3f 39 52 86 3e a6 11 77 40
       2.5684526 1.6295271 0.26234606 3.8604522
0000a0 57 b8 02 40 68 96 13 3f e4 7e 55 3f 69 55 4a 40
       2.0425012 0.57651377 0.83396745 3.161463
0000b0 12 95 79 3f 29 3f 2d 3f b1 8d 1e 3f b1 8f 17 40
       0.9749309 0.676745 0.61934954 2.3681452
0000c0 09 f9 2b 40 d2 66 c4 3f e6 1a cd 3f 7b eb f2 3f
       2.687075 1.5343878 1.6023834 1.8978113
0000d0 7c 39 f1 3f 92 b7 ee 3f 09 dc 8a 3f 53 b5 ce 3f
       1.8845668 1.8649771 1.0848399 1.6149086
0000e0 c2 cb ee 40 94 90 6b 3f 31 c1 10 41 de 2f 8e 3f
       7.462373 0.92017484 9.047166 1.1108358
0000f0 5d 77 90 3f 24 2e 6d 3f 4d bb 6a 3f af 68 92 3f
       1.1286427 0.9264853 0.9169205 1.1438197
000100 ec b4 fd 3e fc c1 c8 3e 4e 25 80 3f b7 a3 cb 40
       0.49552095 0.39210498 1.0011384 6.3637347
000110 c0 94 6b 3f 9d 08 7a 3f 66 37 a8 3f 5c 1c 93 40
       0.9202385 0.9766939 1.3141906 4.597212
000120 71 9f 3f 40 3c a2 c0 3e 42 c3 1e 40 fd d4 19 3f
       2.9941065 0.37623775 2.4806676 0.6009062
000130 e4 98 82 40 e8 d7 8b 3f 99 7b 37 3f c6 7d a5 3f
       4.0811634 1.0925264 0.7167297 1.2929008
000140 c5 90 52 40 28 eb a3 40 87 32 96 3f f8 d3 33 40
       3.290086 5.1224556 1.173417 2.8098125
000150 8b e1 a1 40 ea 5e 22 3f 33 a8 0e 40 79 11 cd 40
       5.058782 0.6342608 2.229016 6.408383
000160 5d 32 e7 3f 1c b5 f2 3e fc f8 19 40 03 86 bd 3e
       1.8062245 0.474038 2.4058218 0.37016305
000170 58 44 94 40 e5 54 88 40 4e 65 99 3f 79 13 9d 3f
       4.6333427 4.260363 1.1984041 1.2271568
000180 8f 5d 10 3f bc a7 9c 3f 62 36 a4 40 4a 2a ee 3f
       0.5639276 1.2238688 5.1316385 1.8606656
000190 96 9c ae 40 e6 60 39 40 70 aa 67 3f a5 17 6a 3f
       5.4566145 2.8965392 0.9049444 0.9144233
0001a0 cf bf 93 3e 1b 8a a5 40 d8 fb 51 3f 21 53 08 40
       0.28857276 5.1731086 0.8202491 2.1300738
0001b0 68 fb d0 3f d0 4c 4a 3f b6 54 f8 3e 56 e2 8f 3f
       1.6326723 0.79023457 0.4850213 1.1240947
0001c0 4a 15 bd 3f a1 98 37 40 04 b9 85 3f da 09 b4 3f
       1.4772122 2.8686907 1.0447087 1.4065506
0001d0 9e 5e 84 3f c6 44 3e 40 76 bd 8f 3f bd 3d d3 3f
       1.0341375 2.9729476 1.1229694 1.6503216
0001e0 ac 1f ca 40 19 33 1a 40 18 77 11 40 37 3f b5 3f
       6.316366 2.4093688 2.272894 1.4159917
0001f0 a1 52 be 3f cc 49 0a 3f 02 f3 3c 3f ae 17 87 3f
       1.4868966 0.54018855 0.738083 1.0554101
000200 22 29 98 3f 0e 28 b2 3f 2a 37 d9 3f fa 0b 8b 3f
       1.1887553 1.3918474 1.696996 1.086303
000210 d0 a6 94 3f f8 4c 86 40 4b b8 6a 40 69 d0 0f 40
       1.1613407 4.1968956 3.6674984 2.2470953
000220 41 4a 41 3f b9 e2 4c 3f 8c 9e 39 40 87 45 9a 3e
       0.7550393 0.8003345 2.900302 0.3013117
000230 cd 3e 21 40 c2 55 95 3e a6 4f 08 40 ae 18 30 3f
       2.519458 0.2916699 2.1298614 0.6878766
000240 d3 b5 1f 40 b4 32 a7 3f 24 05 f5 3f 11 51 f6 3f
       2.4954727 1.3062348 1.9142194 1.924349
000250 80 86 7c 3f 7c e9 01 3f 94 7b 40 3f ad d5 b9 3f
       0.9864273 0.50746894 0.75188565 1.4518334
000260 7a d6 01 3f a3 e8 2d 3f 14 8c a4 3f 97 22 9a 3f
       0.5071789 0.679331 1.2855248 1.2041806
000270 06 11 91 3f 70 85 da 3f 09 b9 55 40 93 83 0e 40
       1.133332 1.7071972 3.3394186 2.2267807
000280 4e e4 fe 3e 88 f8 df 3f 85 00 ab 3f 4a 9a 3f 40
       0.49783558 1.7497721 1.3359534 2.993792
000290 12 e9 1a 3f 11 1b 6f 3f 7c 2d 64 3f 26 1b c7 3f
       0.6051189 0.93400675 0.89131904 1.555516
0002a0 98 fe cc 3f 92 76 a9 3f f3 3f 35 40 92 f7 e4 3f
       1.6015196 1.323931 2.8320282 1.7888052
0002b0 ee 2b f2 3f 73 9a 0f 3f 49 42 f8 3f 2e d6 ed 40
       1.8919656 0.56095046 1.9395229 7.432395
0002c0 01 63 69 40 48 1f 86 40 c8 f7 d0 3f c1 eb 8c 40
       3.6466677 4.1913185 1.6325617 4.4037786
0002d0 0f 35 20 3f 2e 77 89 3f 74 2b 7e 40 7c 35 87 3e
       0.6258096 1.0739496 3.9714022 0.26407993
0002e0 e8 2d 1d 40 3f 5d 06 41 a9 6f dd 3f fd 88 17 3f
       2.455927 8.397765 1.7299701 0.591934
0002f0 09 9f 18 40 aa 62 eb 3e c3 dc 32 3f cb a9 30 40
       2.3847067 0.45973712 0.69868106 2.7603633
000300 9e 7d 8c 40 46 a7 69 3f ac 9e 22 3f e1 d4 fe 3f
       4.390334 0.91270864 0.63523364 1.9908715
000310 f0 d2 34 3f 2d 5f 13 40 83 0d 6e 3f 13 3d c8 3f
       0.70634365 2.302684 0.9298937 1.5643638
000320 50 2d ae 40 3b 82 54 3f 9d 6c a4 3f 8f 52 8f 3f
       5.4430313 0.83011216 1.2845646 1.119707
000330 5e 73 a4 3f fb 5b 29 3f 8f 0c 71 40 29 dd f5 3e
       1.2847707 0.66155976 3.7663915 0.48020294
000340 83 e7 59 3f bf 97 ba 3f 98 0a 60 40 56 3f 1c 40
       0.85118884 1.4577559 3.5006466 2.4413657
000350 7a d0 1c 40 ca c3 f8 3f 1e 4f b7 40 a6 92 9e 3f
       2.4502244 1.943475 5.728408 1.2388504
000360 53 0e 47 40 0b 39 90 3e b7 74 38 3f 17 fe f4 3f
       3.1102493 0.2816852 0.7205309 1.9140042
000370 12 7f b3 3f 3b 56 a9 3f 67 04 99 3f 30 b6 41 3f
       1.4023154 1.322944 1.1954468 0.7566862
000380 5e 53 ce 3f 9c 94 07 3f 28 3c ad 40 55 4c 3d 3f
       1.6119192 0.52961135 5.4135933 0.739446
000390 e8 27 ba 3f 42 02 49 40 70 ad 82 3f e0 c8 a1 40
       1.4543428 3.1407628 1.0209179 5.055771
0003a0 3a bf b1 40 e6 49 3a 3f b1 c4 33 3f f6 fb 4e 3f
       5.554593 0.7276901 0.70222 0.8085321
0003b0 49 27 36 3f f4 ea 60 3f 3b 16 d9 3f 3d 71 17 40
       0.71153694 0.8785851 1.6959909 2.3662865
0003c0 f4 41 98 40 42 eb 09 40 d4 68 43 40 b3 a9 a9 3f
       4.758051 2.154984 3.0532732 1.3254913
0003d0 34 e1 1d 40 20 53 5e 3f 0c 31 c1 3f 90 30 11 40
       2.4668703 0.8684559 1.5093093 2.268589
0003e0 94 a6 75 3f d3 2a 8c 3f 50 7c 31 3f c2 31 6a 40
       0.95957303 1.0950569 0.6933031 3.659287
0003f0 9a ad 69 3f 15 7b 8c 3f 37 e0 ac 40 2e de 5e 3f
       0.9128052 1.0975062 5.40237 0.8705777

fc2.weight f4 [256, 512]
000000 7a f4 ce 3c 64 db 02 3c 98 e0 4d 3a 27 7e d7 3c
       0.02526306 0.007986877 0.00078535965 0.026305271
000010 82 27 0e 3c 9f be e8 3d 77 6e 80 3d 8f ac 4b 3d
       0.008676412 0.11364483 0.062710695 0.04972511
000020 9f 5b 5b ba 64 59 0a bd a6 59 ae bb a0 b2 88 bd
       -0.00083678396 -0.033776656 -0.0053207455 -0.06674695
000030 b6 b5 4d 3c 6f 93 09 3d 92 6d 92 bc 14 ca ab 3d
       0.01255553 0.03358787 -0.017874513 0.08388153
000040 25 7c cf bd 8e aa e9 bc 59 be 97 bb b2 82 d7 bb
       -0.101311006 -0.02852371 -0.0046308455 -0.0065768594
000050 86 2d 16 bd 95 f5 dd bb 4b 11 48 bd c0 08 46 3c
       -0.03666451 -0.0067736604 -0.048844617 0.012087047
000060 ad 28 6a bd 95 5a b7 bd 8b 0c c7 bd c6 a7 05 be
       -0.057167698 -0.08952824 -0.09719189 -0.13052282
000070 c5 94 37 3d 18 92 fd bb 89 03 8f bd 05 2a 84 bd
       0.044819612 -0.007738363 -0.06983096 -0.06453327
000080 2c 97 09 be 30 2e 19 3d db 0e 3d 3d fe 92 de bd
       -0.13436574 0.037397563 0.046156745 -0.1086788
000090 06 23 33 3d f8 63 74 3c ea 00 1f be d5 ef 92 3d
       0.043734573 0.0149164125 -0.15527692 0.071746506
0000a0 2e 2d d6 bd 92 c2 1e bd 5b 9e 01 be a6 83 b4 bc
       -0.10457836 -0.038759775 -0.12658064 -0.022035431
0000b0 76 5a 09 3d 94 b3 83 3d 16 ad 99 3d 44 15 1c be
       0.033533536 0.06430736 0.07503717 -0.15242487
0000c0 5d c4 2a 3c 06 72 88 bd 4b 25 af 3d 3d c2 91 bb
       0.010422793 -0.06662373 0.08552035 -0.004448204
0000d0 67 7a 34 3c 1b 8e 8b 3d fd 5a 87 bd 6b 48 c2 3d
       0.011015511 0.06814214 -0.066091515 0.09486469
0000e0 aa 02 8a bc 2d e7 d6 3a 53 92 69 3d b3 21 ca 3d
       -0.016846973 0.00163958 0.05702431 0.09869709
0000f0 8e 44 a1 bb 53 98 5a bd 7a bd f6 3c b1 d3 aa bd
       -0.0049215024 -0.053367924 0.030119646 -0.08341158
000100 27 1e 33 3c f6 f9 50 bd 61 20 07 be 0e 63 c1 bb
       0.010932482 -0.05101963 -0.13195945 -0.005901701
000110 04 70 a2 3c 82 fd 20 3c 90 d9 07 bc 20 6b df bd
       0.019828804 0.009826066 -0.008291617 -0.10909104
000120 89 1a 91 bd 2d 56 ef bc a0 fa c5 3c 7a 4e a0 bd
       -0.07085139 -0.029215897 0.024167359 -0.07827468
000130 a5 96 5a 3d 79 80 ae 3c 07 68 a4 3d 6e 6b 87 3d
       0.053366322 0.021301495 0.08027654 0.066122875
000140 03 ea 48 3d 6a 63 b9 3c fa 8c fe 3c 0d 40 9c 3d
       0.049051296 0.022630412 0.031073082 0.07629404
000150 21 f2 6f bd 15 a3 1b bd 60 89 a8 3c b4 1c 21 bd
       -0.05858052 -0.037997324 0.020573318 -0.039334014
000160 6a 82 85 bd 42 aa f1 bc 4a e9 f0 3c d0 62 b6 bc
       -0.06519015 -0.02950013 0.029408116 -0.022263914
000170 69 9e 09 3e f1 82 04 bd 61 1b cc 3c 1e e4 e4 bb
       0.13439335 -0.032351438 0.024915399 -0.0069852015
000180 63 d2 89 bb dc 91 8c bd 90 73 15 3c 42 1e 16 bd
       -0.0042059883 -0.06863758 0.0091217905 -0.03664995
000190 ba aa 9b 3c 00 76 d0 36 38 b3 67 bc f3 49 2c 3c
       0.019002307 6.21262e-06 -0.01414185 0.010515678
0001a0 ff bc 3f 3d b7 4e 6e 3d 75 64 2b 3d 65 5b 1d 3e
       0.0468111 0.058180537 0.04184385 0.15366895
0001b0 2d 05 aa 3d 93 d8 32 3d 0b 69 03 bd 6f 00 88 bb
       0.083017685 0.043663573 -0.0320826 -0.0041504423
0001c0 8e dc 13 3e 8b ea b5 bc 08 27 a5 bc eb e0 92 3c
       0.14439604 -0.022206565 -0.020160213 0.017929515
0001d0 fd 94 5f bd 5c ad 65 3c 1c 37 c5 3d 6c fb 33 3d
       -0.054585446 0.014018383 0.09629652 0.043940946
0001e0 21 33 45 bd b8 a1 92 bd 42 d6 8d 3d 45 c4 8f 3c
       -0.048144463 -0.07159752 0.06925632 0.017549643
0001f0 5b 92 72 3c 3f 23 93 3c 10 94 81 bb b1 95 20 bc
       0.014805402 0.017961143 -0.003954418 -0.009801314
000200 76 8b de bd 4a b5 07 3e f8 97 93 bd 44 5d 4f 3d
       -0.10866444 0.1325275 -0.0720672 0.050626054
000210 eb 57 75 bd 50 ef 48 bd f6 67 dd bd 30 32 3a bd
       -0.0598983 -0.04905635 -0.108108446 -0.04545802
000220 51 74 78 3c 72 6e c8 3b 9d 5f d1 3d 65 68 74 bd
       0.015164451 0.0061166817 0.10223315 -0.05966987
000230 4c aa bf bd f5 8e 8c 3d 66 c6 fc 3c 48 d8 ea bc
       -0.093586534 0.068632044 0.030856322 -0.028667584
000240 10 e5 97 3c 7f b5 bd bd 69 32 e5 3c e5 61 7b 3b
       0.018541843 -0.09263133 0.027978139 0.003835791
000250 d4 c3 03 be ff 12 b6 3d ab eb b5 bc a6 c5 71 bd
       -0.12867671 0.08890342 -0.022207102 -0.059026383
000260 15 a8 48 bd fb 8e f2 3c 7e 11 c5 3a 75 a7 c0 bc
       -0.04898842 0.029609194 0.001503512 -0.02351735
000270 68 7f 53 bd f2 08 7a 3d f4 a0 87 3d 93 7e d5 3c
       -0.051635176 0.061043687 0.06622496 0.026061332
000280 37 c7 44 3d b3 e3 0a bc 40 fd 20 bd d6 65 7e bc
       0.04804155 -0.008477139 -0.039304018 -0.015527209
000290 4b 00 d1 3c 25 ea a0 3d c7 9e b6 3c 8e 94 be 3d
       0.025512835 0.078571595 0.022292508 0.09305678
0002a0 99 ab 24 3d 62 5f 9e 3d 9b b7 3f 3c 6f 2c 8a bd
       0.04020271 0.077330366 0.01170149 -0.06746756
0002b0 75 89 ad 3c 6d 2d 08 bd a2 29 0a 3e 2e e4 03 be
       0.021183709 -0.033246446 0.13492444 -0.12880012
0002c0 16 68 96 bd 4b 46 08 3e 8d 79 8c bd f8 32 a0 bc
       -0.073440716 0.13308065 -0.068591215 -0.019555554
0002d0 17 44 aa bd 45 db 4e bd 09 08 0a 3d 01 d9 cb bc
       -0.08313768 -0.05050208 0.03369907 -0.024883749
0002e0 ad 5d d4 3c df 8b fa 3c 87 24 b5 3d d0 0b 23 3c
       0.025923574 0.030584274 0.08844858 0.009951547
0002f0 e8 35 d4 3c c5 ae 5b bc d2 87 7f 3d f9 2f b9 bd
       0.02590461 -0.0134083675 0.062385388 -0.09042353
000300 d1 28 18 bb 81 e3 ed 3c 3c 6a 3a bd 7e b5 0f bd
       -0.0023217688 0.029039146 -0.04551147 -0.035085194
000310 11 fe d2 3a f9 0b fc 3c c1 a6 7e bd 33 06 aa bc
       0.0016097446 0.030767428 -0.062170748 -0.02075491
000320 75 59 98 bd 90 39 7f bc cd 5d e4 bd 3a cb fd bb
       -0.074389376 -0.015577689 -0.111507036 -0.0077451738
000330 19 c2 5e 3d da 2e 7a bb db 34 ea 3c 09 4f 8f 3d
       0.054384325 -0.0038174898 0.028589657 0.06997497
000340 2e 7e f2 bd f3 96 b4 bc 27 4c 5e 3b 53 7e 0b bd
       -0.11840473 -0.022044634 0.0033919902 -0.03405602
000350 f7 7f 48 3c 6b 46 0a bd 19 3a 6e bd e2 d5 cc 3d
       0.01223754 -0.033758562 -0.058160875 0.100017324
000360 96 df 45 3d 66 19 5e bc 08 8d 22 bd 47 20 97 bd
       0.04830893 -0.01355586 -0.03968528 -0.07379203
000370 4e f9 24 3d d9 81 3b be 57 b2 90 3d 14 a6 86 bc
       0.040276818 -0.18311252 0.070652656 -0.016436614
000380 58 12 1e 3d 91 58 80 3c e4 61 2c bd 67 26 77 3d
       0.038591713 0.015667232 -0.042085543 0.060339358
000390 61 56 0e 3e 06 a0 9e bc 59 da 6c bd 60 e6 81 3d
       0.13900138 -0.019363414 -0.05782542 0.06342769
0003a0 3e d5 8f bd 3d a2 45 3d 85 60 db bc a0 5b 45 3d
       -0.070230946 0.048250426 -0.026779423 0.048183084
0003b0 a2 24 17 3d b8 a0 b8 bd d0 48 52 bb 4f 6d 98 3d
       0.03690017 -0.0901503 -0.0032086857 0.07442724
0003c0 84 08 f1 bb 50 88 89 bd bd f9 9c 3d d9 e0 7d 39
       -0.0073557515 -0.06715453 0.07664821 0.00024211722
0003d0 db c5 24 bd 19 1b c7 bd 97 e7 85 3d 68 c1 03 bd
       -0.040227752 -0.09721965 0.06538313 -0.03216687
0003e0 74 cf 17 3e a7 b6 15 3e 78 17 1c bd 44 8f 95 bd
       0.14825231 0.14620458 -0.03810832 -0.073027164
0003f0 68 29 38 3d 58 40 6e 3d 7a 2b 6e bc 45 dc a4 3d
       0.044961363 0.05816683 -0.014536733 0.080498256
