models/best_supervised_model_robust.pth (torch, 751229 bytes, 26 tensors)

fc1.weight f4 [512, 16]
0	0x3d6b7600	0.05748558
1	0x3d09e3c9	0.0336645
2	0xbe3aedbc	-0.18254751
3	0xbea50cf3	-0.32236442
4	0x3e242e20	0.1603322
5	0x3e21feae	0.15819809
6	0xbe8fa196	-0.28052968
7	0x3f3cc110	0.7373209
8	0xbea9119f	-0.33021256
9	0x3ea44d32	0.32090145
10	0x3cf09237	0.029366596
11	0x3ee4dbfc	0.44699085
12	0xbec8de3d	-0.39232054
13	0xbe39a551	-0.1812947
14	0x3e47bd63	0.19505839
15	0x3e287c0a	0.16453567
16	0x3f215828	0.6302514
17	0x3defd01a	0.11709614
18	0xbef4a8c6	-0.47785014
19	0xbe2b0a00	-0.16703033
20	0xba2f9a82	-0.00066987437
21	0xbe4ab8fc	-0.19797128
22	0x3d0a225f	0.033724185
23	0xbec10e6d	-0.37706318
24	0xbf0703e1	-0.52740294
25	0xbeb1842b	-0.3467115
26	0x3d1182a1	0.035524968
27	0x3f121eee	0.57078445
28	0xbf24fee5	-0.6445144
29	0xbe0b2f96	-0.13592371
30	0x3ebe2e18	0.37144542
31	0x3e69d00a	0.22833267
32	0xbf1ecc80	-0.6203079
33	0xbd803594	-0.06260219
34	0x3f1ca291	0.61185557
35	0x3e09b0cc	0.13446349
36	0xbd188163	-0.037232768
37	0x3d929d9a	0.07158966
38	0x3f6afb33	0.9178955
39	0x3ead2613	0.3381811
40	0xbdf66021	-0.12030054
41	0x3e993487	0.29922888
42	0x3e0d9644	0.13826853
43	0x3c70de21	0.014701397
44	0xbd64db0a	-0.055872954
45	0x3e54ad52	0.20769241
46	0xbd77868e	-0.060431056
47	0x3ec28ab0	0.37996435
48	0xbf2556a3	-0.6458532
49	0xbeac2c6d	-0.33627644
50	0xbc924ad8	-0.017857954
51	0x3ded0d46	0.11574797
52	0x3df2883b	0.1184239
53	0x3b08975b	0.0020842168
54	0xbe3963ff	-0.18104552
55	0xbb1f6f79	-0.0024327917
56	0x3ef74103	0.48291788
57	0xbe96fd39	-0.2949007
58	0xbe0f3ade	-0.139873
59	0x3c76d2df	0.015064924
60	0x3c7c490f	0.015398278
61	0xbd1b979e	-0.03798639
62	0x3e3ba079	0.18322934
63	0xbda676c0	-0.081281185
64	0x3e23f4eb	0.16011398
65	0xbd9004a1	-0.07032133
66	0xbe1acc3e	-0.15116975
67	0x3f0014a7	0.5003151
68	0xbe8f4ee7	-0.27989885
69	0x3df14064	0.1177986
70	0xbed9548c	-0.42447317
71	0xbf890e82	-1.0707552
72	0xbe2db33e	-0.16962907
73	0xbefe7467	-0.49698183
74	0xbed0f4e9	-0.40811852
75	0xbf49771b	-0.78697366
76	0x3d73c933	0.05951805
77	0xbe196aa1	-0.14982082
78	0xbeb0125b	-0.34389004
79	0x3f1587d2	0.5841037
80	0x3da90c21	0.082542665
81	0xbf34246e	-0.7036809
82	0x3eddc2fd	0.43312827
83	0xbd83b167	-0.06430321
84	0xbeb9a456	-0.3625819
85	0xbe44c2de	-0.19214961
86	0x3e04cb03	0.12968068
87	0x3e2ba211	0.16761042
88	0x3f3b8bc3	0.73260134
89	0x3df5b867	0.119980626
90	0x3f3c771e	0.7361926
91	0x3eb871fd	0.36024466
92	0x3edf1137	0.4356782
93	0xbe40f66e	-0.18844005
94	0x3e4f39b4	0.20236856
95	0xbf1c9bcd	-0.61175233
96	0xbd93e7ad	-0.07221923
97	0xbec9ef30	-0.39440298
98	0xbd20ad46	-0.039227746
99	0xbed56e58	-0.41685748
100	0x3d45d6f8	0.048300713
101	0xbe8ee66f	-0.27910182
102	0x3ed4c6f3	0.41558036
103	0xbb8dcde2	-0.0043275217
104	0x3e6c363f	0.23067568
105	0x3ef74d00	0.48300934
106	0xbe880a27	-0.26570246
107	0xbe7b594e	-0.24545786
108	0xbe628d85	-0.22124298
109	0x3e2ec39c	0.17066807
110	0x3e9f34ce	0.31094974
111	0xbf4c9a7c	-0.79923224
112	0x3e328a81	0.17435648
113	0xbd9de757	-0.0771014
114	0x3f08dc8a	0.53461516
115	0xbf287227	-0.6579918
116	0xbd32a329	-0.043612633
117	0x3e3314c9	0.17488398
118	0x3f108421	0.5645161
119	0x3d8975ce	0.067119226
120	0x3f22b6b6	0.63560045
121	0xbe7284cb	-0.23683469
122	0xbe84beba	-0.25926763
123	0x3dfc3c4b	0.123161875
124	0x3f0f1f29	0.5590692
125	0x3c1d6391	0.009606258
126	0x3e73ade3	0.23796801
127	0xbeef7430	-0.46768332
128	0xbf353ed2	-0.7079898
129	0x3d08d215	0.033403475
130	0x3e9caf13	0.3060232
131	0x3f1117c6	0.566769
132	0x3e4a2ebd	0.19744392
133	0xbd947afd	-0.07250021
134	0xbe12a801	-0.14321901
135	0xbefb6ba8	-0.49105573
136	0xbd93ebb3	-0.072226904
137	0xbf5d669f	-0.8648471
138	0xbe21ef4e	-0.15813944
139	0x3e381d11	0.17979838
140	0xbd998a20	-0.074970484
141	0x3e9734ec	0.29532564
142	0xbdceb7de	-0.10093664
143	0xbe0063e0	-0.125381
144	0xbdd20888	-0.102555335
145	0xbdf43d14	-0.11925712
146	0x3e2d420b	0.16919725
147	0xbec253f2	-0.3795467
148	0x3e984283	0.29738244
149	0x3ed5462e	0.41655105
150	0xbebfb75b	-0.37444577
151	0x3e20e5a6	0.15712604
152	0x3e7d1334	0.24714357
153	0x3f809e63	1.0048336
154	0xbf030307	-0.51176494
155	0xbec1b173	-0.37830696
156	0xbed72702	-0.42021948
157	0xbe0c290c	-0.13687533
158	0xbdf038e8	-0.11729604
159	0x3eb1bed8	0.34715915
160	0xbe1c2c2b	-0.15251224
161	0x3e3feac3	0.18741898
162	0x3e08add5	0.13347562
163	0x3daaf418	0.083473384
164	0x3f30179f	0.6878604
165	0x3eb07e21	0.3447123
166	0x3ecd5c3d	0.40109435
167	0xbe31004d	-0.17285271
168	0xbeaef252	-0.3416925
169	0x3e466990	0.19376206
170	0x3e229874	0.15878469
171	0x3e3e7fcd	0.1860344
172	0xbef42dbc	-0.47691143
173	0xbed89ca3	-0.42307004
174	0xbe9e788e	-0.3095135
175	0x3e297425	0.16548212
176	0xbe9e6a30	-0.3094039
177	0x3ee47634	0.44621432
178	0xbd140c96	-0.036144815
179	0xbed7b810	-0.42132616
180	0x3d0d2598	0.03445968
181	0x3d4f96f8	0.050681084
182	0xbe70f201	-0.23529817
183	0x3f0a4359	0.54009014
184	0xbef5d696	-0.4801528
185	0x3e3aade9	0.18230404
186	0x3e5e3ce3	0.21702914
187	0x3efa9f04	0.48949444
188	0x3e23c51f	0.15993164
189	0xbe5a90b4	-0.21344262
190	0xbf0005cf	-0.50008863
191	0xbd7eed1f	-0.062237855
192	0x3b871d76	0.004123385
193	0x3e9fcdb6	0.31211632
194	0x3e0c76e6	0.13717231
195	0x3ea0f1b4	0.31434405
196	0xbd606ec6	-0.05479314
197	0x3e9cba78	0.30611014
198	0x3a214241	0.0006151535
199	0x3c74e209	0.014946469
200	0x3e92e8df	0.28693292
201	0xbeb6a941	-0.35676005
202	0x3d969556	0.07352702
203	0xbe9fbbb6	-0.311979
204	0x3f0982e3	0.5371534
205	0xbec8b791	-0.3920255
206	0xbc875507	-0.016520036
207	0xbe89dba0	-0.26925373
208	0x3e4ca4db	0.19984762
209	0x3f1a53af	0.6028394
210	0x3f8a4b12	1.080416
211	0xbc0af90a	-0.008482227
212	0x3f009874	0.50232625
213	0xbe3e2388	-0.18568242
214	0x3d5d2917	0.053994264
215	0x3e9eb0b9	0.30994204
216	0x3f408746	0.7520641
217	0x3eaecdf5	0.34141508
218	0x3f83cdc8	1.0297174
219	0xbebd7c16	-0.37008733
220	0x3e3c75b4	0.18404275
221	0x3eca9533	0.39566955
222	0x3ea7191e	0.3263635
223	0x3f552bf2	0.8327018
224	0xbe7c44d3	-0.2463563
225	0x3df913ae	0.12161957
226	0x3e16ca13	0.14725523
227	0xbe27ba2d	-0.16379614
228	0xbe463231	-0.19355084
229	0x3ee1c032	0.44091946
230	0x3f52ed4f	0.82393354
231	0xbe8121cd	-0.252211
232	0xbdd26921	-0.10273958
233	0x3eabc710	0.3355031
234	0x3f5009e9	0.8126512
235	0x3cc1db38	0.023664102
236	0xbd430a7b	-0.047617417
237	0xbe025323	-0.12727027
238	0xbe88bd65	-0.26706997
239	0xbe105241	-0.14093877
240	0xbb11a2a7	-0.0022222192
241	0xbe5b7c80	-0.21434212
242	0xbda813c9	-0.08206899
243	0xbe4a81b1	-0.19776036
244	0xbda9885a	-0.0827796
245	0x3ee8a8cc	0.45441282
246	0x3e601da8	0.21886313
247	0x3e8a028c	0.26955068
248	0x3e80f99f	0.25190446
249	0x3eded7a7	0.43523905
250	0x3db3be3d	0.087765194
251	0xbeac3081	-0.33630756
252	0x3c285688	0.010274537
253	0x3e29ae73	0.16570453
254	0xbeb5a2de	-0.3547582
255	0xbcedc566	-0.029024791

fc1.bias f4 [512]
0	0xb81bd25b	-3.715079e-05
1	0xb81b2f68	-3.699903e-05
2	0xb694fab6	-4.4399303e-06
3	0xb893ed32	-7.053687e-05
4	0xb7e0f052	-2.6814789e-05
5	0xb71f32b0	-9.48894e-06
6	0xb893b305	-7.042851e-05
7	0xb79248eb	-1.7438511e-05
8	0x3804f776	3.170172e-05
9	0xb7813841	-1.5404194e-05
10	0xb831221b	-4.223185e-05
11	0x374f56f4	1.2358407e-05
12	0xb7782f4b	-1.4792963e-05
13	0xb64f14d7	-3.0857534e-06
14	0x376f8ae1	1.4277845e-05
15	0x37ab3f80	2.0414358e-05
16	0x37f9ac8b	2.976346e-05
17	0xb7bd23e7	-2.2547274e-05
18	0xb8aab427	-8.139788e-05
19	0xb79ad41c	-1.8457002e-05
20	0xb7b1ad78	-2.1180822e-05
21	0x36468a9f	2.9584987e-06
22	0xb781f134	-1.5490317e-05
23	0xb7078625	-8.07786e-06
24	0x355e98f3	8.2924015e-07
25	0x37051565	7.932399e-06
26	0xb7a491ea	-1.961827e-05
27	0x361e8a40	2.3624307e-06
28	0x38248c6f	3.9231436e-05
29	0xb8017d5b	-3.0872743e-05
30	0xb52898ef	-6.2807425e-07
31	0x384691e6	4.7342757e-05
32	0xb766d968	-1.3759687e-05
33	0x385bc60b	5.239811e-05
34	0xb884ab73	-6.3261854e-05
35	0x369a2cee	4.594788e-06
36	0x373ea5bf	1.1363473e-05
37	0x3891bc97	6.9492664e-05
38	0x384bff3c	4.8636677e-05
39	0xb8190f8e	-3.649253e-05
40	0x37e11740	2.6832917e-05
41	0x37ae3ba6	2.0770192e-05
42	0x37bc1d36	2.2424949e-05
43	0xb7d94e08	-2.5904752e-05
44	0x35a6edf4	1.2437217e-06
45	0x3932409d	0.00016999473
46	0xb7c75578	-2.3762448e-05
47	0xb6759537	-3.65947e-06
48	0xb83b2712	-4.462066e-05
49	0x38690194	5.5553e-05
50	0xb62c08fe	-2.5635231e-06
51	0xb7e436b7	-2.7205197e-05
52	0x380aa20b	3.305268e-05
53	0xb76c8f41	-1.410005e-05
54	0xb7864ec1	-1.6010717e-05
55	0x37a9ad35	2.0227026e-05
56	0x37cb015b	2.4200117e-05
57	0xb7359939	-1.0824116e-05
58	0x37006651	7.653217e-06
59	0x365abbe0	3.259389e-06
60	0x366d8bea	3.5397193e-06
61	0xb802af2e	-3.1157564e-05
62	0xb7f31e2b	-2.8981905e-05
63	0xb90a1a70	-0.00013170554
64	0x384607b4	4.7214053e-05
65	0xb6af1269	-5.2175496e-06
66	0xb8312e21	-4.224305e-05
67	0x3743b4ab	1.1664971e-05
68	0xb789de10	-1.6435079e-05
69	0xb78dc1cf	-1.6898759e-05
70	0x36cdcefc	6.1335722e-06
71	0x372cda91	1.0302888e-05
72	0x37919526	1.73548e-05
73	0xb740b20b	-1.1485546e-05
74	0xb8a4b2a6	-7.853405e-05
75	0x38a9bf55	8.094186e-05
76	0xb7890559	-1.6334163e-05
77	0xb86ddb54	-5.670947e-05
78	0x3816eae5	3.598155e-05
79	0xb88b6891	-6.6475135e-05
80	0xb843b95c	-4.6664252e-05
81	0xb5d07082	-1.5529952e-06
82	0xb5edd9e6	-1.7721293e-06
83	0xb74c7565	-1.2186681e-05
84	0x37c0cc54	2.2983331e-05
85	0x3780de71	1.5362371e-05
86	0xb80c708e	-3.3483426e-05
87	0x372fd388	1.0480064e-05
88	0xb884fba2	-6.341121e-05
89	0x37dfdd9f	2.6686872e-05
90	0x373be87e	1.12002e-05
91	0xb81a6d8b	-3.681848e-05
92	0x3714e28a	8.874233e-06
93	0xb804ac5e	-3.1631782e-05
94	0xb8174bf1	-3.607193e-05
95	0x37c3a276	2.3321463e-05
96	0x34d2c411	3.9258205e-07
97	0x37219358	9.630654e-06
98	0xb8251b17	-3.9364295e-05
99	0xb7145d5c	-8.843224e-06
100	0x3791ceaf	1.7381592e-05
101	0x383608ac	4.3400258e-05
102	0xb70513b1	-7.9320025e-06
103	0x35b05158	1.3136696e-06
104	0x380a20bb	3.2932247e-05
105	0xb7580c88	-1.2877521e-05
106	0xb7b3a4cb	-2.14152e-05
107	0xb784a7e8	-1.5813814e-05
108	0x36b2f2d0	5.3330805e-06
109	0xb632f082	-2.666406e-06
110	0x3812ff84	3.504708e-05
111	0x37bac4ea	2.2264623e-05
112	0x372c38ac	1.0265194e-05
113	0x36c20dc0	5.7832513e-06
114	0xb549bb34	-7.515075e-07
115	0xb703b517	-7.850372e-06
116	0x35cd9d2c	1.5319433e-06
117	0xb680ad93	-3.834904e-06
118	0x3517993a	5.647486e-07
119	0xb82730a2	-3.9861196e-05
120	0xb8a828ca	-8.018462e-05
121	0xb8094c15	-3.2734202e-05
122	0xb801baa0	-3.0929805e-05
123	0xb7d99387	-2.5937114e-05
124	0xb84ac6d0	-4.834571e-05
125	0x36f21578	7.2146613e-06
126	0x37cf52b2	2.4714831e-05
127	0x383a1ccd	4.437268e-05
128	0x36544c72	3.1634959e-06
129	0x3733844c	1.0700034e-05
130	0x37b5bd92	2.1665157e-05
131	0x36e60563	6.8551612e-06
132	0x38365496	4.347096e-05
133	0xb893617f	-7.027666e-05
134	0xb435b9e0	-1.692456e-07
135	0x38c8c79c	9.573923e-05
136	0x38c94e6e	9.5990355e-05
137	0x389d4c24	7.500526e-05
138	0x38b3a2aa	8.565684e-05
139	0x37b8b408	2.2018343e-05
140	0xb7de3430	-2.6488764e-05
141	0x3877498f	5.8957896e-05
142	0x38294314	4.035521e-05
143	0x38980584	7.248952e-05
144	0x378e2bb4	1.694807e-05
145	0x35f0afc7	1.7932551e-06
146	0xb71be1c8	-9.291289e-06
147	0x37655c06	1.36708895e-05
148	0xb72e3193	-1.0382751e-05
149	0xb85764c0	-5.1353825e-05
150	0xb8800b9b	-6.105677e-05
151	0x3841ce25	4.6206773e-05
152	0xb7639fda	-1.3567473e-05
153	0x36b08a63	5.261319e-06
154	0xb7618c76	-1.3443749e-05
155	0x35aee85d	1.3031637e-06
156	0x381637b9	3.5814683e-05
157	0xb81307c2	-3.5054756e-05
158	0xb81fb9a8	-3.808146e-05
159	0x3749a0e5	1.2017995e-05
160	0xb837be0a	-4.3807588e-05
161	0xb702b37e	-7.790395e-06
162	0xb81ba4de	-3.7108424e-05
163	0x37b6da59	2.1797767e-05
164	0x37205a31	9.5577425e-06
165	0xb7f3bd58	-2.9056027e-05
166	0xb7a89c2b	-2.0099882e-05
167	0xb7239ca0	-9.752024e-06
168	0x372a7461	1.0159886e-05
169	0xb7a4ad31	-1.9630972e-05
170	0x37baa941	2.2251743e-05
171	0xb80dd81c	-3.3818287e-05
172	0x38470d0b	4.7457444e-05
173	0xb655aca2	-3.183996e-06
174	0xb799a115	-1.8314031e-05
175	0xb7a6410f	-1.9819037e-05
176	0x38853d21	6.35332e-05
177	0xb70def3b	-8.459955e-06
178	0xb6992167	-4.563644e-06
179	0x3767455d	1.3784823e-05
180	0xb74e3496	-1.22908e-05
181	0xb7e5c0b1	-2.7388656e-05
182	0xb8450757	-4.6975296e-05
183	0x37a5daf9	1.97715e-05
184	0xb86d1b30	-5.6530524e-05
185	0xb754045a	-1.2637198e-05
186	0x3841063c	4.6020592e-05
187	0xb8a8e0b2	-8.052717e-05
188	0xb6c5cb70	-5.8947408e-06
189	0x37602eb8	1.3362318e-05
190	0x3730b7c1	1.0533201e-05
191	0xb769782e	-1.3915864e-05
192	0x3846a765	4.7362777e-05
193	0x35fd2ef4	1.8863634e-06
194	0x381fd4ac	3.810662e-05
195	0x3898046e	7.24875e-05
196	0x36e639a8	6.861246e-06
197	0xb8012468	-3.0789903e-05
198	0x376616e8	1.3714402e-05
199	0x380e389a	3.3908153e-05
200	0x382d7e14	4.1363834e-05
201	0x384107a2	4.6021894e-05
202	0x38795406	5.944448e-05
203	0x376d0b55	1.4128939e-05
204	0x38294265	4.0354575e-05
205	0x37ac41ac	2.0534579e-05
206	0x3800d7ad	3.0718442e-05
207	0xb7d2b743	-2.5119289e-05
208	0xb5e8d9d6	-1.7348746e-06
209	0xb8637b6d	-5.4235967e-05
210	0xb87dacef	-6.0480957e-05
211	0x387f8618	6.0921622e-05
212	0x373f0854	1.1386426e-05
213	0x37154109	8.896234e-06
214	0xb68db782	-4.2234906e-06
215	0xb7926467	-1.745131e-05
216	0xb883b397	-6.280018e-05
217	0xb82a1bd0	-4.055706e-05
218	0xb826870a	-3.970325e-05
219	0x379cf63e	1.8711315e-05
220	0x36c41bfa	5.844512e-06
221	0x38b90f9e	8.824396e-05
222	0x381b5d8d	3.7042006e-05
223	0x383e2886	4.533727e-05
224	0xb816e777	-3.5978355e-05
225	0x370d63c6	8.427485e-06
226	0xb7d9c784	-2.5961323e-05
227	0xb7272fea	-9.9651315e-06
228	0xb82814cb	-4.0073686e-05
229	0xb60c80fa	-2.09367e-06
230	0xb78bef7c	-1.668161e-05
231	0xb787c6e1	-1.6185864e-05
232	0x37d06c43	2.4845946e-05
233	0xb42cb715	-1.6085353e-07
234	0xb8051c0d	-3.1735795e-05
235	0xb7c80ace	-2.384689e-05
236	0x3833e540	4.289043e-05
237	0x37e87f97	2.7715969e-05
238	0x388c1d1e	6.681144e-05
239	0x35fe27bb	1.8936038e-06
240	0xb81ac566	-3.6900303e-05
241	0xb8387946	-4.3981963e-05
242	0x37fe1230	3.0287629e-05
243	0xb71fca89	-9.524295e-06
244	0xb7f47d32	-2.9145365e-05
245	0xb6a157cc	-4.808395e-06
246	0x376c6ff3	1.4092761e-05
247	0xb7d979eb	-2.5925188e-05
248	0x37f89797	2.9634493e-05
249	0xb78fdff9	-1.7151224e-05
250	0xb7cae8d6	-2.41887e-05
251	0xb7ba6f86	-2.222486e-05
252	0xb822765f	-3.873405e-05
253	0x3804c1fc	3.1651914e-05
254	0xb7271625	-9.959132e-06
255	0xb858de92	-5.1705698e-05

bn1.weight f4 [512]
0	0x3f808571	1.0040723
1	0x3f7dc429	0.9912744
2	0x3f7f7c95	0.9979947
3	0x3f7ed17e	0.9953841
4	0x3f7ed984	0.9955065
5	0x3f80596c	1.0027289
6	0x3f7df704	0.9920504
7	0x3f807d91	1.003832
8	0x3f804127	1.0019883
9	0x3f7ed9a9	0.99550873
10	0x3f7f5243	0.99734896
11	0x3f81f6e3	1.0153469
12	0x3f7f151d	0.9964159
13	0x3f80996d	1.0046822
14	0x3f8004cf	1.0001467
15	0x3f7f1b7f	0.9965133
16	0x3f8082a6	1.0039871
17	0x3f7e4a49	0.993321
18	0x3f803f1c	1.001926
19	0x3f7fdec1	0.9994927
20	0x3f8001f7	1.00006
21	0x3f7fb4fe	0.9988555
22	0x3f7ffcca	0.999951
23	0x3f7ed1aa	0.9953867
24	0x3f801971	1.0007764
25	0x3f80610d	1.0029618
26	0x3f800601	1.0001832
27	0x3f802659	1.0011703
28	0x3f804881	1.0022126
29	0x3f7fdc38	0.999454
30	0x3f80d3fa	1.006469
31	0x3f80d3e8	1.0064669
32	0x3f806e7b	1.0033716
33	0x3f7ef2d0	0.9958925
34	0x3f8056e0	1.0026512
35	0x3f7fe4b9	0.9995838
36	0x3f80f763	1.0075496
37	0x3f80036d	1.0001045
38	0x3f80bad2	1.0057013
39	0x3f80bb9f	1.0057257
40	0x3f7eb61c	0.99496627
41	0x3f7f7452	0.99786866
42	0x3f8010b1	1.0005094
43	0x3f815733	1.0104736
44	0x3f80685d	1.0031849
45	0x3f7db5bc	0.9910543
46	0x3f7d867d	0.9903334
47	0x3f7fd276	0.9993051
48	0x3f80c9bf	1.0061568
49	0x3f7ffb26	0.999926
50	0x3f80a492	1.0050223
51	0x3f80b0fc	1.0054011
52	0x3f7fe54f	0.9995927
53	0x3f7f461f	0.9971637
54	0x3f805f51	1.0029088
55	0x3f80853e	1.0040662
56	0x3f7f736c	0.99785495
57	0x3f806648	1.0031214
58	0x3f7fdc43	0.9994547
59	0x3f80a150	1.0049229
60	0x3f7f13e0	0.996397
61	0x3f80c21a	1.0059235
62	0x3f8052bd	1.002525
63	0x3f7eb812	0.9949962
64	0x3f80013d	1.0000378
65	0x3f8044dc	1.0021014
66	0x3f80a59b	1.0050539
67	0x3f802afe	1.001312
68	0x3f809f1d	1.0048558
69	0x3f7f5257	0.99735016
70	0x3f7f953d	0.99837095
71	0x3f801f4d	1.0009552
72	0x3f7f747a	0.99787104
73	0x3f7f4481	0.99713904
74	0x3f80c3f3	1.0059799
75	0x3f80246b	1.0011114
76	0x3f807fbd	1.0038983
77	0x3f7d9b98	0.9906554
78	0x3f805de8	1.0028658
79	0x3f7e2d77	0.99288124
80	0x3f80b264	1.005444
81	0x3f800d43	1.0004047
82	0x3f7f7d58	0.99800634
83	0x3f7f9a7c	0.998451
84	0x3f7ea74b	0.9947402
85	0x3f7ef7c1	0.9959679
86	0x3f802705	1.0011908
87	0x3f7f1f98	0.99657583
88	0x3f8056a9	1.0026447
89	0x3f809999	1.0046874
90	0x3f80ee5b	1.007274
91	0x3f7f7917	0.99794143
92	0x3f805b20	1.0027809
93	0x3f7fec4a	0.99969923
94	0x3f805f33	1.0029052
95	0x3f7e9eee	0.9946126
96	0x3f7e7df1	0.9941092
97	0x3f8043e4	1.0020719
98	0x3f8013a1	1.000599
99	0x3f7ee77d	0.99571973
100	0x3f7f4664	0.9971678
101	0x3f7e9248	0.9944196
102	0x3f7f8b70	0.9982214
103	0x3f8007be	1.0002363
104	0x3f7ed9ae	0.995509
105	0x3f800aa6	1.000325
106	0x3f809ec3	1.004845
107	0x3f801f38	1.0009527
108	0x3f7f3ca7	0.99701923
109	0x3f80a457	1.0050153
110	0x3f7f9b3c	0.99846244
111	0x3f7eaf9d	0.99486715
112	0x3f7fecf1	0.9997092
113	0x3f8112eb	1.0083898
114	0x3f8049b3	1.0022491
115	0x3f7f9b22	0.9984609
116	0x3f809db2	1.0048125
117	0x3f7ec6d0	0.99522114
118	0x3f80a461	1.0050164
119	0x3f7ea88f	0.9947595
120	0x3f8116fb	1.0085138
121	0x3f803526	1.001622
122	0x3f808bde	1.0042684
123	0x3f808d1e	1.0043066
124	0x3f802e2c	1.001409
125	0x3f8030d5	1.0014902
126	0x3f80899c	1.0041995
127	0x3f825ae4	1.0183988
128	0x3f800b63	1.0003475
129	0x3f804884	1.002213
130	0x3f80c4e2	1.0060084
131	0x3f7e51d2	0.993436
132	0x3f7dae09	0.9909368
133	0x3f7f86ac	0.9981487
134	0x3f809a95	1.0047175
135	0x3f80139f	1.0005988
136	0x3f81affa	1.0131829
137	0x3f7e31da	0.9929482
138	0x3f7e3474	0.9929879
139	0x3f81075f	1.0080374
140	0x3f8071be	1.0034711
141	0x3f7fef1a	0.99974215
142	0x3f801b03	1.0008243
143	0x3f7f8894	0.99817777
144	0x3f802f81	1.0014497
145	0x3f80ca76	1.0061786
146	0x3f7e5d38	0.9936099
147	0x3f7f8ca4	0.99823976
148	0x3f7f03bb	0.9961507
149	0x3f7e81b3	0.99416655
150	0x3f7f86ad	0.99814874
151	0x3f80006a	1.0000126
152	0x3f805993	1.0027336
153	0x3f7ea6c0	0.9947319
154	0x3f80ed0f	1.0072345
155	0x3f7f4981	0.99721533
156	0x3f7fa2d1	0.99857813
157	0x3f800698	1.0002012
158	0x3f7f4b68	0.99724436
159	0x3f7febe4	0.99969316
160	0x3f805f57	1.0029095
161	0x3f803ac2	1.0017931
162	0x3f7ff3bf	0.999813
163	0x3f7fa548	0.99861574
164	0x3f7f069f	0.9961948
165	0x3f7f6620	0.99765205
166	0x3f7fd936	0.9994081
167	0x3f7f3129	0.9968439
168	0x3f8094b8	1.0045385
169	0x3f7dafa0	0.9909611
170	0x3f80d041	1.0063554
171	0x3f8028dc	1.0012469
172	0x3f7f8efb	0.99827546
173	0x3f7ef8c5	0.9959834
174	0x3f7fae97	0.9987578
175	0x3f7f9b03	0.99845904
176	0x3f7ea708	0.9947362
177	0x3f7f5ed2	0.9975406
178	0x3f806871	1.0031873
179	0x3f7f227e	0.99662006
180	0x3f801f98	1.0009642
181	0x3f80cbac	1.0062156
182	0x3f80f857	1.0075787
183	0x3f805a94	1.0027642
184	0x3f7fb2b5	0.9988206
185	0x3f7f9679	0.9983898
186	0x3f8083bb	1.0040201
187	0x3f7f6523	0.997637
188	0x3f805b32	1.0027831
189	0x3f7fad39	0.9987369
190	0x3f7f46c2	0.9971734
191	0x3f7e47cf	0.9932832
192	0x3f8050bf	1.0024642
193	0x3f7f3411	0.9968882
194	0x3f804fcb	1.0024351
195	0x3f7ef91c	0.9959886
196	0x3f800e53	1.0004371
197	0x3f807347	1.003518
198	0x3f8048aa	1.0022175
199	0x3f80704b	1.0034269
200	0x3f80238a	1.0010846
201	0x3f800569	1.0001651
202	0x3f7ed81f	0.99548525
203	0x3f7f5873	0.9974434
204	0x3f80fc34	1.0076966
205	0x3f7f7d4f	0.9980058
206	0x3f7e1b30	0.99260235
207	0x3f7f5fbe	0.99755466
208	0x3f808f1f	1.0043677
209	0x3f7faf86	0.998772
210	0x3f8024aa	1.0011189
211	0x3f8003a6	1.0001113
212	0x3f80b5d3	1.0055488
213	0x3f7ff498	0.99982595
214	0x3f7de8aa	0.9918314
215	0x3f8149ae	1.010061
216	0x3f7f439d	0.99712545
217	0x3f7f130e	0.9963845
218	0x3f809cb7	1.0047826
219	0x3f800486	1.000138
220	0x3f8096aa	1.0045979
221	0x3f80edea	1.0072606
222	0x3f80fde3	1.007748
223	0x3f81437c	1.009872
224	0x3f80041a	1.0001252
225	0x3f80797c	1.0037074
226	0x3f7f51c5	0.99734145
227	0x3f801fa1	1.0009652
228	0x3f7ee3a0	0.9956608
229	0x3f80a004	1.0048833
230	0x3f800943	1.0002826
231	0x3f808b57	1.0042523
232	0x3f804f3c	1.002418
233	0x3f7ee09a	0.99561465
234	0x3f802b06	1.001313
235	0x3f7fa166	0.9985565
236	0x3f809f82	1.0048678
237	0x3f7fdf74	0.9995034
238	0x3f8045c3	1.002129
239	0x3f7ffb12	0.9999248
240	0x3f7fede5	0.99972373
241	0x3f7f0be8	0.9962754
242	0x3f7fe151	0.9995318
243	0x3f81015d	1.0078541
244	0x3f7f85ad	0.9981335
245	0x3f807d0f	1.0038165
246	0x3f7fd0ab	0.9992778
247	0x3f7fe0d9	0.99952465
248	0x3f8015f4	1.00067
249	0x3f80bb8c	1.0057235
250	0x3f802baa	1.0013325
251	0x3f7fca82	0.9991838
252	0x3f7f4191	0.9970942
253	0x3f80260c	1.0011611
254	0x3f7fc96f	0.9991674
255	0x3f80ba3c	1.0056834

bn1.bias f4 [512]
0	0x3b33662d	0.0027374134
1	0xbbe0088e	-0.0068369573
2	0xba9eadf0	-0.0012106281
3	0xbba9520d	-0.005167252
4	0xbbe88c76	-0.0070968224
5	0xbabf6cc3	-0.0014604557
6	0xbc1f6781	-0.009729267
7	0xb96ade18	-0.00022398715
8	0xbaa0b68d	-0.0012261436
9	0xbb640533	-0.0034793138
10	0x3b7fdb7a	0.003904073
11	0xb8819616	-6.179155e-05
12	0xbb3a588e	-0.002843413
13	0x3aaa2c22	0.0012983123
14	0x3a828ac0	0.0009959564
15	0xba711b5b	-0.00091974967
16	0xba94f66c	-0.0011364943
17	0xbbfbf5ed	-0.0076892287
18	0x3ad96bd5	0.0016587923
19	0xbba8f585	-0.0051562213
20	0xbae27739	-0.0017277963
21	0xba26eed9	-0.00063679885
22	0xb9afab5d	-0.00033506277
23	0xbb4fba52	-0.003169675
24	0xbad77b27	-0.00164399
25	0xb9c1b3b5	-0.0003694572
26	0xba154caf	-0.00056953257
27	0x3a5ab155	0.00083424646
28	0x3b210f0d	0.0024575621
29	0x3a85c94d	0.0010207087
30	0x3c0907ca	0.008363673
31	0x3b3285a9	0.0027240312
32	0xba2f1418	-0.00066787144
33	0xbb46ee3f	-0.0030354408
34	0x3b636c8a	0.0034702145
35	0xbb484fff	-0.003056526
36	0x3b56a4eb	0.0032752107
37	0x3a1d1cb4	0.0005993352
38	0x3ac9afbb	0.0015387455
39	0xbb124752	-0.0022320342
40	0xbb98ebc5	-0.004666778
41	0xba181407	-0.0005801324
42	0x3a1d2524	0.0005994609
43	0x3b5267dd	0.0032105364
44	0x3b760698	0.0037540551
45	0xbc2d14c3	-0.010564032
46	0xbc031346	-0.008000201
47	0xbb195ec0	-0.0023402423
48	0x3ac9f9c2	0.0015409517
49	0xbb23034c	-0.0024873791
50	0x3b5dea84	0.0033861706
51	0x3b9d6326	0.004803079
52	0x38780ce4	5.9139813e-05
53	0xbb80a5f3	-0.0039260327
54	0xb9c3481c	-0.00037247024
55	0x3ad60604	0.0016328697
56	0xbb232eb8	-0.0024899673
57	0xba7c6db2	-0.0009629383
58	0x389df094	7.5311546e-05
59	0x3b3d3710	0.002887193
60	0xbb46b4a1	-0.0030320066
61	0x3adb4ffc	0.0016732211
62	0x3adce1a8	0.0016851919
63	0x39ffd6a1	0.000487973
64	0xbb1782a9	-0.002311865
65	0x3bc30795	0.0059518316
66	0x3a97f774	0.0011594133
67	0x395735b0	0.00020523998
68	0x3c1db2d2	0.009625154
69	0xbab40ade	-0.0013736149
70	0x3a935c22	0.0011242668
71	0x3b40e489	0.0029433093
72	0xba93c24e	-0.0011273117
73	0xb881b199	-6.1842795e-05
74	0x3b4fd329	0.0031711555
75	0x3a2daa60	0.0006624814
76	0x3afd359f	0.0019318348
77	0xbba086b9	-0.0048988727
78	0x3b4cfe8a	0.0031279647
79	0xbbee2adc	-0.007268293
80	0x3ac935c6	0.0015351109
81	0xbb378b4e	-0.0028006616
82	0xbb2ef84d	-0.0026698292
83	0xb98580c7	-0.00025463683
84	0xbadfb7f5	-0.0017068373
85	0x3b246811	0.0025086442
86	0x39823e86	0.00024842116
87	0xba431472	-0.0007441706
88	0xba05e4f2	-0.0005107663
89	0x3c0e641f	0.008690863
90	0x3b9d6f45	0.004804524
91	0x39f6bab9	0.00047059896
92	0x3a274960	0.0006381478
93	0x3a8ede21	0.001089994
94	0xbb2245f8	-0.0024760943
95	0xbbf1c2a9	-0.0073779416
96	0xbbc636c6	-0.00604901
97	0x3a8e9248	0.0010877335
98	0xba94b177	-0.0011344393
99	0xba844551	-0.0010091459
100	0xbb92509b	-0.0044651753
101	0xbbb53b8b	-0.0055307797
102	0xbb760af8	-0.003754316
103	0x3b50d2cc	0.0031863926
104	0xbb9a1f7f	-0.0047034617
105	0x3afda496	0.0019351419
106	0xba32d3be	-0.0006821713
107	0x3a03da28	0.0005029761
108	0xbb976dc8	-0.0046212412
109	0x3c074982	0.008257272
110	0x39b4f82b	0.00034517175
111	0xbb97e717	-0.0046357024
112	0xbb99e1ed	-0.004696122
113	0xbada6fd5	-0.0016665409
114	0x3bb501c4	0.005523892
115	0xbb345f4f	-0.0027522629
116	0x3aa7bfc2	0.0012798237
117	0xbb85161d	-0.004061474
118	0x3b1e1681	0.00241223
119	0xbb9bc618	-0.004753839
120	0x3bca9455	0.0061822333
121	0x39f1f240	0.00046147592
122	0x3c12723e	0.00893837
123	0x3b3c0c5d	0.0028693893
124	0x38bd0180	9.012502e-05
125	0x3988dfd2	0.000261067
126	0xbaeffc9f	-0.001830954
127	0x3b37be8d	0.002803716
128	0x39669c56	0.00021992749
129	0x3b05d0bf	0.0020418612
130	0x3ba14661	0.00492172
131	0xbc0c6a55	-0.008570273
132	0xbb940b56	-0.004517953
133	0x358b0bd4	1.035975e-06
134	0x3b8ea6da	0.0043533863
135	0xbb0fa635	-0.0021919135
136	0x3b9937bc	0.0046758335
137	0xbc117634	-0.0088782795
138	0xbb6ddc36	-0.0036294586
139	0x3bd97649	0.006636415
140	0xbb8203e4	-0.003967749
141	0x3a756cfb	0.00093622477
142	0xbae83368	-0.0017715516
143	0xbb990040	-0.0046692193
144	0x3b3da5e6	0.0028937995
145	0x3bd999eb	0.006640663
146	0xbbefaad1	-0.007314064
147	0x3991fe06	0.00027845817
148	0xbb01b08d	-0.001978907
149	0xbb54b234	-0.003245485
150	0xbb8fe7d7	-0.004391651
151	0x3b4312e5	0.00297659
152	0x39e7715f	0.00044144221
153	0xbbd1fc85	-0.0064082765
154	0x3afae0ed	0.001914052
155	0xbb1b8a97	-0.002373373
156	0xbb6d2236	-0.0036183721
157	0x3aa0fd59	0.0012282535
158	0xbb5b1391	-0.003342841
159	0xbbb7ffbe	-0.0056152036
160	0x3ab626f5	0.0013897108
161	0x39fb6f95	0.00047957586
162	0xbb4036b3	-0.0029329478
163	0xbb3cb4b5	-0.0028794233
164	0xbaf0a03e	-0.0018358303
165	0xba8a89f1	-0.0010569674
166	0xb9912b8d	-0.00027689003
167	0xbab0e8db	-0.0013497131
168	0x3a989c5e	0.0011643281
169	0xbc127697	-0.008939407
170	0x3b7c1d43	0.003846959
171	0xbb10a16d	-0.0022068874
172	0xbb36dc7a	-0.002790241
173	0xbc1157bc	-0.008871015
174	0xbb1a5bbf	-0.002355322
175	0xbb3c9c6b	-0.0028779756
176	0xbb811a35	-0.0039398917
177	0xbb3065e6	-0.0026916205
178	0xbadde246	-0.0016928397
179	0xba881713	-0.0010382853
180	0x3ad02fa5	0.001588334
181	0x3b39009c	0.0028229123
182	0x3bbaf28e	0.0057051843
183	0x3a45af6a	0.00075410923
184	0xba110f04	-0.00055335485
185	0x3a2856ad	0.0006421607
186	0x36a83aa5	5.0136173e-06
187	0xba79c8b1	-0.00095285015
188	0xbb25b22b	-0.0025283198
189	0xba162b6b	-0.00057285157
190	0x3aa06946	0.0012238405
191	0xbbe40832	-0.006958985
192	0x39b951bf	0.00035346855
193	0xbb52476d	-0.003208603
194	0x3888d905	6.5254084e-05
195	0xbba98377	-0.0051731425
196	0xbb4bf75f	-0.0031122786
197	0x3ba04ce4	0.0048919786
198	0x3b2f9bbb	0.0026795703
199	0x3b52a26b	0.0032140266
200	0x3aea217b	0.0017862761
201	0xbbef6027	-0.0073051634
202	0xbc1656c1	-0.009175957
203	0xbb367a81	-0.0027844014
204	0x3c035d9b	0.008017923
205	0xb89152d2	-6.929565e-05
206	0xbbe192b2	-0.0068839425
207	0xbb212238	-0.0024587046
208	0x3aa2fb01	0.0012434424
209	0xbb1edad1	-0.0024239311
210	0x3b8429d6	0.0040333075
211	0xbac57da3	-0.001506735
212	0x3bae3ee2	0.005317555
213	0x3a0d4baa	0.0005389998
214	0xbbcc5121	-0.0062352573
215	0x3b764fdc	0.003758422
216	0xbb8eaf2d	-0.0043543787
217	0xbbc25843	-0.005930932
218	0x3b6a49d3	0.003574957
219	0x3a6710cb	0.0008814453
220	0xb9d07f4a	-0.0003976769
221	0x3bea6e38	0.0071542524
222	0x3bcfa05b	0.0063362545
223	0xba3a3ef6	-0.0007104719
224	0xb9d02707	-0.0003970193
225	0x39c682b0	0.00037862873
226	0xbaf761d4	-0.001887376
227	0x3b0f734f	0.0021888798
228	0xbacbf712	-0.0015561304
229	0x3a140a46	0.0005647283
230	0x3ac94347	0.0015355133
231	0x3bbf80ef	0.0058442275
232	0x3b4e6d03	0.0031498082
233	0xbbaf1b32	-0.005343818
234	0x3b1b4ae6	0.0023695766
235	0xbb2bc6bb	-0.0026210982
236	0x3b0064ae	0.001959126
237	0x3a8a60b8	0.0010557389
238	0xb629f3f8	-2.532497e-06
239	0xbaf9e5db	-0.0019065695
240	0xbaea8b93	-0.001789438
241	0xbb1b5818	-0.002370363
242	0xbad076ba	-0.0015904524
243	0x3be146a6	0.006874877
244	0xba8bd3e0	-0.0010668002
245	0x3b6c407c	0.0036049178
246	0xbb622a65	-0.0034510132
247	0xbadea7b4	-0.0016987235
248	0xba05dc57	-0.00051063806
249	0x3b56e14c	0.0032788096
250	0xb955dafc	-0.00020394841
251	0xbb45b392	-0.0030166847
252	0xbb9093d3	-0.0044121533
253	0xbb2975d8	-0.0025857594
254	0xba3087a5	-0.000673408
255	0x3b2364f0	0.002493199

bn1.running_mean f4 [512]
0	0x3e50e043	0.20398049
1	0x3edc0c4c	0.42978132
2	0xbe35f68a	-0.17769828
3	0x3e897bb1	0.26852182
4	0xbe834662	-0.25639635
5	0xbe259a73	-0.16172199
6	0x3e929ea2	0.28636652
7	0x3e6b165b	0.22957747
8	0x3e3ac032	0.18237379
9	0xbda8bd66	-0.0823925
10	0xbcb9b477	-0.02266906
11	0xbee817fc	-0.453308
12	0xbc5d681e	-0.013513593
13	0x3df0af2e	0.11752163
14	0xbf046e9c	-0.51731277
15	0xbef00bbf	-0.46883962
16	0x3d5f832f	0.054568466
17	0x3eb54ca7	0.35410044
18	0xbd3f67ae	-0.046729736
19	0xbdd2078c	-0.10255346
20	0x3e111743	0.1416903
21	0x3df59d39	0.119928785
22	0xbebf569b	-0.37370762
23	0x3a9deb52	0.001204828
24	0x3e4419da	0.19150487
25	0xbcf0b745	-0.029384265
26	0xbe6ad14b	-0.22931401
27	0xbe9aba21	-0.3022013
28	0x3db24d49	0.08706147
29	0x3b9d60c0	0.0048027933
30	0xbf07f9c4	-0.5311549
31	0xbe938d1c	-0.28818595
32	0xbed30cb1	-0.4122062
33	0xbec1b9e8	-0.37837148
34	0x3db10ce6	0.08645038
35	0xbdd3ad7b	-0.10335823
36	0x3ec4f968	0.38471532
37	0xbd547d7c	-0.051877484
38	0x3dc2203a	0.09478803
39	0xbf5a7329	-0.8533197
40	0xbeacedca	-0.3377517
41	0x3eac090c	0.33600652
42	0x3e2cc6c0	0.16872692
43	0xbf267452	-0.6502124
44	0x3e94a1b8	0.29029632
45	0xbec22f1d	-0.3792657
46	0xbebf853e	-0.37406343
47	0xbe959a1f	-0.29219148
48	0x3e4647b4	0.1936329
49	0xbd9d138b	-0.07669743
50	0x3d926900	0.071489334
51	0x3e1c3149	0.15253176
52	0x3ef287c6	0.47369212
53	0xbebc65ad	-0.36796322
54	0xbe95d102	-0.29261023
55	0x3f1399aa	0.5765635
56	0xbda74dc3	-0.08169129
57	0x3edc10dd	0.42981616
58	0xbdedf8dc	-0.11619732
59	0xbf48f6bd	-0.7850149
60	0xbe427833	-0.18991165
61	0xbf5c96a3	-0.86167353
62	0xbecb798d	-0.39741173
63	0xbe388151	-0.1801808
64	0x3e09fc0b	0.13475053
65	0x3e22bc3c	0.15892118
66	0xbddb2642	-0.107006565
67	0xbdeaebe3	-0.11470773
68	0x3e59c5df	0.21266888
69	0x3e18857d	0.14894672
70	0xbdd31b3a	-0.103079274
71	0x3f09e6e6	0.5386795
72	0xbefe42c8	-0.49660325
73	0x3dfad541	0.12247706
74	0x3eae0cab	0.3399404
75	0xbd4bad14	-0.049725607
76	0xbf0b3f03	-0.54393023
77	0xbe902316	-0.28151768
78	0x3d80faee	0.06297861
79	0x3d4b26d5	0.04959758
80	0x3f0f40ec	0.5595844
81	0xbdea46f6	-0.11439316
82	0xbe33bb72	-0.17551973
83	0xbedc8241	-0.43068126
84	0xbe110eaa	-0.1416575
85	0xbdb291d4	-0.08719221
86	0x3e814304	0.2524644
87	0x3d089a25	0.03335013
88	0xbe2d39f7	-0.16916643
89	0x3e5367ae	0.2064502
90	0x3f1ff836	0.62488115
91	0x3daeeb13	0.085409306
92	0x3e903919	0.28168562
93	0x3edc466e	0.43022484
94	0x3cb39c3d	0.021925086
95	0x3d0fbcbe	0.035092108
96	0xbd42221c	-0.04739581
97	0x3f03dc4b	0.51508015
98	0x3e8b1c71	0.27170137
99	0x3e5674c6	0.20942983
100	0xbe4a5ea1	-0.1976266
101	0x3cc5ca03	0.024144178
102	0xbec1d84b	-0.3786033
103	0x3ebe0e18	0.37120128
104	0x3ea7f372	0.32802922
105	0xbd1cce0e	-0.038282447
106	0x3f44dc5b	0.76898736
107	0xbea47f98	-0.32128596
108	0xbdf67f20	-0.12035966
109	0x3e7c9c53	0.24669008
110	0x3dde984c	0.10868892
111	0x3e80cda0	0.2515688
112	0x3edade5b	0.4274777
113	0xbe3110c3	-0.1729155
114	0xbe315af8	-0.17319858
115	0xbf53a0c5	-0.8266719
116	0xbea1ab25	-0.31575885
117	0xbea78cb3	-0.32724532
118	0x3ec3f54b	0.3827308
119	0xbe718240	-0.23584843
120	0xbe30e170	-0.17273498
121	0xbec313d1	-0.38101056
122	0x3eec8bc0	0.4620037
123	0x3d66d667	0.056356814
124	0xbf071e8a	-0.52780974
125	0xbe77ee52	-0.24212006
126	0xbf300215	-0.68753177
127	0xbf80a39b	-1.0049928
128	0x3ce06d52	0.027395878
129	0x3e65c0a8	0.22436774
130	0x3ed24342	0.4106694
131	0xbed31f9d	-0.41235057
132	0xbedbef9c	-0.42956245
133	0x3d25759c	0.040395364
134	0x3eff379a	0.49847108
135	0x3dc2d0b9	0.09512467
136	0xbf0cbed5	-0.54978687
137	0xbeaa7372	-0.33291203
138	0xbce21280	-0.027596712
139	0x3f3b65d6	0.73202264
140	0xbdd6504f	-0.104645364
141	0xbe13d644	-0.14437205
142	0xbe200a39	-0.156289
143	0xbcaf71b7	-0.021416528
144	0xbe4af084	-0.19818312
145	0xbed0373b	-0.40667138
146	0x3e313116	0.17303881
147	0x3d48a382	0.04898406
148	0x3c719814	0.014745731
149	0xb97b4e50	-0.00023966399
150	0x3d0e49d5	0.03473838
151	0xbe75471c	-0.23952907
152	0x3df3c3a5	0.119025506
153	0xbdb5d144	-0.08877805
154	0xbf590328	-0.8477044
155	0x3f1960bc	0.5991323
156	0xbe3bf81f	-0.1835637
157	0x3e478889	0.19485678
158	0xbe9da694	-0.30791152
159	0x3cdc8bba	0.026922096
160	0x3de07bd0	0.10961115
161	0xbf015194	-0.50515103
162	0xbf0315d5	-0.5120519
163	0x3e64c7ff	0.22341917
164	0x3ec6f17e	0.3885612
165	0xbe8fe983	-0.28107843
166	0xbf76e331	-0.96440417
167	0x3b816748	0.0039490797
168	0xbd203655	-0.039114315
169	0xbc6f980a	-0.014623651
170	0xbcc4194e	-0.023937847
171	0x3cbe0c32	0.023199175
172	0xbe49f857	-0.1972364
173	0xbe875ea2	-0.26439387
174	0x3e96dc91	0.29465154
175	0x3ef2a3c5	0.4739057
176	0xbe76de4a	-0.24108234
177	0x3f2199cd	0.63125306
178	0x3ec08095	0.375981
179	0x3d9ad474	0.075600535
180	0x3dbea32b	0.093084656
181	0xbf1afc06	-0.6054081
182	0x3e8395bc	0.25700176
183	0xbd420b0b	-0.047373813
184	0x3ea9e188	0.3317988
185	0x3dcaaf20	0.09896684
186	0xbe922f3f	-0.2855167
187	0xbdf4fc22	-0.11962153
188	0xbf8aa724	-1.0832257
189	0x3ea55fe3	0.32299718
190	0x3f1146b1	0.5674849
191	0xbebb60f9	-0.36597422
192	0x3f00a8b6	0.5025743
193	0xbf135e24	-0.5756552
194	0x3f03cd78	0.51485395
195	0x3ee59113	0.44837245
196	0xbe84e521	-0.2595606
197	0x3dac5d35	0.08416215
198	0x3deb93ff	0.115028374
199	0xbe9f33ff	-0.31094357
200	0xbd5585a9	-0.05212942
201	0x3e0be94d	0.13663216
202	0xbedc0223	-0.4297038
203	0x3e2414ba	0.16023532
204	0x3f6fe52b	0.9370906
205	0x3e4663ef	0.19374059
206	0xbde18231	-0.1101116
207	0xbe392d27	-0.1808363
208	0x3e5abbf8	0.21360767
209	0xbeb68df3	-0.35655174
210	0x3e8ab694	0.2709242
211	0x3cd4cd8f	0.025976924
212	0x3e8ac012	0.27099663
213	0xbe0a017e	-0.13477132
214	0xbc5ff060	-0.01366815
215	0x3f0a96ea	0.54136527
216	0x3e601025	0.21881159
217	0xbcd989d0	-0.026554972
218	0x3ead53fc	0.33853137
219	0xbe99f483	-0.3006936
220	0xbeb67865	-0.3563873
221	0x3ef68787	0.48150274
222	0x3ed6b595	0.4193541
223	0xbf08f2b8	-0.5349536
224	0x3f02fa7d	0.51163465
225	0x3e90da13	0.28291377
226	0xbd9e814f	-0.077395074
227	0xbe0e48df	-0.13894986
228	0xbe691274	-0.22760946
229	0xbf4cb396	-0.79961526
230	0x3ea483eb	0.32131895
231	0x3ee2cab8	0.44295287
232	0xbe916c92	-0.28403145
233	0x3e91d88e	0.2848553
234	0x3f0c86f8	0.54893446
235	0xbe6fc9c5	-0.23416813
236	0xbed4c24e	-0.41554493
237	0x3d860d18	0.06545466
238	0x3e7d80c4	0.24756151
239	0x3c9f4696	0.019442838
240	0xbce2ac2e	-0.027669992
241	0xbde0c7c2	-0.10975601
242	0x3da21f1f	0.07916092
243	0x3edf769a	0.43645173
244	0xbea6b20e	-0.3255772
245	0xbeb30b80	-0.3496971
246	0x3d799550	0.06093341
247	0xbde42e45	-0.11141638
248	0x3eaca83e	0.3372211
249	0x3db183b8	0.086677015
250	0xbdeb08a3	-0.11476257
251	0xbead7f4b	-0.3388618
252	0xbf127477	-0.5720896
253	0xbeb61261	-0.35560897
254	0x3dc8d34c	0.09805927
255	0xbf2550a2	-0.6457616

bn1.running_var f4 [512]
0	0x3f8865f7	1.0656117
1	0x402abcca	2.6677728
2	0x403cb293	2.9483993
3	0x3fb9603f	1.4482497
4	0x40e2b2f2	7.084344
5	0x40a52234	5.160425
6	0x402e30d0	2.7217293
7	0x40397d2a	2.8982644
8	0x4036399e	2.8472667
9	0x3fd57ffb	1.6679682
10	0x3fa464ac	1.2843223
11	0x3fa2dce2	1.2723658
12	0x4000cf8d	2.012668
13	0x418c69dc	17.55169
14	0x4089d2f8	4.307003
15	0x3fdd109f	1.7270697
16	0x3fc3198e	1.5242174
17	0x400acbdc	2.1686926
18	0x3f887128	1.0659533
19	0x4039c0ca	2.902392
20	0x40066ff7	2.1005838
21	0x406d0cb4	3.7039003
22	0x400acaef	2.168636
23	0x3f998edd	1.1996723
24	0x3ff4377d	1.9079434
25	0x40627411	3.5383341
26	0x3f5666e4	0.8375075
27	0x3fbbd491	1.4674245
28	0x3fc8e3b7	1.5694493
29	0x4050a888	3.2602863
30	0x3fdf0d8d	1.742601
31	0x4020c1cc	2.5118284
32	0x40a84607	5.2585483
33	0x3fccceb7	1.6000584
34	0x3f8a5774	1.0807939
35	0x40371a04	2.8609629
36	0x3fbe1869	1.4851199
37	0x4020ed86	2.5144973
38	0x4081ea71	4.0598683
39	0x40ac3ac7	5.382175
40	0x40947934	4.6397953
41	0x407c84a0	3.9455948
42	0x404644d4	3.097951
43	0x3ff263ae	1.893667
44	0x408d0ed4	4.40806
45	0x3f413cb8	0.75483274
46	0x40d2412a	6.5704546
47	0x40ca12dd	6.3148026
48	0x3f808238	1.003974
49	0x3f82f5e5	1.0231291
50	0x40506f21	3.2567828
51	0x4069314f	3.6436346
52	0x401bb375	2.4328282
53	0x400baea3	2.182534
54	0x4012319b	2.2842777
55	0x40a9c78c	5.3056087
56	0x407126bb	3.767989
57	0x40589666	3.3841796
58	0x3fad2eb6	1.352988
59	0x40d5664e	6.6687384
60	0x4031ad13	2.7761886
61	0x40a7fa2d	5.249289
62	0x40c4cf0a	6.1502733
63	0x3f75f652	0.9607898
64	0x40806f40	4.0135803
65	0x4010d561	2.2630236
66	0x3fa25657	1.2682599
67	0x402f3e66	2.7381835
68	0x3f22919c	0.6350343
69	0x3fdccd43	1.7250141
70	0x3fdf11ba	1.7427285
71	0x3fe08698	1.7541075
72	0x40884b84	4.259218
73	0x408e64ea	4.4498186
74	0x3fe62b14	1.7981896
75	0x3f130b74	0.5743935
76	0x407c9149	3.9463675
77	0x3f5ebf8c	0.8701103
78	0x3f8ea1d0	1.1143131
79	0x3fdd3298	1.7281065
80	0x3fdfaec0	1.7475204
81	0x400cfd7f	2.2029722
82	0x3f8d57b5	1.1042391
83	0x408b2bce	4.3490973
84	0x3fa7aac9	1.3098994
85	0x409a1800	4.8154297
86	0x401c7898	2.4448605
87	0x40205e5b	2.505759
88	0x406a34e7	3.659479
89	0x401f4b3b	2.4889667
90	0x40160514	2.34406
91	0x400f16f7	2.2357767
92	0x40b0e68f	5.5281444
93	0x401d1f06	2.4550185
94	0x3fe5796c	1.792768
95	0x408d4784	4.41498
96	0x40213225	2.5186856
97	0x40cabc65	6.3354974
98	0x402558b7	2.5835397
99	0x3fa1588c	1.2605147
100	0x408148ee	4.0401525
101	0x3fa269b6	1.268851
102	0x4095318d	4.6622987
103	0x3f9be9cc	1.2180724
104	0x405d459f	3.4573743
105	0x3ff51a35	1.9148623
106	0x40cbc0ee	6.367301
107	0x40da13f5	6.814936
108	0x3fe0db63	1.7566952
109	0x3fee6184	1.862351
110	0x402af569	2.6712286
111	0x40624969	3.5357306
112	0x40c252f5	6.0726266
113	0x404613c0	3.0949554
114	0x400f86ac	2.2425947
115	0x40f6a562	7.7076883
116	0x3fe846f2	1.8146651
117	0x409bb16d	4.8654084
118	0x4059938f	3.3996313
119	0x401ea5d7	2.478872
120	0x3f8d9f56	1.106425
121	0x40546f04	3.3192759
122	0x40179acf	2.3688238
123	0x3f2f06bb	0.68369645
124	0x40156436	2.3342414
125	0x3fd5202b	1.6650442
126	0x406b6efa	3.6786485
127	0x405321a1	3.2989275
128	0x3f0f7c56	0.56049097
129	0x405f12bc	3.4855185
130	0x3fa1e25d	1.2647206
131	0x40828dc2	4.0798044
132	0x4031833b	2.7736347
133	0x3f069acf	0.5257997
134	0x400a9349	2.1652396
135	0x3fff4057	1.994151
136	0x3f95eafb	1.1712335
137	0x3f5e7dd9	0.8691078
138	0x3fa8e198	1.3193846
139	0x408e6af7	4.450557
140	0x408cdf34	4.4022465
141	0x3f9c43e2	1.2208216
142	0x3fc51bb5	1.539908
143	0x3f9dbcb1	1.2323209
144	0x3fdcc6d7	1.7248181
145	0x40cb0c78	6.345272
146	0x40cddeea	6.433461
147	0x3f781ec0	0.9692192
148	0x4009654c	2.1468077
149	0x403929b3	2.89317
150	0x40409010	3.0087929
151	0x4068d284	3.6378489
152	0x403a7dbb	2.913924
153	0x40726c50	3.7878609
154	0x401e2f39	2.4716322
155	0x405e6b23	3.475289
156	0x40e11ae4	7.0345325
157	0x400f98ec	2.2437086
158	0x40a0044a	5.0005236
159	0x409a8706	4.8289824
160	0x40a5e3e8	5.1840706
161	0x403bc1d9	2.9337065
162	0x403ab3e8	2.9172306
163	0x3f0fb076	0.56128633
164	0x40487800	3.1323242
165	0x4047affc	3.1201162
166	0x40ff8c48	7.985874
167	0x4024fa4d	2.5777771
168	0x3f79b3c8	0.9753995
169	0x40bf7333	5.9828124
170	0x4035da07	2.8414323
171	0x3fcabdde	1.5839193
172	0x40050545	2.0784466
173	0x40b9e6bf	5.8094172
174	0x40d7b516	6.740855
175	0x402bc99d	2.6841805
176	0x403a1b3e	2.9079127
177	0x3fe331b0	1.7749538
178	0x4053c503	3.3088996
179	0x40423476	3.034452
180	0x40ca6d41	6.3258367
181	0x4011da6f	2.2789571
182	0x3fcd58e3	1.6042751
183	0x410cdded	8.804181
184	0x3fc8dd8e	1.5692613
185	0x4005b80a	2.0893579
186	0x3ff5f129	1.9214221
187	0x40772498	3.8616085
188	0x40abda7c	5.3704205
189	0x403d65dc	2.959342
190	0x3fbefcc8	1.4920893
191	0x3fb437c4	1.4079518
192	0x3fbe7d03	1.48819
193	0x404d139e	3.2043223
194	0x40966b34	4.7005863
195	0x3fe226ae	1.7668054
196	0x4028373a	2.6283708
197	0x3fd8e619	1.694522
198	0x411a2174	9.633167
199	0x40994a1e	4.7902975
200	0x40346565	2.8186886
201	0x40823e5b	4.0701118
202	0x4057e13b	3.373122
203	0x40a0bf44	5.023348
204	0x40a6243a	5.191922
205	0x3fc7d247	1.5611047
206	0x4002f6b9	2.0463088
207	0x4025c3c2	2.590073
208	0x3fabb056	1.3413188
209	0x3fc479b8	1.5349646
210	0x3fe07f44	1.7538838
211	0x3fcaaca0	1.5833931
212	0x3ff211cf	1.8911685
213	0x402517e4	2.5795832
214	0x40d5a1f6	6.6760206
215	0x40a92fa3	5.287065
216	0x3f0ce86e	0.5504216
217	0x404b603b	3.1777484
218	0x4066cee2	3.6063771
219	0x40ae6dc6	5.4509
220	0x40ba5d2d	5.823874
221	0x3fd79a1c	1.6843905
222	0x3fed075f	1.8517874
223	0x3fcd5f39	1.6044685
224	0x40177928	2.3667698
225	0x4084f46c	4.1548367
226	0x411d2239	9.820855
227	0x3fc37673	1.5270523
228	0x407be51d	3.935859
229	0x40d7a400	6.7387695
230	0x4107a8f0	8.4787445
231	0x40079c74	2.1189241
232	0x3f68c4cf	0.90925306
233	0x403a01a0	2.9063492
234	0x40535762	3.3022084
235	0x3f987cb6	1.1913059
236	0x40396e01	2.897339
237	0x3fcdbdb4	1.6073518
238	0x3f88ccd0	1.0687504
239	0x3fc66133	1.5498413
240	0x3fcf5114	1.6196618
241	0x3fe67c27	1.8006638
242	0x4118e649	9.556222
243	0x3fdbc98c	1.7170882
244	0x3fa7e0ee	1.3115518
245	0x3fc92e11	1.5717183
246	0x40c307e5	6.0947137
247	0x40b7949a	5.73689
248	0x40ea0b4e	7.31388
249	0x3f2e27b6	0.68029344
250	0x40ca0c42	6.3139963
251	0x40144b13	2.3170822
252	0x40c25e12	6.073983
253	0x40b229af	5.5675883
254	0x403d6e14	2.9598436
255	0x406575a4	3.5853052

fc2.weight f4 [256, 512]
0	0xbbc59e60	-0.0060308427
1	0x3d0eae54	0.03483422
2	0xbd64413d	-0.05572628
3	0xbc90ce8c	-0.017676614
4	0x3d8f5563	0.06998708
5	0x3dfd22f2	0.12360181
6	0x3d253140	0.04033017
7	0xbd837c93	-0.06420245
8	0x3d63d413	0.05562217
9	0xbc66fade	-0.014097897
10	0x3ce86349	0.028367655
11	0x3d942c54	0.072350174
12	0xbda183a0	-0.078864336
13	0x3d881f0f	0.06646549
14	0x3db069b5	0.08613912
15	0xbd0d313a	-0.034470774
16	0x3b9187f5	0.004441256
17	0xbd1e6969	-0.038674746
18	0xbd540348	-0.05176094
19	0x3dcdf993	0.10057368
20	0xbd8f02db	-0.069829665
21	0xbd286df9	-0.041120503
22	0x3c5dfc8f	0.013548984
23	0xbdaf38a9	-0.08555729
24	0x3d144bd1	0.036205117
25	0xbe41a359	-0.18909968
26	0x3d9c487c	0.07631013
27	0xbc8f8022	-0.017517153
28	0x3b71a7c3	0.0036873675
29	0x3d99e889	0.07515056
30	0x3de2a70b	0.11067017
31	0xbd1f3f86	-0.03887894
32	0x3e13d089	0.14435019
33	0xbbcc6e77	-0.0062387544
34	0xbd881551	-0.06644691
35	0x3d6506a7	0.055914547
36	0x3dd5438c	0.10413274
37	0x3d40f28f	0.047106322
38	0xbd883560	-0.066508055
39	0xbcbc1194	-0.0229576
40	0x3cf24d91	0.029578002
41	0xbdb438bc	-0.08799884
42	0xbb228405	-0.0024797928
43	0x3db20de3	0.08694055
44	0xbd4093dc	-0.04701601
45	0xbae22b1c	-0.0017255279
46	0xbd5ab9b4	-0.053399757
47	0xbbcd395d	-0.0062629418
48	0xbd1831ad	-0.03715675
49	0xbdc08887	-0.094010405
50	0x3d93ecc2	0.07222892
51	0xbcf1b7ef	-0.029506652
52	0xbd3ba393	-0.045810293
53	0x3ca50f5e	0.02014893
54	0x3b021877	0.0019851008
55	0xbdd78edb	-0.105252944
56	0x3d36e9b6	0.044656478
57	0x3d588270	0.05285877
58	0xbca9f225	-0.020745346
59	0x3da2a558	0.07941693
60	0x3c520f19	0.012820982
61	0xbd2bc55b	-0.04193626
62	0xbe18d2d7	-0.14924179
63	0xbca50b92	-0.020147119
64	0xbc24a596	-0.010049244
65	0xbb22dd82	-0.0024851267
66	0x3d0d49a0	0.034494042
67	0xbd9b24bf	-0.07575368
68	0xbd91d262	-0.071202055
69	0x3ab1602a	0.0013532687
70	0x3d9c6e95	0.07638279
71	0xbc4f9cf7	-0.012671701
72	0xbd5278c2	-0.051384695
73	0xbd445e78	-0.047941655
74	0x3dc37a01	0.09544755
75	0xbd8caf4c	-0.06869373
76	0x3b867a7f	0.004103958
77	0x3da60afe	0.08107565
78	0x3d277e20	0.040891767
79	0xbdda92fe	-0.10672568
80	0xbd3dc8c8	-0.046334058
81	0x3bd4878a	0.006485884
82	0xbc20ac17	-0.009806654
83	0xbd9ea98f	-0.077471845
84	0xbd078805	-0.033088703
85	0x3dc4b6d5	0.09605185
86	0x3bf9a015	0.00761796
87	0x3d5aaccb	0.053387444
88	0x3ce2d707	0.027690424
89	0x3d01d79d	0.031699765
90	0x3dedcdb4	0.116115004
91	0xbcdbce0f	-0.026831655
92	0x3ce90aa6	0.02844746
93	0xbdd68a23	-0.10475566
94	0xbd5200d6	-0.05127033
95	0xbd0499d1	-0.032373253
96	0xbd5ae66a	-0.053442396
97	0xba8d79d9	-0.001079376
98	0x3d251e56	0.040312134
99	0x3d5b096e	0.05347579
100	0xbd33570b	-0.043784183
101	0xbc964aca	-0.01834621
102	0x3d7c94fa	0.061665513
103	0xbdde2642	-0.10847141
104	0xbd861a92	-0.06548037
105	0x3d32b153	0.04362614
106	0x3c83073e	0.015994664
107	0xbd34b613	-0.044118952
108	0xbb9bf336	-0.0047592176
109	0x3bf0050f	0.007324822
110	0x3c62c490	0.013840809
111	0xbd58d914	-0.052941397
112	0x3db0139a	0.08597489
113	0x3d2baf06	0.041914962
114	0xbdd73723	-0.10508563
115	0xbd45c971	-0.048287813
116	0x3d60ef16	0.05491551
117	0xbd556eda	-0.05210767
118	0x3df1e780	0.11811733
119	0xbb210868	-0.002457166
120	0xbcaf9cf9	-0.021437155
121	0xbdb81be8	-0.08989698
122	0x3de3436a	0.110968426
123	0xbac3a4e5	-0.0014926462
124	0xbd6507bb	-0.055915575
125	0xbba86e28	-0.005140085
126	0x3d3f1209	0.04664806
127	0x3e047843	0.12936501
128	0xbd2b2886	-0.041786693
129	0xbd26d7de	-0.04073321
130	0xbbd6fa00	-0.006560564
131	0x3cf1386b	0.029445847
132	0x3d4fb03c	0.05070518
133	0xbd1a65c9	-0.037694726
134	0xbdd5239d	-0.10407183
135	0xbd7b2a39	-0.061319564
136	0xbd3985d3	-0.04529364
137	0x3d19f0c6	0.037583135
138	0x3c4915e4	0.012273286
139	0x3c5359c5	0.012899821
140	0xbc2711dc	-0.010197129
141	0xbdd24455	-0.102669396
142	0x3d87fd44	0.066401035
143	0xbd9c1ec5	-0.07623056
144	0x3c98af15	0.018638173
145	0x3d49469b	0.0491396
146	0x3e1f7df9	0.15575399
147	0x3c830ffa	0.01599883
148	0x3c8ade7e	0.016951796
149	0x3d9d5cb4	0.07683697
150	0x3c7ca1d9	0.015419447
151	0xbe198c22	-0.14994863
152	0x3d77f8b5	0.06053992
153	0x3b9005dc	0.0043952297
154	0xbcfcbc13	-0.0308514
155	0x3d852f0c	0.06503114
156	0x3d71d758	0.05904326
157	0xbc887aeb	-0.016660174
158	0xbcdfcb64	-0.027318664
159	0xbd4915ef	-0.049093183
160	0xbd834408	-0.0640946
161	0xbdda949a	-0.10672875
162	0xbd531d0e	-0.05154138
163	0xbda59d6f	-0.08086669
164	0x3d20656e	0.03915923
165	0x3d640366	0.055667304
166	0xbd4baeb0	-0.04972714
167	0x3e0d5444	0.13801676
168	0xbd33f3a1	-0.043933515
169	0x3ce33ed3	0.027739918
170	0xbbba1c74	-0.0056796614
171	0xbd1da166	-0.038484
172	0xbced0257	-0.02893178
173	0xbcb8cb46	-0.022557866
174	0xbdb148d3	-0.08656468
175	0xbdba324d	-0.09091625
176	0x3d0a6bf3	0.033794355
177	0x3d04b4ec	0.032399103
178	0xbda54e3c	-0.08071563
179	0x3e0b354d	0.13594551
180	0xbd34a4e1	-0.044102553
181	0x3c870432	0.016481493
182	0xbcc3a18a	-0.023880739
183	0x3daaabee	0.08333574
184	0xbd781606	-0.06056788
185	0xbcb2225f	-0.021744905
186	0xbd785698	-0.060629457
187	0xbc3ab4b3	-0.011395621
188	0xbd1870fc	-0.037217125
189	0xbcaedd05	-0.021345625
190	0x3d30b9e3	0.043146025
191	0xbd0e1ee3	-0.034697425
192	0xbd8fa89e	-0.07014583
193	0xbe09b1d3	-0.13446741
194	0x3ddbc45a	0.107308105
195	0x3d4c9dbd	0.04995512
196	0xbcc7a344	-0.024369843
197	0xbdcc6d3d	-0.09981773
198	0xbd98401e	-0.074341044
199	0xbd75e729	-0.060034905
200	0x3d396e61	0.04527128
201	0xbccb0b3e	-0.024785634
202	0x3d7f0309	0.062258754
203	0x3d4a3e99	0.049376104
204	0x3d4fb7df	0.050712463
205	0xbcc1b556	-0.023646038
206	0xbba02926	-0.004887718
207	0x3ded17dd	0.11576817
208	0xbc4b1e10	-0.012397304
209	0xbcb7c52d	-0.022432888
210	0xbcb177fc	-0.021663658
211	0xbd20704a	-0.039169587
212	0xbb243007	-0.002505304
213	0x3def5f0a	0.11688049
214	0x3d5c1882	0.05373431
215	0xbc4a9e21	-0.012366802
216	0x3d32e1a7	0.04367223
217	0xbd3fc73d	-0.046820868
218	0xbc87be66	-0.016570281
219	0x3d5e6fa6	0.054305695
220	0x3cf0c139	0.02938901
221	0xbca072c3	-0.019585973
222	0x3d91128a	0.07083614
223	0x3d1528e1	0.03641594
224	0x3da6b6c6	0.0814033
225	0x3d276d17	0.04087552
226	0x3d229b78	0.039699048
227	0xbca2ad99	-0.019858168
228	0xbc71d032	-0.01475911
229	0x3c33c399	0.010971927
230	0x3da9ee05	0.08297352
231	0xbd33c799	-0.043891523
232	0xbcbca0e6	-0.023025941
233	0x3c2b43ea	0.010453204
234	0xbe185cb8	-0.1487912
235	0xbd2805d1	-0.041021172
236	0x3caa4b18	0.02078776
237	0x3e0db07e	0.13836858
238	0xbd2b2827	-0.04178634
239	0x3cad3df4	0.021147706
240	0xbdcc84d9	-0.09986276
241	0xbdf0fb51	-0.11766685
242	0xbbb7986f	-0.0056028883
243	0xbbd5e88d	-0.0065279664
244	0xbe08cc4c	-0.13359183
245	0xbd9ed14b	-0.07754763
246	0x3d6660af	0.05624455
247	0x3c9a4a48	0.018834248
248	0xbe1e3d4a	-0.15453067
249	0x3d3068d5	0.043068726
250	0x3bccca7e	0.006249725
251	0x3d6a0bb7	0.05714008
252	0x3833f8be	4.2908585e-05
253	0xbda4d6d3	-0.08048787
254	0xbd9af145	-0.0756555
255	0xbd9c90ab	-0.07644781
