models/best_supervised_model.pth (torch, 62068 bytes, 20 tensors)

input_layer.weight f4 [128, 16]
000000 68 14 4e 3f fb 05 53 3f c2 a1 25 3f 89 36 5c 3f
       0.8049989 0.82431 0.6469995 0.86020714
000010 70 4d 0a 3b fc 4a 0e 3f d3 83 13 3f f9 6a 36 3f
       0.0021103285 0.5558317 0.5762302 0.7125698
000020 3b 7e 81 3d 48 93 78 be 5b 27 1f 3e a3 c9 53 3d
       0.06322905 -0.24274933 0.15542357 0.051705968
000030 69 de 46 3f 78 fc 0b 3f 44 04 a8 3c fc 5a 3c bc
       0.7768312 0.5468211 0.020509847 -0.011496302
000040 eb 30 ad be 6a 63 b7 be c7 e7 fa be 69 8d c7 be
       -0.33826384 -0.35818034 -0.49004957 -0.38975075
000050 8c ee 11 3e f8 00 b1 be 04 54 df be f6 45 9d be
       0.14251155 -0.34571052 -0.43618786 -0.30717438
000060 48 b2 ce bd 75 59 ce bd 9c 1d 7d bd 07 40 21 be
       -0.10092598 -0.10075656 -0.061795816 -0.1574708
000070 3b a6 ad be 56 ac f7 be 5b a7 c0 3e 36 ef 88 bd
       -0.33915886 -0.4837367 0.37627682 -0.06686251
000080 d6 ce dd 3e 40 01 b4 3e ec 16 8f 3e 64 89 d6 3e
       0.43321866 0.35157204 0.27947176 0.41901696
000090 a2 d3 d3 3b 93 fd b7 3e eb 20 b4 3e 1c a4 7c 3e
       0.0064644376 0.3593565 0.35181364 0.24671978
0000a0 00 ca 6a 3d e7 46 c0 bd 92 86 af 3d 46 10 48 3e
       0.05732155 -0.093885235 0.08570589 0.19537458
0000b0 66 f4 bc 3e 6a a1 86 3e 1e 12 41 3e 00 17 83 3d
       0.3690521 0.26295024 0.18854567 0.06400871
0000c0 e0 c4 3c 3a bf 41 e8 bd 8b 46 cb be 8b 47 3a be
       0.00072009675 -0.11340665 -0.39702258 -0.18191354
0000d0 40 28 7f bc f2 e0 34 3d 88 07 27 bd f7 8c a7 bc
       -0.015573561 0.044159837 -0.040778667 -0.02045296
0000e0 61 73 66 3e bc 68 a9 bd bb 8f 9a 3d a4 37 08 be
       0.22504951 -0.082719296 0.07546946 -0.13302475
0000f0 3d ce bd bd 51 cd 38 be 17 cd b1 3d 3b f0 24 be
       -0.092678525 -0.18047072 0.08681696 -0.16107266
000100 8f 7c 29 be ab ca 41 be 1a 45 08 be 95 cf 81 be
       -0.16551422 -0.18924968 -0.1330761 -0.25353685
000110 40 83 a1 3c 76 56 5a be 18 4a 18 be 68 54 0c be
       0.019715905 -0.21322045 -0.14872015 -0.13704073
000120 78 e0 af 3e 11 ab a1 bd 13 44 08 be 4f 71 27 be
       0.34350944 -0.078939565 -0.13307218 -0.16351818
000130 03 ec 89 be ba d1 fd bd 4e c5 6f 3e aa 2c 56 3e
       -0.26937875 -0.12393518 0.2341511 0.20915475
000140 09 e8 9e 3d 5c a0 dc 3d 1c c8 26 3e a4 41 ad 3d
       0.07759101 0.107727736 0.16287273 0.084597856
000150 5c 5e b7 3c 8e bf 9f 3d 9e 93 46 3e 35 41 cd 3c
       0.022383861 0.07800208 0.19392249 0.025055507
000160 48 f2 77 be 19 c4 18 3d 64 a5 c1 bb ba 0e 82 bc
       -0.24213517 0.03729639 -0.0059096087 -0.015876163
000170 08 6f 1b 3e e5 ad 6b 3e 65 86 12 bd c3 b2 60 be
       0.15179074 0.23015554 -0.0357727 -0.21943192
000180 a4 33 c9 be a4 12 0c bf 08 1f 27 bf 4d cd 34 bf
       -0.3929721 -0.54715943 -0.65281725 -0.70625764
000190 81 b1 ee 3d 79 8c a3 be d5 ee 03 bf 91 52 08 bf
       0.1165495 -0.3194311 -0.51536304 -0.53250986
0001a0 7e 0d a0 bd 31 53 37 3d 51 e7 94 bd 78 d4 8b bd
       -0.078150734 0.044757072 -0.072706826 -0.068276346
0001b0 b0 2d 23 bf 89 3d f8 be d4 6b 94 3e a1 ad 2a bd
       -0.6374159 -0.48484448 0.28988516 -0.04166949
0001c0 b3 a0 db 3d 4a 58 00 3c 12 97 cb 3a a7 09 3e 3d
       0.1072401 0.00783355 0.0015532693 0.046395924
0001d0 35 e5 65 be 8f bf ea bc 4d e8 aa 3c ed 42 b8 3b
       -0.22450717 -0.028655795 0.020862723 0.0056232125
0001e0 8a 49 f8 bc cf 25 99 bd 0c 7f 18 bd a0 be 61 bd
       -0.030308504 -0.074779145 -0.037230536 -0.055113435
0001f0 0d 92 29 bd 16 3d 7e 3c 90 be d5 bd c2 90 91 be
       -0.04139905 0.015517494 -0.104367375 -0.28430754
000200 d4 e5 7d be db 52 93 be 21 62 9d be b5 62 9b be
       -0.24794704 -0.2877415 -0.3073893 -0.30348745
000210 11 de de 3d 3e f0 3d be 61 2a ac be 7c ae 9c be
       0.108821996 -0.18548676 -0.33626083 -0.3060187
000220 e7 02 51 be 17 71 39 be a7 a7 17 3e af e5 d2 bd
       -0.20411263 -0.18109547 0.14810048 -0.10297715
000230 a0 3f 46 be 04 e4 cc be 69 09 70 3e 29 f7 10 be
       -0.19360209 -0.40017712 0.2344109 -0.14156784
000240 75 ad 27 be c1 f4 a3 bd 3c a3 9c bd 9f 5b 0a bd
       -0.16374762 -0.080056675 -0.07648322 -0.033778783
000250 ad 86 fe bd ca 7d 82 be 5f a7 0f be 48 ab 49 be
       -0.12428031 -0.25486594 -0.14028691 -0.19694245
000260 dc a6 f5 3d ce 64 41 be fb 47 69 3e 32 87 3b be
       0.119947165 -0.1888611 0.22781365 -0.18313292
000270 eb 4e 48 3e 64 d0 9f be a2 15 0f 3e 17 56 09 be
       0.19561355 -0.31213677 0.13973096 -0.13411747
000280 3c 96 f7 be e0 75 19 bf 74 e5 26 bf 7c 16 59 bf
       -0.48356807 -0.5994549 -0.6519387 -0.84799933
000290 51 60 52 3d df aa 1f bf c5 c2 53 bf 64 98 f1 be
       0.051361386 -0.62370104 -0.8271907 -0.47186577
0002a0 61 16 f4 3d 2c 0e b0 bc 97 89 23 3d dd 76 84 bd
       0.11918331 -0.021491133 0.039926138 -0.06467984
0002b0 e7 90 dd be 97 9d 21 bf df a7 ca bd 43 dd cf bc
       -0.43274614 -0.6313109 -0.098953 -0.02537406
0002c0 08 83 ec 3e 7e 1e 1c 3f 0a d9 33 3f 2d e9 e6 3e
       0.4619372 0.6098403 0.7025305 0.45099774
0002d0 e1 20 4a bc 6c 3f 0f 3f f9 d8 0e 3f c5 73 fa 3e
       -0.0123369405 0.5595615 0.55799824 0.4891645
0002e0 2a f8 c0 3d bb ba d4 3d 74 cb a7 3d 11 26 a1 bd
       0.094223335 0.103871785 0.081931025 -0.07868589
0002f0 24 21 fb 3e 03 98 de 3e 42 ed 3d bd f1 6a 03 39
       0.49048722 0.4347535 -0.046368845 0.00012532972
000300 42 8a 3c 3d 12 3d 0c 3e c8 97 af bd 8b d0 42 bd
       0.04603029 0.13695171 -0.08573872 -0.047562163
000310 b0 ec 34 bc 52 83 99 bc 2b ea a5 3b 17 ba 1e 3c
       -0.011042759 -0.018739376 0.0050633154 0.009687922
000320 bd 60 ba be d7 ea 13 be d4 ae 2e 3e c9 c7 2e 3d
       -0.3640193 -0.14445053 0.17058879 0.042671
000330 6f b8 aa bd 79 ba 15 bd bc 45 f4 bc e1 6d 57 be
       -0.08335959 -0.036554787 -0.029818408 -0.21038009
000340 17 b2 17 3e 53 7e 8b 3e b3 78 b4 3e 41 b5 9c 3e
       0.1481403 0.27244815 0.35248336 0.30607036
000350 f0 52 9d bc 49 b0 50 3b 43 84 ab 3d 01 be a2 3e
       -0.019204587 0.0031843355 0.08374836 0.31785586
000360 e3 90 8e 3d 5e 2d c0 3d 90 5c 47 3e 7d 7c 17 3d
       0.06961229 0.09383653 0.19468904 0.036983956
000370 ce eb 33 bc 48 45 82 3e 53 8e 02 be 29 60 b9 bc
       -0.010981513 0.25443482 -0.12749605 -0.02262886
000380 96 60 a8 3d c4 67 4d 3e 60 da 5f 3e ca 83 33 3e
       0.08221547 0.20059115 0.21860647 0.17530742
000390 8f 3b 33 be bb 7a 46 3d 13 86 bf 3d 85 28 49 3e
       -0.17503189 0.04845689 0.093517445 0.19644363
0003a0 06 fa 01 3e a7 5b eb 3d a7 ad 86 3d 26 18 8c 3c
       0.12693033 0.11492091 0.0657609 0.017101359
0003b0 9b 39 2f 3e 43 5b 87 3d d1 ea 45 be 4c f6 9a be
       0.17111818 0.06609204 -0.19327857 -0.30266035
0003c0 2d b3 56 3e 34 3f b9 3d fc 73 27 3e d0 b9 c6 3d
       0.20966788 0.09045258 0.16352838 0.0970341
0003d0 8d 7e f9 bd d1 1b ce 3d 66 cd 13 3e 77 41 49 3e
       -0.12182341 0.10063899 0.14433822 0.19653879
0003e0 60 92 ee bd f6 50 c8 3d 3e 0c 21 be cc 2c 04 be
       -0.116490126 0.09781067 -0.15727326 -0.12907714
0003f0 01 d1 d8 3d 65 bb c6 3d a9 5e dc bc 5a 3b 9c be
       0.10586739 0.097037114 -0.026900606 -0.30514032

input_layer.bias f4 [128]
000000 78 d4 27 bb 3a 91 fa 38 a2 18 85 38 08 eb b8 38
       -0.002560882 0.000119479795 6.3465224e-05 8.817582e-05
000010 b5 30 05 b8 52 32 86 b7 0c 76 69 39 68 48 c7 36
       -3.1755033e-05 -1.5997477e-05 0.00022264587 5.9390914e-06
000020 b6 29 67 b8 50 0d 3c b8 d9 44 f2 b9 8e 9b f5 b7
       -5.5113538e-05 -4.483509e-05 -0.00046209132 -2.9278712e-05
000030 ac 55 31 38 5e ce b6 38 d6 9f cd 37 da 36 2d 38
       4.2279877e-05 8.716875e-05 2.4512334e-05 4.12975e-05
000040 94 76 6a b8 60 ec 74 38 40 8d 65 37 6e ce 4c 39
       -5.5900382e-05 5.8394275e-05 1.3682351e-05 0.00019531857
000050 f8 ee cc 37 11 fc 99 38 cc 09 91 b8 7c e1 ef b7
       2.4429974e-05 7.3425595e-05 -6.9159636e-05 -2.859602e-05
000060 09 da 65 b7 93 91 4b 39 0e 5a 30 b8 b2 99 96 38
       -1.3700229e-05 0.00019413819 -4.204554e-05 7.181185e-05
000070 40 bc 30 37 b0 3d 0b 38 2e c2 c6 b7 82 2f b5 38
       1.0534248e-05 3.3197633e-05 -2.3693861e-05 8.6396016e-05
000080 b6 10 0e 39 08 5b 2b 38 35 4b 51 38 60 85 45 b6
       0.000135484 4.0854356e-05 4.9899525e-05 -2.9432922e-06
000090 40 e7 7f b7 11 f3 b1 39 c2 53 d5 36 34 4b ee b8
       -1.52530265e-05 0.0003394117 6.3576454e-06 -0.00011362732
0000a0 44 63 a1 36 8d 2a 68 b9 9a cf af b9 7c 54 a5 b8
       4.80973e-06 -0.00022141096 -0.00033533276 -7.8835496e-05
0000b0 74 39 79 b7 70 a5 f0 35 8e 9f 13 b8 fd e7 f2 b6
       -1.4854933e-05 1.7929542e-06 -3.5196128e-05 -7.239169e-06
0000c0 40 57 c1 38 90 20 d2 36 8b d4 d9 b9 7c f0 42 39
       9.219209e-05 6.2622785e-06 -0.00041547822 0.00018590869
0000d0 ff 49 f4 39 18 9b 02 b7 ed d9 4c b8 03 ed 99 38
       0.00046594438 -7.784714e-06 -4.884035e-05 7.3397554e-05
0000e0 a5 38 81 b8 ca 2e ee b7 a9 a6 92 b7 a7 3d 6b b8
       -6.16175e-05 -2.8393599e-05 -1.7482163e-05 -5.6085784e-05
0000f0 8c 6a 64 b9 2c c4 79 37 1c ec 23 3b 5c d2 14 b9
       -0.00021783466 1.4887231e-05 0.0025012558 -0.00014192745
000100 a0 50 a8 b8 ea c4 8f b9 98 c2 32 b8 69 c2 87 39
       -8.025882e-05 -0.00027421798 -4.2619737e-05 0.00025894053
000110 8a 0a b9 38 f1 a9 25 38 68 41 c0 37 b6 01 c8 b7
       8.8234505e-05 3.9497336e-05 2.291864e-05 -2.3842655e-05
000120 aa a0 82 38 ee 79 4f b8 1b 48 e8 b6 24 33 aa b6
       6.228809e-05 -4.94662e-05 -6.922533e-06 -5.0723484e-06
000130 94 cc d7 b6 6b 43 0f 39 81 5d f4 b7 d0 3d f8 b4
       -6.4313153e-06 0.00013662658 -2.9130608e-05 -4.6238574e-07
000140 80 9e 7d 35 c0 e3 3e b7 fa ed 0a 38 6f 45 63 b9
       9.448049e-07 -1.137791e-05 3.3123397e-05 -0.00021674273
000150 c2 2f 51 b8 0b 29 1a 38 1b 8b 5e 38 b8 b7 fd 38
       -4.987396e-05 3.6754685e-05 5.3058477e-05 0.000120982004
000160 e6 dc 12 b8 0e 33 0f b7 3e f3 ac b7 36 e3 24 3b
       -3.501484e-05 -8.535351e-06 -2.0617266e-05 0.0025159842
000170 2d 23 44 37 6a 00 05 b8 a0 56 e2 37 37 e0 35 38
       1.16907e-05 -3.1710057e-05 2.6981637e-05 4.336258e-05
000180 d2 66 8f b8 33 4a 1d b7 a4 26 a6 b7 99 e8 7b b7
       -6.837923e-05 -9.375205e-06 -1.9806736e-05 -1.5014922e-05
000190 00 bd 00 b7 6a 80 26 b9 d6 8f e7 38 d2 7a a4 36
       -7.6733995e-06 -0.00015878832 0.0001104173 4.901879e-06
0001a0 37 d8 4e b9 a8 40 fb b7 b4 0b 02 38 ea 8d 85 38
       -0.00019726237 -2.995164e-05 3.1005315e-05 6.368368e-05
0001b0 63 3d 68 38 30 74 df 37 50 c9 94 b8 4a fd 37 39
       5.537028e-05 2.6637776e-05 -7.094687e-05 0.00017546598
0001c0 fc 71 1e b7 dc 4e bd b7 8a cf 1f b9 7a f0 60 b7
       -9.444073e-06 -2.2567277e-05 -0.00015240736 -1.3407431e-05
0001d0 e3 5b 87 b7 0d df bd b8 3c 4d 56 b8 82 9c e0 b7
       -1.6136042e-05 -9.053769e-05 -5.1093506e-05 -2.677576e-05
0001e0 77 bc 90 37 6c aa ac b6 90 0a e1 b5 ee 41 36 39
       1.7253898e-05 -5.145839e-06 -1.676688e-06 0.00017381433
0001f0 56 be 05 b9 e6 86 e3 b7 6e 26 90 b6 37 12 66 b7
       -0.00012754774 -2.7123326e-05 -4.2960082e-06 -1.3713309e-05

bn1.weight f4 [128]
000000 22 42 91 3f 53 7a 73 3f 52 16 51 3f a3 7e 97 3f
       1.1348307 0.95108527 0.81674683 1.1835521
000010 86 3a 68 3f 58 4b 69 3f 8b 91 69 3f 20 a7 43 3f
       0.907143 0.9113059 0.91237706 0.7642689
000020 7e a2 65 3f 23 54 60 3f 2f e9 90 3f 12 a3 6c 3f
       0.8970107 0.8762838 1.1321162 0.92436326
000030 f9 b0 5a 3f a3 b1 53 3f 7f 4c 51 3f 14 25 5c 3f
       0.8542629 0.8269293 0.8175735 0.85994077
000040 c4 b8 78 3f 0a 68 79 3f c5 d3 82 3f b6 d2 8d 3f
       0.9715693 0.97424376 1.0220877 1.1079929
000050 22 1f 73 3f a6 dc 58 3f 8f 0b 78 3f b3 ba 53 3f
       0.9496938 0.8471168 0.96892637 0.82706755
000060 36 ab 80 3f 83 c8 81 3f 69 62 7a 3f 65 2d 68 3f
       1.005225 1.0139316 0.9780641 0.90694267
000070 05 36 72 3f 69 b1 56 3f c9 0b 56 3f c8 27 90 3f
       0.9461368 0.83864456 0.8361173 1.126214
000080 16 6b 58 3f 34 a2 59 3f ea a0 6c 3f 37 74 79 3f
       0.845384 0.8501313 0.92433035 0.97442955
000090 d0 9b 4b 3f e8 be 9f 3f 60 1a 50 3f 4d e9 6d 3f
       0.79534626 1.2480135 0.81290245 0.92934114
0000a0 22 59 35 3f 1d d5 52 3f 30 36 64 3f 36 68 6b 3f
       0.7083913 0.82356435 0.89145184 0.9195589
0000b0 cf aa 44 3f be 6c 44 3f c8 30 49 3f 6f c0 55 3f
       0.76823133 0.7672843 0.7859006 0.83496755
0000c0 09 5c 6e 3f 73 5e 83 3f 91 15 6c 3f c3 e9 63 3f
       0.93109185 1.0263199 0.9222041 0.8902857
0000d0 b8 8a 7d 3f 78 d8 46 3f 17 81 73 3f 3d bd 6c 3f
       0.99039793 0.77674055 0.9511885 0.92476255
0000e0 84 83 43 3f fa 95 4b 3f 72 0d 50 3f c4 66 51 3f
       0.7637255 0.7952572 0.81270516 0.8179743
0000f0 9f 29 73 3f db b5 51 3f 77 89 b3 3f e1 70 84 3f
       0.94985384 0.81918114 1.4026326 1.0346948
000100 60 78 7f 3f 14 74 60 3f c0 db 6f 3f 4f c0 7f 3f
       0.9979305 0.8767712 0.93694687 0.99902815
000110 83 cb 68 3f b1 53 52 3f 5b 2e 4c 3f 85 cc 45 3f
       0.90935534 0.8215895 0.7975823 0.772652
000120 d3 17 73 3f f9 ba 5b 3f 6f 1d 86 3f 36 74 43 3f
       0.9495823 0.8583217 1.0477732 0.763492
000130 39 b8 5b 3f 37 ac 6d 3f ff 11 5e 3f a7 64 6a 3f
       0.85827976 0.92840904 0.8674621 0.91559833
000140 38 ff 73 3f d1 45 53 3f a7 37 4e 3f d9 b4 7b 3f
       0.9531131 0.82528406 0.8055367 0.98322827
000150 1d 16 4d 3f a9 96 4d 3f 09 da 50 3f 58 2d 61 3f
       0.8011187 0.80308014 0.81582695 0.87959814
000160 88 27 77 3f 11 0b 69 3f 38 8a 57 3f 25 bc 8e 3f
       0.96544695 0.9103251 0.8419528 1.1151167
000170 fe ac 51 3f 15 39 5b 3f b5 ef 40 3f 74 77 72 3f
       0.8190459 0.85633975 0.75365764 0.9471352
000180 f4 b0 61 3f fc 97 66 3f 23 bf 52 3f 62 d8 61 3f
       0.88160634 0.9007566 0.823229 0.882208
000190 2e d5 4c 3f da b3 90 3f 2e fa 79 3f bb f3 76 3f
       0.80012786 1.1304886 0.9764737 0.96465653
0001a0 e3 eb 8a 3f 10 80 5b 3f 94 ad 73 3f fb 89 6e 3f
       1.0853237 0.8574228 0.95186734 0.9317929
0001b0 bd 14 4a 3f cf 5c 4f 3f c8 4c 41 3f 1f 4c 7a 3f
       0.78937894 0.8100099 0.75507784 0.977724
0001c0 cf 36 5e 3f b7 86 63 3f 65 54 6e 3f 2c e4 72 3f
       0.8680238 0.88877434 0.93097526 0.9487941
0001d0 64 88 43 3f 65 b9 68 3f 4a a0 7c 3f fc f9 50 3f
       0.7637999 0.9090789 0.9868208 0.81631446
0001e0 fc 2c 7b 3f 1e 21 4c 3f d0 b1 5d 3f b5 21 50 3f
       0.98115516 0.7973803 0.86599445 0.8130143
0001f0 00 e2 89 3f 82 a8 78 3f ef 14 6a 3f 23 26 57 3f
       1.0772095 0.9713212 0.9143819 0.84042567

bn1.bias f4 [128]
000000 7b 47 5c 3e 82 69 38 be d5 c1 95 bd 65 0f 11 bf
       0.21511643 -0.18008998 -0.07312361 -0.56664115
000010 73 ce 77 be 43 61 03 bf 7c ba b7 be 8f 33 dd be
       -0.24199848 -0.51320285 -0.35884464 -0.432034
000020 1c a2 13 bf 7d f9 c3 be 31 d2 3e be 86 f4 45 bd
       -0.57669234 -0.38276282 -0.18634869 -0.0483289
000030 28 c1 0b bf 89 5c c3 3c 65 64 04 be 30 d9 37 3e
       -0.5459161 0.023847835 -0.12928922 0.17953944
000040 43 a5 58 bf b1 bc 57 3e 53 49 88 be 1b 94 55 3d
       -0.8462717 0.21068074 -0.26618442 0.052143198
000050 e9 44 ce 3c 45 5b 9f 3d 0e f9 88 be 13 1c a5 bd
       0.025179343 0.0778108 -0.26752514 -0.08061995
000060 5b 76 9c be ee eb 12 bf 40 d1 72 3e 0e 12 41 3e
       -0.30559048 -0.5739125 0.23712635 0.18854544
000070 1f b9 f5 be df 3d 34 3d 2e e5 c5 be 86 bb 2d bf
       -0.479928 0.044004317 -0.38651413 -0.67864263
000080 f2 18 93 be e9 5d ad 3e 4d 18 56 3d 0b 5b 08 be
       -0.2872997 0.3386071 0.05226927 -0.1331598
000090 32 18 85 3e 48 69 37 bc 16 3e 25 be b8 8c 91 bd
       0.25995022 -0.011194535 -0.16136965 -0.07106918
0000a0 6c 7b 35 be 66 55 42 be 6e 6b 8b 3c 38 20 37 3d
       -0.17722863 -0.1897789 0.017019 0.04470846
0000b0 f7 98 9a be 4a 77 0b be 55 d3 4e bd f9 e0 a6 bd
       -0.30194828 -0.13619724 -0.05049451 -0.08148379
0000c0 c8 22 5b be d3 4a 81 3e 5a 13 4f be 88 35 41 3d
       -0.21399987 0.252524 -0.20222226 0.047170192
0000d0 d5 f4 ea be 64 42 b4 be 82 9a 07 be 2a ce 2c 3d
       -0.45889917 -0.35206902 -0.13242534 0.0421888
0000e0 17 98 6c 3e 15 c1 4b bd 62 17 14 bd bf 2f 24 bd
       0.23104893 -0.049744684 -0.036155112 -0.040084597
0000f0 76 82 da be 89 58 97 bc 46 b8 c8 bd eb 9e 63 3e
       -0.4267766 -0.018474834 -0.09800772 0.22228591
000100 d5 6c 06 be 04 c4 96 bd db 92 a0 3e 2a 91 b0 be
       -0.13127454 -0.07361606 0.31362042 -0.3448575
000110 61 a4 36 3e 59 f6 75 bb 2d 16 f9 bc 15 60 77 be
       0.17836143 -0.0037530868 -0.030406082 -0.24157746
000120 d4 2c ac 3d 6f ce d1 3c 0d 0f dc bd 99 1f c1 3d
       0.08406988 0.02561113 -0.10745058 0.09429855
000130 a3 7a 0e 3d ad 3d fc 3d bd c3 cd 3d d4 e2 bb 3d
       0.034784924 0.12316451 0.100471 0.091741234
000140 00 76 11 be 70 69 8f bc 7d 42 81 3d c5 a2 e6 bd
       -0.1420517 -0.017506331 0.0631151 -0.112615146
000150 34 cd bd 3c da 71 4b bc 4d 55 11 be 65 e8 30 be
       0.023169138 -0.012417281 -0.14192696 -0.17276151
000160 6b 9d 0d bf fa 68 0e 3e db 0d bc be 0b 3e 42 3d
       -0.55318326 0.13907233 -0.3672932 0.04742245
000170 d6 35 c1 be f2 85 10 bd e2 17 95 be 41 8a 25 bf
       -0.37736386 -0.03528399 -0.29119784 -0.64664084
000180 6e 6a 2e be 85 85 8e be 8d 33 4f 3d 0d 7c 58 3d
       -0.17032787 -0.27836242 0.050586272 0.05285268
000190 2f 2c 82 bd 4f b7 46 be 82 6d dd bd b8 4e 3d 3d
       -0.063560836 -0.19405864 -0.108119026 0.04621765
0001a0 e3 59 f1 3d 14 da 7d be 53 19 be bd 3e 1f 39 bf
       0.11784723 -0.24790221 -0.09282174 -0.72313297
0001b0 78 42 13 be 56 6b 96 3d 7d 2c e2 bd 1b 46 5c bf
       -0.14380825 0.073446915 -0.11043642 -0.8604447
0001c0 9c 7d a1 3d 4c 5d d2 bd 65 96 f7 be e5 57 33 3e
       0.07885286 -0.10271701 -0.4835693 0.17513998
0001d0 4f 2c 27 be 39 a3 21 3c 78 d9 dd 3d 3d a8 29 be
       -0.16325496 0.0098655755 0.108324945 -0.16568084
0001e0 85 31 86 be 40 8a 94 3a a0 2b 28 bd ba a8 91 3e
       -0.26209655 0.0011332706 -0.04105723 0.2844904
0001f0 a7 68 23 3c 63 08 5e bf 92 13 e6 bd 18 5e 8f be
       0.0099736815 -0.8673155 -0.112342015 -0.28001475

bn1.running_mean f4 [128]
000000 b6 41 4f c0 31 4b 37 40 e8 10 a6 bf a3 d1 0e 3f
       -3.2383857 2.8639643 -1.2973909 0.5578863
000010 cc 5a a1 3f da 0b 0c bf cf 23 52 40 7f 7c 4c bf
       1.2605834 -0.54705584 3.2834356 -0.79877466
000020 6d bb 01 40 14 04 cc 3e c9 86 38 40 e8 07 28 c0
       2.0270646 0.3984686 2.8832266 -2.6254826
000030 54 8c 8f bb ac 34 a1 bf ae ff be bf e2 5c 72 bf
       -0.004380742 -1.2594199 -1.4921777 -0.9467298
000040 fa 9f 5e 3f af 42 c9 bf bb 98 33 40 8b 4e 6b c0
       0.86962855 -1.5723475 2.806197 -3.676669
000050 b2 49 3a bf ac 9a 47 3f c2 1b 9d 3f fa de 2d 3f
       -0.727687 0.77970386 1.2274096 0.6791836
000060 8d 0a d3 be cd ab 88 3f 65 28 43 be e4 08 09 bf
       -0.41218987 1.067743 -0.19058378 -0.5352919
000070 6d 66 bf be 6a 7d 2d be 6b 6b df bf fa cd 8d be
       -0.37382832 -0.16942373 -1.7454656 -0.2769621
000080 67 06 d3 bd 81 35 fd be 7c fb bf be 5d 91 8f 3f
       -0.103039555 -0.49454883 -0.37496555 1.1216236
000090 38 1f 52 bf 7f 2b 74 40 51 65 8b 3f 1e 05 e9 bf
       -0.82078886 3.8151548 1.0890294 -1.8204687
0000a0 33 26 37 be a8 8e e2 bf 96 20 1c c0 68 e3 9e 3e
       -0.17885666 -1.7699785 -2.439489 0.31032872
0000b0 9c cb 87 bf 2b be 44 be 5b dd 27 3f 16 66 0b 3f
       -1.0609012 -0.19213168 0.65572137 0.54452646
0000c0 7a b1 13 40 4f c1 87 bf 14 39 c4 3f 3f 29 e5 bf
       2.3077073 -1.0605868 1.5329919 -1.7903212
0000d0 8d de 4e 40 93 c6 4e bf 4d b7 92 be e5 dc 82 3f
       3.2323334 -0.8077175 -0.28655472 1.0223662
0000e0 42 74 48 be 46 d6 1d bf c5 58 4d bf 32 a2 99 bf
       -0.19575599 -0.6165508 -0.80213577 -1.2002623
0000f0 d4 7f 64 3f ce 74 43 3f 3c 54 86 40 00 d0 7f bf
       0.8925755 0.76350105 4.1977825 -0.9992676
000100 be 80 15 40 0d 06 95 be e7 f7 98 3f 89 9d 42 40
       2.3359828 -0.2910618 1.1950654 3.0408652
000110 f2 a1 2b bf 68 20 e0 be 9d ec 9a be 1c ee 2c 3f
       -0.67043984 -0.43774724 -0.30258647 0.67550826
000120 07 4a 76 bf 4a d8 09 c0 b8 2f 20 40 ee 32 10 c0
       -0.96206707 -2.1538262 2.5029125 -2.2531085
000130 f8 01 1a 3e c7 a2 a9 bf ba b4 a8 bf dc 67 be bf
       0.15039814 -1.3252801 -1.3180153 -1.4875445
000140 e1 18 ad bf 95 60 86 bf 18 3c e9 be 95 8c 30 c0
       -1.3523217 -1.0498224 -0.4555366 -2.7585804
000150 46 2d 90 bf e6 a6 54 bf ef b8 b4 bf 02 37 b6 3f
       -1.1263816 -0.83067167 -1.4118937 1.4235537
000160 f5 aa 2f be 86 3e a7 be d0 06 44 3f b7 de 58 c0
       -0.17155059 -0.3266489 0.76572895 -3.3885934
000170 b6 4f 38 3f 59 00 67 be 37 de 06 3f dc 80 8f bf
       0.7199663 -0.22558726 0.5268282 -1.12112
000180 f2 cb fb bf 20 88 04 c0 c2 9c 69 3f 56 33 3e bf
       -1.9671614 -2.0708084 0.9125482 -0.7429708
000190 a8 b6 06 3f 07 d9 b4 be 8b 5d 06 40 82 46 cd 3f
       0.5262246 -0.3532183 2.0994594 1.6037142
0001a0 f4 11 86 bf d7 b7 3f bf 41 ff d0 bf 10 af 6d 3f
       -1.0474229 -0.7488989 -1.6327897 0.9284525
0001b0 29 1a 3f bf c9 2f ae bf de 76 1d 3f 01 4a 8a 3f
       -0.7464929 -1.3608333 0.615095 1.0803834
0001c0 75 ed c7 be 52 bc d3 3f 21 53 18 40 8b b7 88 bf
       -0.39048353 1.6541846 2.3800738 -1.0681013
0001d0 f3 0d 04 bf 89 cc 1b c0 da 22 27 c0 1c cb e1 3f
       -0.51583785 -2.4343588 -2.6115022 1.7640109
0001e0 e7 d9 6d be ff a7 39 be e4 58 1c 3f 56 b7 1c 3f
       -0.23227654 -0.18130492 0.61073136 0.6121725
0001f0 77 18 eb 3f 76 ba a9 3d 8e a9 25 3e 89 c7 b2 3e
       1.8366841 0.08287518 0.16177961 0.34917858

bn1.running_var f4 [128]
000000 35 5b b6 3c bc f2 b5 3e 42 86 23 3e da cd 34 3e
       0.022260288 0.35536754 0.15969184 0.17656651
000010 88 2a a4 3e ed 7b 8e 3e 93 f9 ab 3d 0f 8c d3 3e
       0.320637 0.27828923 0.08397212 0.41317794
000020 9e 85 c0 3e 55 e5 9d 3e 74 52 c4 3c 2c d9 04 3e
       0.37601942 0.3083903 0.023965098 0.1297347
000030 4a 64 a6 3e c7 99 4a 3e 23 81 fb 3e 96 81 04 3f
       0.3249839 0.19785224 0.4912196 0.5176023
000040 b5 bf dd 3e 97 cd db 3e d4 4c fd 3d 40 be b0 3d
       0.43310323 0.4293029 0.123681694 0.08630037
000050 ae 40 9a 3e 84 16 38 3e 06 14 20 3f 65 32 e7 3e
       0.30127472 0.17977339 0.62530553 0.45155635
000060 1c b0 26 3e 9f 00 15 3e c4 31 4b 3e 1e 87 43 3e
       0.16278118 0.14551018 0.19843203 0.19094512
000070 3d ec 0c 3f 6c 6b bc 3e 80 5a 8c 3e 4c 5c 72 3e
       0.5504797 0.36800706 0.27412796 0.23668021
000080 2d 96 c2 3d cc a3 49 3e 8c 2d b3 3e 94 eb 8c 3f
       0.095013 0.1969139 0.34995687 1.1009393
000090 0b f4 9d 3e 02 c6 0d 3d 47 93 f1 3e 52 d6 40 3e
       0.30850253 0.034612663 0.47182676 0.18831757
0000a0 23 1f b1 3e 1e 38 0b 3e 6c 2f 27 3d 3f 69 e5 3e
       0.34594068 0.13595626 0.04081671 0.4480686
0000b0 84 1e 94 3e a3 39 f5 3e 4e c1 8f 3e cb 51 21 3f
       0.28929532 0.47895536 0.28077167 0.6301543
0000c0 aa a2 c4 3d 1d 48 87 3e 3c 55 1f 3e 6d 4d 04 3e
       0.09601338 0.26422206 0.15559858 0.1292016
0000d0 e8 81 ae 3d b6 bd 32 3f 93 08 a7 3d 58 28 7d 3e
       0.085208714 0.69820726 0.08155932 0.24722421
0000e0 1b ef 13 3f 81 1f 82 3e 28 c5 99 3e 05 27 06 3f
       0.5778672 0.2541466 0.3003323 0.5240329
0000f0 06 67 9d 3d 52 07 10 3f f3 e5 30 3d c8 9a 77 3e
       0.07685666 0.5626117 0.043188047 0.24180138
000100 c8 38 5e 3e 19 4b f4 3d 1e f9 22 3e af f9 ef 3e
       0.21701348 0.11928386 0.15915343 0.4687018
000110 ec d2 a5 3e e0 e2 df 3d fb b7 b4 3e 0a ff 3c 3f
       0.32387483 0.10931945 0.35296616 0.7382666
000120 4b ac 0a 3f 35 4f 9d 3e ca a3 9d 3e 14 d0 b0 3e
       0.5416915 0.30724493 0.30789024 0.3453375
000130 b2 e3 b3 3e a0 83 2a 3e 44 a4 df 3e 12 11 00 3e
       0.35134655 0.16651773 0.43680012 0.12506512
000140 dd 14 df 3e 0f dd e4 3e 24 4e 20 3e d4 1c a8 3d
       0.43570605 0.44699904 0.15654808 0.082086235
000150 7e 5f 71 3e f1 67 31 3f 5f d0 80 3e 80 25 9f 3e
       0.23571584 0.69299227 0.25158975 0.31083298
000160 30 14 3c 3e 84 1c a6 3e d2 f3 34 3f 02 37 df 3c
       0.18367076 0.3244363 0.7068454 0.02724791
000170 e8 5d 44 3e 03 4a a2 3e e1 27 56 3e 69 51 ab 3e
       0.19176447 0.3169709 0.2091365 0.3346055
000180 36 6f ee 3d 40 e4 12 3e e3 07 51 3e 21 e6 0e 3f
       0.116423056 0.14344883 0.20413165 0.558199
000190 99 77 ca 3e 49 6f 84 3e 49 32 02 3e 95 df 8d 3d
       0.3954437 0.25866154 0.12714495 0.069274105
0001a0 3a 7d 2a 3e a9 7e ad 3e 97 e1 16 3f 5d 79 90 3e
       0.16649333 0.33885697 0.5893797 0.28217593
0001b0 2b 9c ab 3e 3a c3 90 3e 71 49 a9 3e 87 b9 cf 3e
       0.33517584 0.28273946 0.33063844 0.40571234
0001c0 54 ec 44 3e b2 6c dc 3e f6 ba c9 3d f5 f4 64 3e
       0.19230777 0.43051678 0.09850113 0.22359069
0001d0 f4 2b 79 3e ab 16 6a 3d 22 09 a1 3d 99 8a e7 3e
       0.24333173 0.057150524 0.0786307 0.4522293
0001e0 ce ee 5d 3e 8a 31 90 3e 27 6f 94 3e 31 5b 48 3e
       0.21673128 0.28162795 0.28991053 0.19566037
0001f0 6a e7 39 3e 60 84 e7 3e f9 de 56 3e e5 78 1c 3f
       0.18154684 0.45218182 0.20983495 0.6112197

hidden1.weight f4 [64, 128]
000000 87 aa 0f 3d 3f eb 31 3c c8 8d 24 be e5 1e 96 3d
       0.035074737 0.01085931 -0.1606971 0.073301114
000010 9b 42 65 be 7b 1a 73 3d 42 15 97 3d 2e 97 4f 3c
       -0.22388689 0.059351426 0.073771015 0.012670321
000020 12 81 b6 3d 03 59 b7 3d 15 fc 5a bd 65 7d 1d 3d
       0.08911337 0.089525245 -0.05346306 0.038449664
000030 b3 2d 84 bd 9c d9 83 bd 88 fb 4e bd 4c 93 af bd
       -0.06454029 -0.0643799 -0.050532848 -0.085730165
000040 33 7e 0f 3e 80 ad 9d bc 4d 6e 0b 3d 1d d3 cb bd
       0.14012985 -0.01924777 0.034040738 -0.09952376
000050 34 93 16 3c 78 66 2b be 02 db fb 3d 00 94 3b 3c
       0.009190369 -0.16738307 0.12297632 0.01144886
000060 ec 7c 90 3d 6b 24 8f 3d 57 1d e3 bc fb 49 6c 3d
       0.07055077 0.06989368 -0.027723951 0.05768774
000070 ae a0 04 3c 3f 97 8a bd a1 08 75 bd 5c ed b5 3d
       0.00809495 -0.06767129 -0.059822682 0.08883163
000080 e8 c0 1e 3d a1 ee 01 3c c9 51 2c be e8 09 60 bd
       0.03875819 0.007930429 -0.16828074 -0.054696947
000090 88 0e ca 3c e2 2b db 3d 5a 41 81 bd c7 34 53 3d
       0.024665132 0.10701729 -0.06311293 0.051564004
0000a0 1b b1 f0 3b 56 bd 96 bc 9a bd 91 bd ef 70 1c 3b
       0.0073453314 -0.01840083 -0.07116242 0.0023871025
0000b0 65 c9 9d bd 20 dd a3 bd d7 b7 b1 bd 96 c5 60 3d
       -0.077044286 -0.080011606 -0.08677643 0.054875933
0000c0 e4 f7 54 be 98 84 bd bc 0d c2 8b 3d 5c 7f 15 3d
       -0.20797688 -0.023134515 0.068241216 0.036498412
0000d0 b5 08 97 3d 19 da cc bd d5 f5 6e bd 1a 7a 9c bc
       0.073747076 -0.10002536 -0.058339912 -0.019101191
0000e0 e9 38 94 3d 3c 01 a5 bd fe d4 22 3d 54 c0 b7 bd
       0.07237417 -0.08056876 0.039753906 -0.089722306
0000f0 30 f3 b9 3d 45 9c a0 bd 47 f3 82 bd 5b 4f 35 be
       0.090795875 -0.07842306 -0.06394058 -0.17706053
000100 81 27 5e bd dd 8b c7 bd 16 56 2a be c1 b5 07 3d
       -0.054236893 -0.09743474 -0.16634402 0.03313232
000110 91 f7 1e 3e fb a1 68 be 81 8f 3f be be f7 0c bd
       0.15524127 -0.2271804 -0.18707086 -0.034415953
000120 42 c7 22 3e 71 5c ee 3c 39 bc ed bc 48 3f 15 3d
       0.15896323 0.029096814 -0.029020416 0.036437303
000130 e8 0c 92 bd e4 04 91 3c b7 a2 08 3d 02 d9 e0 bd
       -0.07131368 0.017702527 0.033358302 -0.10978891
000140 d7 e4 85 3d 92 20 5a 3c e2 16 e3 bd 79 30 af bd
       0.06537788 0.013313429 -0.11088349 -0.08554167
000150 eb be 2b 3c 7f 2a 9b bc d0 a8 32 b8 d6 50 4d bc
       0.01048253 -0.018941162 -4.2595726e-05 -0.01253148
000160 49 f4 2c 3d b2 d5 6c bb c7 cf 7d bc 81 d9 96 bd
       0.042225156 -0.0036138115 -0.0154914325 -0.07365704
000170 6c dc 0b bd 56 59 5a 3c a9 4a f9 bc 38 7a c0 3d
       -0.034145758 0.013326963 -0.030431109 0.093983114
000180 96 67 de 3d 03 3e 76 3d fd bd 8c bc 7f e5 ce bd
       0.10859601 0.060117733 -0.017180437 -0.10102367
000190 84 53 0b bd 6f e0 de ba 55 9a b7 3b 9c 8d 54 be
       -0.034015194 -0.0017004142 0.0056031146 -0.20757145
0001a0 03 1b d5 bd 23 de 52 3d ba 4f 7f 3c 50 b0 03 3e
       -0.10405543 0.051481377 0.015582973 0.12860227
0001b0 be 8a 21 bb 4b 76 16 be 9d 9b 97 3d 50 18 7f 3d
       -0.0024649347 -0.14693563 0.07402728 0.062279046
0001c0 e7 35 89 3d 11 58 7e bd a3 f9 42 3e 55 8c 2c be
       0.06699734 -0.062095705 0.19040541 -0.16850407
0001d0 a5 ea 4c be 43 72 c6 bd eb c7 51 bb 47 d4 c6 3c
       -0.20011385 -0.096897624 -0.003201003 0.024271144
0001e0 9b af f9 3d fe e9 0e 3d 8d 5a 41 bd 5c da 2e be
       0.12191697 0.03489112 -0.047205497 -0.17075485
0001f0 7e b5 0b bd 21 03 c8 3d cd 18 76 be 92 36 f9 bd
       -0.03410863 0.09766222 -0.24032898 -0.121686116
000200 a5 a2 29 3a 39 d2 91 bd c7 b4 f0 bd 10 d1 0e be
       0.00064710743 -0.07120175 -0.117532305 -0.13946939
000210 09 ce c0 bc 24 4a 12 bd de b3 10 bc ca 81 20 bd
       -0.023535745 -0.035715237 -0.008831946 -0.039186276
000220 9e 9d f3 bd 83 0a 8a bc fa 88 d3 3c 81 d8 4f be
       -0.118952975 -0.016850716 0.025822151 -0.20297433
000230 ff 65 30 be a9 a1 31 be fd bc 87 be 73 95 6c bd
       -0.17226408 -0.17346825 -0.26511374 -0.057759713
000240 ac 57 8c bd 9f a5 c7 3c 41 54 a8 3d 0c 84 ce 3c
       -0.068526596 0.024370966 0.08219195 0.02520945
000250 8c 6e 0f 3d 1a a3 4e 3d f5 b3 4a bd ba c8 32 3d
       0.035017535 0.050448515 -0.049488027 0.04364846
000260 21 b8 2a be 84 01 18 bd fe 07 49 bd 1e 29 96 bd
       -0.16671802 -0.03711082 -0.049079888 -0.07332061
000270 63 d3 1c be b6 2c ec 3c 73 eb 7b bd 05 53 77 be
       -0.15315013 0.028829914 -0.06150384 -0.24152763
000280 13 1e d7 bb 87 68 0e bc 31 1f cf 3c d7 1a 8c 3c
       -0.0065648644 -0.008691913 0.025283428 0.017102642
000290 d3 98 30 bd db 11 02 3e 36 30 73 bd 58 ef 0f be
       -0.043114495 0.12702124 -0.05937215 -0.14056146
0002a0 e2 0e 4b 3d 6a 8e c0 bd f2 88 44 3c d9 a9 14 3c
       0.04957474 -0.09402163 0.011995541 0.009073698
0002b0 3a 01 2b be e8 c0 e4 3c bd 24 8e 3d 61 94 48 bd
       -0.16699687 0.027924016 0.06940601 -0.04896963
0002c0 eb 12 fc 3c 64 ff c6 3d 1b a5 89 bd 5c b8 5d 3d
       0.03077074 0.09716681 -0.067209445 0.054130897
0002d0 01 2c 7c 3d 50 ca 44 bc 53 36 99 bd 1c fb 53 3d
       0.061565403 -0.012011126 -0.07481065 0.05175315
0002e0 f1 89 8b bd e1 6e f1 bd 2b 97 41 bd 9e a2 2b bd
       -0.068134196 -0.117887266 -0.047263306 -0.04190313
0002f0 8a 3e 11 3c 3d c7 a3 3d 37 78 3c bd 2b 2a 2a 3e
       0.008865008 0.07996986 -0.046013083 0.16617648
000300 1b 7f 32 bd 29 27 4f 3c fe db 19 3e ce 8c ed 3c
       -0.04357825 0.012643614 0.15025327 0.028997805
000310 0f 01 b5 bd a1 38 c1 bb d3 86 84 bd 62 99 5b 3d
       -0.088380925 -0.0058966433 -0.06471028 0.053613074
000320 74 c1 61 be 2f 41 0d be d4 33 92 bd 83 78 9a bd
       -0.22046453 -0.13794397 -0.07138792 -0.07542517
000330 07 0c 16 be 92 12 95 bb 15 2e ca bd c6 90 21 bd
       -0.14653026 -0.004549333 -0.09872071 -0.039444707
000340 a1 67 76 bd df ec 2c bd 76 ca f8 3d 54 bd 9e bd
       -0.060157422 -0.042218085 0.12147991 -0.07750955
000350 e6 11 d6 bd 78 0e 5e be f6 bd 90 bd a1 dc dc bc
       -0.104526326 -0.21685207 -0.07067482 -0.026960673
000360 60 79 22 be 3d c7 2f be 46 a7 26 be 42 6d fd bd
       -0.15866613 -0.17165847 -0.16274747 -0.12374355
000370 83 af 7a 3c b5 cb 3b 3d e3 d6 7d bd 34 f4 28 be
       0.015300634 0.045848567 -0.06197251 -0.16499406
000380 53 83 8d be 4f 7f b4 bd f6 8e 2f 3c 61 83 bf 3d
       -0.27639255 -0.08813345 0.010715237 0.093512304
000390 ad 1d 76 bc 61 bb 37 be aa 56 d7 3d 8d 95 83 bc
       -0.015021724 -0.17942573 0.10514577 -0.016062522
0003a0 59 16 18 3b d8 b0 0d be 0e 25 66 be 27 16 ea bd
       0.002320668 -0.13836992 -0.22475073 -0.114300065
0003b0 10 11 a5 bd 2d a5 9c 3b a3 39 3f bd ea 66 04 be
       -0.08059895 0.0047804327 -0.046685826 -0.12929884
0003c0 ab 46 83 bd c0 02 6e 3d 76 d9 f6 bc 0a f5 c4 3b
       -0.06409963 0.05810809 -0.03013299 0.0060106562
0003d0 f0 2a 9e bc bb 72 20 be 83 ea 51 3d 54 ea 78 3d
       -0.019307584 -0.15668766 0.05124904 0.060770348
0003e0 71 5f 8f bc ad a2 1d 3d 77 86 23 bb 63 09 35 bd
       -0.017501565 0.038485218 -0.0024951973 -0.044198405
0003f0 dd d9 a3 bd fc e6 01 be ec 6d 2e bb 65 1f 99 bd
       -0.080005385 -0.1268577 -0.0026615812 -0.07476691

hidden1.bias f4 [64]
000000 03 6f 03 38 04 fa ff b5 20 be 9e 34 fc f0 60 36
       3.133622e-05 -1.9071745e-06 2.9568128e-07 3.3518872e-06
000010 00 66 f1 31 7a 0f 28 b8 ce 84 22 b7 3b 75 c8 b7
       7.025619e-09 -4.0068735e-05 -9.686873e-06 -2.3896448e-05
000020 91 ee af 36 64 4d 2e 36 12 ba 27 37 8a 4e 16 b8
       5.243179e-06 2.5973068e-06 9.997299e-06 -3.5835932e-05
000030 d4 82 2f 36 22 42 ad 36 98 b2 26 b8 a0 78 11 38
       2.6153184e-06 5.1635006e-06 -3.9743813e-05 3.4683035e-05
000040 20 48 21 b5 d7 8c 88 37 11 11 4b 38 a2 6d fa b6
       -6.008213e-07 1.6278047e-05 4.8414866e-05 -7.4633435e-06
000050 96 d4 d0 b7 ec ee f1 b7 90 f0 09 b8 52 03 19 37
       -2.4894525e-05 -2.8840695e-05 -3.2887387e-05 9.120284e-06
000060 37 89 11 38 69 ea be b7 0a a2 2d 37 80 04 32 37
       3.4698485e-05 -2.275892e-05 1.0349331e-05 1.06106745e-05
000070 3d c4 08 b8 47 26 8e b7 98 7b fc b6 d9 1d df 37
       -3.2607688e-05 -1.6945543e-05 -7.5245734e-06 2.659757e-05
000080 f3 e6 a7 37 98 66 3d 38 0a d4 d2 37 07 94 d0 b6
       2.0015495e-05 4.515666e-05 2.513269e-05 -6.2161157e-06
000090 e2 97 b9 b7 1c cc d2 35 9e 52 bf 36 3b 8f 14 38
       -2.2124445e-05 1.5705623e-06 5.7018615e-06 3.5419343e-05
0000a0 00 46 6d b6 ae 27 09 b8 f9 6e 1a b8 b1 c4 2c b7
       -3.5356497e-06 -3.27003e-05 -3.6819813e-05 -1.0297795e-05
0000b0 5c 38 70 b7 10 05 73 b7 c2 6f 00 b8 70 58 9f 38
       -1.4318237e-05 -1.4485107e-05 -3.062166e-05 7.5981836e-05
0000c0 93 6b 90 b7 4f 45 3d b8 9d 86 5c 37 49 e8 86 38
       -1.721623e-05 -4.512566e-05 1.3144364e-05 6.4328844e-05
0000d0 c2 cf fa b7 7d c2 23 b8 b4 ec d1 37 54 67 8e b6
       -2.9899067e-05 -3.904336e-05 2.5024965e-05 -4.2439588e-06
0000e0 64 f3 f4 37 9e 63 c1 37 9d f8 f5 b7 b2 db 0f 36
       2.9200404e-05 2.305378e-05 -2.9322046e-05 2.143654e-06
0000f0 74 9b ca 37 12 3e f8 37 08 f1 35 37 c7 09 76 b8
       2.4152665e-05 2.9592808e-05 1.084456e-05 -5.8660076e-05

bn2.weight f4 [64]
000000 b4 47 6e 3f d2 a8 5f 3f a7 a1 77 3f 41 4a a2 3f
       0.9307816 0.87366974 0.96731037 1.267891
000010 15 32 48 3f ff 58 77 3f 98 1b 59 3f 38 69 5f 3f
       0.7820142 0.9662017 0.8480773 0.87269926
000020 c5 fe 5b 3f 41 5e 5a 3f 14 89 6d 3f ca 25 66 3f
       0.8593562 0.8530007 0.9278729 0.8990141
000030 84 0f 63 3f 35 3f 4f 3f b6 1f 54 3f ae 19 8e 3f
       0.8869555 0.8095582 0.8286089 1.1101587
000040 62 d4 50 3f d5 38 67 3f 97 a7 70 3f b8 7f 77 3f
       0.8157407 0.90321094 0.9400572 0.9667926
000050 31 ac 64 3f 0a 45 5b 3f 8a 28 a5 3f 4c 0b 63 3f
       0.89325243 0.8565222 1.2902997 0.8868911
000060 33 f4 7e 3f 41 8a 4d 3f 34 15 6a 3f ba 8b 78 3f
       0.9959137 0.80289084 0.91438603 0.97088206
000070 1e 58 98 3f 50 88 6b 3f 02 6a 88 3f 6f 38 5f 3f
       1.1901891 0.9200487 1.0657351 0.87195486
000080 08 6a 64 3f 66 cc a8 3f b4 24 80 3f 38 29 4b 3f
       0.8922429 1.3187377 1.0011201 0.7935977
000090 f3 ca 66 3f 5a a6 4e 3f 36 53 4f 3f a9 af 75 3f
       0.90153426 0.8072258 0.80986345 0.9597116
0000a0 d3 45 65 3f 76 5e 84 3f 3c f7 7d 3f 91 d9 58 3f
       0.8955967 1.0341327 0.99205375 0.8470698
0000b0 61 36 6b 3f 02 13 76 3f 66 95 67 3f 66 40 61 3f
       0.9187985 0.96122754 0.9046234 0.8798889
0000c0 7f 03 78 3f b7 44 5a 3f ac ba 54 3f 43 96 83 3f
       0.96880335 0.852611 0.8309734 1.0280231
0000d0 08 f8 72 3f 8a 12 8d 3f 3c 2a 58 3f 66 ef 5e 3f
       0.94909716 1.1021283 0.84439445 0.87084043
0000e0 ca 04 71 3f a6 10 81 3f 39 40 a9 3f f4 7c 73 3f
       0.9414793 1.0083206 1.3222724 0.9511254
0000f0 8c 77 83 3f 85 c1 5c 3f 44 28 67 3f e0 50 7c 3f
       1.0270858 0.8623279 0.90295815 0.98560905

bn2.bias f4 [64]
000000 e4 7b 38 be 78 1c 83 bd 11 f7 98 be ae 5d 07 bf
       -0.1801601 -0.06401914 -0.29875997 -0.5287732
000010 f9 c1 22 be 6e 9c ca bd 25 ed 88 be a1 15 82 3c
       -0.15894307 -0.09893118 -0.26743427 0.015879454
000020 98 74 06 be 51 15 5a be 27 2c 70 bd 29 e2 2b bd
       -0.13130414 -0.21297194 -0.058635857 -0.04196373
000030 0d bc f0 bd 1e 8e 4b be e3 41 1b be e6 7f f4 be
       -0.11754618 -0.19878432 -0.15161853 -0.4775383
000040 46 6e 87 bd 7b 91 e8 bc fd 2d fe bd 57 0a ed bc
       -0.0661283 -0.028389683 -0.12411115 -0.028935594
000050 6d 4b 32 bc f2 77 9f bd d7 d0 a7 be 6c b9 9f be
       -0.010882241 -0.0778655 -0.3277652 -0.31196153
000060 0c 76 98 be 00 4c 1e bd 6e ed 37 be fe fd b4 bc
       -0.29777563 -0.038646698 -0.17961666 -0.02209377
000070 4d f2 7c be 44 54 58 bd b3 3c a0 be 53 14 15 be
       -0.24701805 -0.052814737 -0.3129631 -0.14558534
000080 33 cd 86 bd fb 41 d6 be 53 61 74 be 78 d7 85 be
       -0.065821074 -0.41847214 -0.23865251 -0.26140952
000090 e1 55 98 bd 63 b2 be be aa 67 ea bd 5a 4f f8 bd
       -0.07438255 -0.37245473 -0.114455536 -0.1212451
0000a0 05 ea 7e bd e8 19 91 be 32 be 16 be c4 db f2 bd
       -0.062234897 -0.28340077 -0.14720991 -0.11858323
0000b0 0f 61 97 be 46 5f 6e be a3 49 86 bd a2 83 4a be
       -0.29566237 -0.23278531 -0.06557014 -0.19776776
0000c0 fd 17 d2 be 66 a2 f6 bd 47 d8 6f be 58 bb 08 bc
       -0.41033927 -0.12042694 -0.23422347 -0.0083454475
0000d0 c0 cf 27 be 45 f0 71 be 16 30 5f be b6 93 46 be
       -0.16387844 -0.23626812 -0.21795687 -0.19392285
0000e0 5e 45 d8 bc da 6c 8a be 92 f3 92 be 3d f3 12 be
       -0.026400264 -0.27036172 -0.28701454 -0.143506
0000f0 fd d7 ba be a2 97 0c be 30 a3 3a bd 77 9f af bd
       -0.3649291 -0.13729718 -0.045565784 -0.085753374

bn2.running_mean f4 [64]
000000 da fc 8b bf 72 c7 b9 bf 09 0b cc 3e 54 d1 be 3e
       -1.0936539 -1.4513991 0.3985217 0.3726908
000010 fd 73 88 bf 74 e1 fe 3d 71 37 8b 3e 94 e2 bc bf
       -1.0660397 0.124453455 0.27190736 -1.4756646
000020 b0 fc 4c bf 5a f5 cc bf 05 ef 0d c0 db 00 cf be
       -0.8007307 -1.6012375 -2.2177136 -0.4043034
000030 4d 4f da bf 87 93 14 bf 4d 7b 20 3e 29 7c ac 3e
       -1.7055451 -0.5803761 0.15672036 0.33688477
000040 d4 5f e0 bf 21 18 ea bf e0 b0 0b c0 a7 0c f4 3e
       -1.7529244 -1.8288614 -2.1826706 0.47665903
000050 48 30 d0 bf 2f b2 05 bf 19 3c f6 bc 2f 0e bf 3f
       -1.6264734 -0.5222501 -0.030057954 1.4926203
000060 96 2d 9b 3f de 57 e1 be 72 9c ba bd 80 f7 97 bf
       1.2123287 -0.4401235 -0.09111871 -1.1872406
000070 54 71 86 bc ce 9b fe bf 22 f8 4e be ce 01 57 bf
       -0.016411461 -1.9891298 -0.20211843 -0.8398713
000080 44 f5 90 bf 0e 30 58 3d e7 f4 70 3f 98 8f 5a 3f
       -1.1324849 0.052780204 0.9412369 0.85375357
000090 88 3f af bf 93 22 d8 3e b6 8b 38 be fe 7b bb bc
       -1.3691263 0.42213878 -0.18022045 -0.022886273
0000a0 ca 0c 9f bf c4 59 1a 3e ef 14 27 3f b6 36 f0 bf
       -1.2425778 0.15073305 0.6526632 -1.8766696
0000b0 95 ec ba 3f b4 18 f3 3e 7b cc db 3e 8c a3 16 3f
       1.4603449 0.47479784 0.42929444 0.588433
0000c0 7e df c3 3f 96 e9 9e bf 34 cd 52 3e 27 fd 99 be
       1.5302579 -1.2415035 0.20586091 -0.30075952
0000d0 94 29 a5 bb 62 43 07 be fc f4 0a 3f bb fa 8c bf
       -0.005040357 -0.13209298 0.54280066 -1.1014017
0000e0 f4 dd 89 bf b3 c6 46 3f e7 40 99 3e a3 93 c0 3e
       -1.077086 0.7764694 0.2993233 0.37612638
0000f0 1d 50 a7 3f 35 bb dd 3d 6f ad f2 bf 67 9f a3 bf
       1.3071324 0.108267225 -1.8959178 -1.2783021

bn2.running_var f4 [64]
000000 1e 64 d7 3f 72 ce 14 40 05 03 f1 3f 70 51 ca 3f
       1.6827428 2.3251004 1.8829046 1.5806103
000010 b1 0e 22 40 58 27 c5 3f db 63 b1 3f 80 35 1a 40
       2.5321467 1.5402632 1.3858598 2.4095154
000020 fb 77 06 40 c5 c0 ab 3f 72 47 d8 3f 68 00 a3 3f
       2.101073 1.3418204 1.6896803 1.2734499
000030 c8 33 2c 40 6c 48 ba 3f ca 91 de 3f 86 41 c5 3f
       2.6906605 1.4553351 1.7388241 1.5410621
000040 4b 49 e5 3f 49 c1 43 40 76 04 22 40 62 0b ec 3f
       1.7912992 3.0586722 2.5315223 1.8440974
000050 69 96 34 40 30 45 d6 3f 9a d8 cf 3f 67 80 07 40
       2.8216803 1.6739864 1.6237977 2.117212
000060 82 16 07 40 9e 97 c6 3f 07 57 ac 3f b6 7c d9 3f
       2.1107488 1.551502 1.3464059 1.6991184
000070 49 12 c2 3f a6 b4 30 40 97 05 af 3f a7 16 b7 3f
       1.516183 2.761026 1.3673581 1.4303788
000080 04 ad e1 3f 70 46 be 3f 55 bf 1a 40 87 5f a9 3f
       1.7630925 1.4865246 2.417928 1.3232278
000090 9a f4 a7 3f 3e c9 83 3f ed 74 b1 3f 3a 01 c6 3f
       1.3121521 1.0295789 1.3863808 1.5469124
0000a0 c0 6d e2 3f 6c 3b b0 3f d8 da b4 3f 4a f8 0a 40
       1.7689743 1.3768134 1.4129286 2.1714044
0000b0 e7 69 c8 3f 03 1b 1c 40 9f ec e2 3f 2b 5d 00 40
       1.5657319 2.4391487 1.7728461 2.0056865
0000c0 a4 1c f7 3f 31 9a 90 3f 88 de ad 3f 07 7c b4 3f
       1.9305615 1.1297055 1.3583536 1.410035
0000d0 e6 b7 f9 3f c6 b4 b8 3f 17 f0 69 3f 58 1b db 3f
       1.9509246 1.4430168 0.91381973 1.711772
0000e0 ea 03 a1 3f 39 af d8 3f 35 66 be 3f ee 62 b5 3f
       1.257932 1.6928474 1.4874941 1.4170816
0000f0 9b c3 f0 3f a1 d5 c0 3f b7 e0 fa 3f 30 2f fd 3f
       1.8809694 1.5065194 1.9599828 1.9780025

hidden2.weight f4 [32, 64]
000000 fc 10 61 bb 7f 94 ce bd af 48 1b be 38 d6 f5 bd
       -0.00343424 -0.10086917 -0.15164445 -0.120037496
000010 a5 1e 78 3b 2f ae 25 bd b7 5b a4 3c 30 71 e9 3d
       0.0037860062 -0.040449318 0.020063264 0.11398542
000020 ad e3 f6 bb 3c b8 3d be df 4e 92 3d f9 1b f5 3c
       -0.0075344653 -0.18527311 0.0714395 0.029920565
000030 d8 59 34 be 6f 4b 3f bb 7f 9a bf bb 63 ee 0f bc
       -0.17612398 -0.002918925 -0.005847275 -0.008784863
000040 c2 62 6d bc 4a e0 5a be ce 7c 71 bd 59 3d 4b bc
       -0.014488878 -0.21374622 -0.058956914 -0.012404763
000050 cc 40 2e be 9c db 72 3c 9c cb ab be 76 90 9c 3d
       -0.17016906 0.014822867 -0.3355378 0.07644741
000060 96 14 08 bd c3 c7 af 3c 0b 9b c7 bd 4b 0f 2e 3d
       -0.033222757 0.021457558 -0.09746369 0.042495053
000070 f1 1d 65 be 40 49 b1 bd a3 2d 74 be 7f 66 3a 3d
       -0.22374703 -0.086565495 -0.23845534 0.045507904
000080 1f bf ef bc 96 04 aa be 2e a1 9d 3c a7 9d 72 bc
       -0.029265938 -0.33206624 0.019241896 -0.014808095
000090 14 3a 09 be 68 6a ea 3c ae f3 18 3d 0d f4 68 be
       -0.13401061 0.028615192 0.037341766 -0.22749348
0000a0 e9 b8 fc bd 32 42 e5 bc 70 9f 5c bd 36 56 8a bd
       -0.12339956 -0.027985666 -0.05386299 -0.06754725
0000b0 6c 8f 86 3d 0c 0a ca bd e1 2c dd bd f1 d6 e2 3b
       0.06570324 -0.098651975 -0.107995756 0.0069225957
0000c0 24 5b c2 3c bd b6 eb 3c e2 d9 ad 3c 54 dc e3 3c
       0.0237251 0.02877366 0.021222059 0.027815022
0000d0 9c 4d e0 bd 8e 56 87 be 7e b5 b2 3d 22 8b e6 bd
       -0.10952303 -0.26433223 0.08726023 -0.11257006
0000e0 19 d0 ad bb d7 ec e7 bd 6b 99 98 3c b2 93 59 bd
       -0.005304348 -0.113244705 0.018627843 -0.05311937
0000f0 f0 a8 5d bd 83 5f 5d bd 89 87 8b ba 6f 6a 63 bc
       -0.05411619 -0.054046165 -0.0010645251 -0.013880356
000100 cf 8c f1 3d 25 12 b2 bd d4 53 ca bd bc fa 92 3c
       0.11794435 -0.08694867 -0.0987927 0.017941825
000110 dc 0f 82 3c b0 5d 09 3e a5 2f fb bd d2 36 64 bc
       0.015876703 0.13414645 -0.12264947 -0.013929086
000120 d0 e5 7d bd ef 2f 13 3e 1c c2 fa bd 48 9c 5c be
       -0.061986744 0.14373754 -0.12244055 -0.21543992
000130 9d 12 65 3d 0f 56 ae bc 0a 5b e0 bd 43 9a ee bd
       0.055925954 -0.02128127 -0.10954864 -0.11650517
000140 d7 85 a0 bd 1f a4 23 3b db af 8e bd 5c 96 a8 bc
       -0.07838028 0.002496965 -0.069671355 -0.02057951
000150 82 b8 f1 3d 8a c4 40 3d 11 cd 00 bd 95 62 46 3e
       0.1180277 0.047062434 -0.031445567 0.19373544
000160 a6 eb 1b be ea 09 ee bc 82 d3 ad bd e1 90 b6 bc
       -0.15226611 -0.029057462 -0.084876075 -0.02228588
000170 7b dc 03 3d a6 10 0f 3e 39 bf 93 3d b0 70 b3 3d
       0.03219269 0.13971195 0.07214207 0.08761728
000180 c8 f9 c8 bc 94 f6 45 3d bd 51 db 3d 97 60 4e 3e
       -0.024533167 0.04833086 0.1070895 0.20154034
000190 17 1c 3b 3b 30 62 32 39 3f 9f 56 be 56 14 0f 3e
       0.0028550678 0.0001701198 -0.20959185 0.13972601
0001a0 79 43 1a 3d 7b 1a 1d bd 32 d2 2a be 19 de be bd
       0.037662003 -0.038355332 -0.16681746 -0.093197055
0001b0 e9 b6 0d 3d f3 71 99 3e 94 59 bf bb 35 61 a3 3d
       0.034598265 0.2996975 -0.005839536 0.07977525
0001c0 1d 82 0b be ed 12 04 be 62 fb e2 bc 66 b3 36 bd
       -0.13623853 -0.12897845 -0.02770776 -0.04460468
0001d0 4a 37 81 3d 0c 82 cc 3b 71 01 a2 bc 8a 22 4e 3d
       0.06309374 0.0062410887 -0.019776078 0.050325908
0001e0 b9 3b 9f 3d dd 8a 3c be e8 a2 86 bd 63 6a fc bc
       0.07775063 -0.18412347 -0.06574041 -0.030812448
0001f0 fa 86 59 3d 0b 78 8a ba bc ec c8 bd db 77 3c 3e
       0.05310724 -0.001056434 -0.098107785 0.18405096
000200 8a df 0b 3d 6e 33 e7 3c 35 e1 67 bd 8b a4 b8 be
       0.03414873 0.028222766 -0.05661126 -0.36063036
000210 25 43 9f bc 9d aa 6e bc cc e5 87 bd 68 6f 05 bd
       -0.019441197 -0.014567045 -0.06635627 -0.03257695
000220 57 18 43 3d 4b 63 b2 bd bc d1 9e 3d c5 ed de bd
       0.047630634 -0.08710345 0.077548474 -0.10885195
000230 08 30 42 bd d6 ba 6d bd 38 c8 cc 3d 17 28 01 3d
       -0.047409087 -0.05803951 0.09999126 0.031532373
000240 63 e9 b9 3d 59 03 a4 bd 1e 0d 43 be 83 d8 53 bd
       0.09077718 -0.08008451 -0.19047973 -0.051720154
000250 a5 23 d7 bd 8f fb d2 bc 7a 2a ca be 24 2f 9b bd
       -0.105048455 -0.025754718 -0.39485532 -0.07577351
000260 4b ee 2c bd 47 26 15 bd f2 59 a7 3d 34 9f 84 bd
       -0.04221944 -0.036413457 0.081714526 -0.06475678
000270 4c d3 7e be e7 10 a5 bd 63 90 89 be 18 30 83 bd
       -0.24885291 -0.080598645 -0.2686797 -0.064056575
000280 65 83 49 bd 36 34 f9 be c9 be 52 bd f9 66 ea bb
       -0.049197573 -0.48672646 -0.05145148 -0.0071533886
000290 90 6e e2 bd e2 a9 e0 bd f0 52 06 3e 70 23 e0 bd
       -0.110562444 -0.109699026 0.13117576 -0.10944259
0002a0 cb 63 f8 bd ab 55 66 bd a4 c9 72 3d 65 2f a0 3d
       -0.12128409 -0.056234043 0.05927433 0.0782154
0002b0 22 9f b6 bd ae 34 78 bb d5 9d ed bd 58 c0 cd 3b
       -0.08917071 -0.0037873196 -0.1160237 0.0062790327
0002c0 84 e2 ab 3d d5 b4 f2 bc 07 e4 ec bd d2 96 b7 bc
       0.08392814 -0.029627243 -0.1156693 -0.022410784
0002d0 e4 a8 16 be 96 1d 74 be 3d d7 81 3b 07 5d 4c be
       -0.14712864 -0.23839411 0.003962426 -0.19957362
0002e0 4d 54 46 be 82 42 93 3d 10 58 59 3d 5d b9 88 bd
       -0.19368096 0.0719042 0.0530625 -0.0667598
0002f0 b2 6d 10 3d 20 1b b4 3c b6 24 93 bb d8 67 47 bd
       0.035260864 0.02198559 -0.0044904603 -0.048683017
000300 9b 11 81 3c 10 16 55 bd f9 89 bf be 2f a4 04 b8
       0.015755465 -0.052022994 -0.37409952 -3.162416e-05
000310 a1 15 10 3d 24 cd 6b 3d 53 05 aa bd 33 54 33 be
       0.035176877 0.057568684 -0.08301797 -0.17512588
000320 85 7d e0 bd c4 ce a7 3d 2e 3e af bd db cc 76 bd
       -0.10961441 0.08193734 -0.08556782 -0.06025396
000330 5f ac e7 3b 3d 6f 9a 3d 08 d5 8c bd 1d 93 e6 be
       0.007070109 0.07540748 -0.0687657 -0.45034114
000340 ae f4 e4 bd 6d 8d 73 3c 60 b2 4d 3d 68 d9 fc bc
       -0.111794814 0.0148652615 0.05021894 -0.030865386
000350 9c cd fe 3c b2 ee 86 3d 30 e3 95 bc 3c 8b 86 bb
       0.031103902 0.06588496 -0.018296808 -0.0041059535
000360 5f 17 15 bc ac 50 13 bd f9 fe d2 be 70 d0 d5 bd
       -0.00909981 -0.035965607 -0.41210154 -0.10440147
000370 e8 c9 d4 bd f2 80 29 3c c9 92 67 bc 4d f0 59 bd
       -0.10390073 0.010345684 -0.014134117 -0.053207684
000380 c3 32 ce bd ee c2 9f 3c 3e 72 31 3c 39 d0 30 bd
       -0.10068276 0.01950213 0.01083046 -0.043167327
000390 a1 59 69 3d 05 ae 85 be 04 88 55 be d3 59 e0 bc
       0.056970242 -0.2610933 -0.20852667 -0.027386582
0003a0 f3 e0 cc bc f5 3a 93 be 66 7d 43 3c 04 2a b5 bd
       -0.025009608 -0.28755918 0.011931753 -0.088459045
0003b0 af 2c 90 3d cb cd 08 bd 82 fd 49 3d ee 8e 6b 3b
       0.07039773 -0.033399384 0.04931403 0.0035943347
0003c0 47 af d0 3d f7 f6 b3 bd e8 a7 4a be 2f c3 3c bc
       0.101896815 -0.08787339 -0.19790614 -0.011521145
0003d0 58 f3 9f 3c ef b9 65 bd 19 1c 50 ba ed 45 69 bd
       0.019525215 -0.056085523 -0.0007938757 -0.056951452
0003e0 c5 f8 de 3c 7a 2f 51 be ff 60 ff 3c 02 f0 bf bd
       0.027218232 -0.20428267 0.031174181 -0.0937195
0003f0 4f c5 30 3c cb b2 73 3d 86 0f f2 bd 63 11 16 be
       0.01078923 0.059496682 -0.11819367 -0.1465507

hidden2.bias f4 [32]
000000 7c aa 9e 38 78 3e cc b8 ab 5f 9f b7 d8 8f 4b 39
       7.565782e-05 -9.739114e-05 -1.8998826e-05 0.00019413175
000010 15 80 26 38 2a 93 d4 38 44 fd 15 b8 2f 49 40 b8
       3.969677e-05 0.00010136359 -3.576024e-05 -4.5844525e-05
000020 09 a1 27 b8 67 b7 f1 b8 1d 12 70 37 46 ee 0f 39
       -3.996588e-05 -0.00011525937 1.4309332e-05 0.00013726306
000030 7c 8a 54 b8 e6 0b 08 b8 14 cb e5 b7 68 9e a8 b7
       -5.0673712e-05 -3.2436008e-05 -2.7393493e-05 -2.0100924e-05
000040 e0 63 2e 38 f4 80 79 38 c2 89 6a 37 50 c6 08 39
       4.157785e-05 5.9486323e-05 1.3979561e-05 0.00013043848
000050 77 aa 15 b7 1a b0 21 38 8b 07 59 b7 61 6c 1f b7
       -8.9207815e-06 3.85494e-05 -1.2935964e-05 -9.502372e-06
000060 b3 d4 06 b9 c3 aa 14 b7 88 9e c3 38 08 80 42 37
       -0.00012858472 -8.861246e-06 9.327853e-05 1.1593111e-05
000070 80 00 2d b8 b3 bc 60 b9 0c da 16 38 8a fb 07 b8
       -4.124688e-05 -0.000214326 3.596586e-05 -3.2420772e-05

bn3.weight f4 [32]
000000 29 9e 7f 3f 7f 3c 8d 3f d1 3f 88 3f a3 55 84 3f
       0.9985071 1.1034087 1.0644475 1.0338634
000010 91 fb 84 3f 52 10 84 3f d6 f8 8b 3f 68 ec 85 3f
       1.0389272 1.031748 1.0935314 1.046277
000020 2f 69 84 3f 7a 27 7b 3f b8 7e 7c 3f b2 3f 88 3f
       1.03446 0.9810711 0.9863086 1.0644438
000030 50 6f 6b 3f e9 f3 72 3f 88 4e 83 3f 29 f0 83 3f
       0.91966724 0.9490343 1.0258341 1.0307666
000040 9e a8 83 3f 2d 0a 7e 3f 33 7e 66 3f 22 cc 7c 3f
       1.0285833 0.99234277 0.90036315 0.9874898
000050 55 49 75 3f 2b 66 7f 3f db 04 70 3f e7 22 88 3f
       0.9581502 0.9976527 0.9375741 1.0635651
000060 d2 a9 8a 3f 35 a3 75 3f d1 8d 81 3f 7e 35 86 3f
       1.0833075 0.9595216 1.0121404 1.0485075
000070 b5 d6 6e 3f 40 08 76 3f c0 2f 7c 3f dd 5d 7a 3f
       0.93296367 0.9610634 0.9851036 0.97799474

bn3.bias f4 [32]
000000 e0 71 03 be 20 ca 09 3e 34 27 35 be 82 3d 33 be
       -0.12836409 0.13456011 -0.17690736 -0.17503932
000010 c4 da 54 3e 77 30 2c bd 79 5b d6 be fc c7 6b bd
       0.20786577 -0.042038407 -0.41866663 -0.057563767
000020 b0 5f 56 be 60 ce c3 3d f8 68 eb bd c7 5e 73 be
       -0.2093494 0.09560847 -0.114946306 -0.23766623
000030 ed 2d ea bd 32 3c bb bd 69 39 4d be 00 e3 6e be
       -0.11434541 -0.09142341 -0.20041431 -0.23328781
000040 4f 35 d0 3c 04 17 96 be 29 f6 83 3e d0 fc 49 3e
       0.025416045 -0.29314435 0.25773743 0.19725347
000050 c0 bb bf bd 04 2e b6 be 8c 14 19 3e fa e8 28 3e
       -0.09361982 -0.35581982 0.14949244 0.16495124
000060 fb 08 d8 be da 29 ea 3b 63 72 0a bc af 11 a9 bd
       -0.42194352 0.0071461024 -0.0084501235 -0.08255326
000070 69 05 b8 bb 94 9e 99 be 08 9a 0b 3e 78 97 d6 3d
       -0.0056158793 -0.30003798 0.13632977 0.10478109
