models/best_dqn_classification.pth (torch, 62126 bytes, 20 tensors)

fc1.weight f4 [128, 16]
00000000: 4df4 733e fa06 7b3e d4ed 383d 4063 883e
00000010: 245f b2bd 281b 033e a5fe d43b dd42 513e
00000020: a7a2 f63c 8ed7 90be 7999 e13d aeb1 90bc
00000030: e85b 7e3e a993 db3d a397 713e cad4 9fbd
00000040: 9d01 a93d b69d 84bd b398 5ebe 54d7 2bbd
00000050: cfd8 06be 6550 01be 97c3 49be 5e17 753d
00000060: 99a5 cabd f3ac 04be f0a7 83bd 4862 95be
00000070: d833 a2bd 73df abbe 44c1 a13e b1af 86be
00000080: 2a7e 9d3d 5376 75bd 1ba8 26be bb96 313d
00000090: ab15 ddbd eda4 a73d dad5 89bd 037e 29be
000000a0: 81e2 a13d 7ddb 67be 916b b1bd 4328 873e
000000b0: 82a5 c53c 3e39 3cbe 6370 4abe 0d3c 093e
000000c0: 5adf 0c3e c6c7 08be ced4 6dbe 8dec a7bd
000000d0: a10e 24be 77a3 5b3e ff52 ac3d 486a eb3d
000000e0: 8388 393b f450 013c 5475 413e f73b dfbd
000000f0: 8f54 da3c 6707 1cbe f0a5 f93e 670a 3fbe
00000100: 7dc4 003e d727 953b 1221 7d3e d7e2 b7bd
00000110: 01c9 f93c 09b3 b2bd 6637 883e 0a18 073e
00000120: 87d7 073f f80b bdbd 8c04 c1bd a3c2 86be
00000130: c2d5 e7bd 5686 1b3e b673 783e 27aa e43d
00000140: f25a 0ebe 8636 3bbe cee7 f83d 4a0b e4bd
00000150: e7c6 913c 00bd 94bd b53b 033e c8d7 51be
00000160: 9279 80bd 057d 973d 50f8 243d 71c4 0dbd
00000170: 3caa 083e 829d 1d3e a99f 24bf 9ffc 1ebe
00000180: beaf 513e c846 acbd 0714 b9bd bea1 6dbe
00000190: b6b0 263e 7598 4c3d d33d 1cbd 361b 35be
000001a0: 2208 653e 4380 0abe 7b5f 3fbe 96cd e2bd
000001b0: ebd2 59be 5c68 20be 5447 b83e ccb4 463e
000001c0: 6abf 543e acbc babd db70 66bc 89b7 6d3d
000001d0: b8e7 fa3c bd5e a4bd cd9e e43c 56ed 44bc
000001e0: 7528 593e 67a2 6f3d 6a40 213e 191a 71be
000001f0: 1f0c 07bd 51d7 17bc 517b 17bf b4b7 b0bc
00000200: e07c 683e abf9 82bc f060 6b3e 9129 d03d
00000210: c72c 63be d306 473e 0b21 0bbd d4e5 77bd
00000220: 1296 64be 32e3 9bbe 8686 373b 62b3 24bd
00000230: 1393 ee3d 9e2c 24be 4c43 173e a91f cbbe
00000240: 47a0 b7bd d307 f33a 80af 973d f2ce 133e
00000250: 8587 313e d452 75be 6e00 1e3c 5f2a 1cbe
00000260: 3fb5 5b3e e41a 4abc 6e41 cf3e 60f5 2ebe
00000270: 46d4 983d 9090 143d 2d7c 533e e170 82be
00000280: ec6f 553e cc8e 103d 5d62 9d3c a9dd 6dbe
00000290: fe98 723c 1329 5ebd d386 04be 45b8 473e
000002a0: f4a7 8b3d 7b0b 70be 56ac 67be fd01 f4bc
000002b0: 8f03 fd3d b7e4 a4bd 7582 05bf 2731 26bd
000002c0: cc56 32be 9627 c13d 970c 4e3e c93f 62be
000002d0: dc06 e73d 2d82 0c3e d098 5e3d 463d 9ebd
000002e0: ed58 853e 5751 d63d dba2 e73d 8bdf 1ebe
000002f0: 7797 75bd 8959 263d bdc4 bcbe 9843 a1bc
00000300: e8a8 0e3e 6199 433e f51c 1cbd 5195 93bd
00000310: 5026 05be b60a 0cbd a390 233d 76a5 4c3d
00000320: bcce 36be ff19 b2bc 1b55 903e 99d2 a83d
00000330: 82e7 febc b56e 2bbe a320 3dbf c15a 43bd
00000340: df94 5dbd 8e07 d23d 4f89 383e 5e81 093e
00000350: 61a5 8cbe 9582 ffbd 91ca 41bc 65e8 803e
00000360: 7046 4b3e 951b 85be b258 31be fdd0 cd3d
00000370: c3f3 04be dd81 453e 9b2a 9ebd c690 6d3c
00000380: a7d0 51be 8e8d 4e3e 56bb 6a3e f652 053e
00000390: 313e fabd b0d2 4fbe 4d7c 20be dd11 653e
000003a0: ced7 b13b 085c e33a 8a5f c73c 61b9 8bbe
000003b0: f9c9 273d 5e78 15be 0123 43bf 1c51 d1bd
000003c0: 6897 283e 56d9 5ebd 1674 ca3c 71e2 8cbd
000003d0: 116e 25be 1316 d8bd 063b c0bd e230 123e
000003e0: 5bca bd3c 6ae6 4f3e 2a56 14be ef92 6d3e
000003f0: 4098 aa3c 1cc6 59bd 05a2 13bf 7c87 b0bd
0.23823662 0.2451438 0.045148686 0.26638222 -0.08709553 0.12803328 0.0065000826 0.20435663
0.030106856 -0.28289455 0.11015601 -0.01766285 0.24839747 0.10721523 0.23593001 -0.07804258
0.08252261 -0.064753935 -0.21737938 -0.0419534 -0.13168643 -0.12628324 -0.19703518 0.059836738
-0.098948665 -0.129566 -0.06428516 -0.29176545 -0.07920045 -0.33568916 0.31592762 -0.26305917
0.076900795 -0.059927296 -0.16275065 0.04335664 -0.107951485 0.08185754 -0.06730242 -0.16551976
0.0790453 -0.22642322 -0.08663095 0.26397905 0.024126772 -0.18381211 -0.19769435 0.13401814
0.13757077 -0.13357458 -0.2322571 -0.08199415 -0.16021205 0.21449076 0.08414268 0.11494881
0.0028310127 0.007892836 0.18892413 -0.10900109 0.026651649 -0.15237199 0.48759413 -0.18656312
0.12574954 0.0045518684 0.24719647 -0.08978813 0.030491354 -0.087255545 0.26604766 0.13192764
0.53063244 -0.092307985 -0.094246954 -0.2632037 -0.11320068 0.15187964 0.2426289 0.111652665
-0.1390188 -0.18282518 0.12153588 -0.11134966 0.01779504 -0.072626114 0.12815745 -0.2049247
-0.06273188 0.073968925 0.04027587 -0.03461117 0.1334619 0.15392116 -0.6430612 -0.15526055
0.20477197 -0.08411938 -0.09037023 -0.23206231 0.16278347 0.04995008 -0.038144898 -0.17686161
0.22366384 -0.1352549 -0.18688767 -0.11074369 -0.21271865 -0.1566481 0.3599192 0.19404906
0.20776144 -0.091180176 -0.014064993 0.05803636 0.03062807 -0.080258824 0.027907753 -0.012019476
0.2120684 0.05850449 0.15747228 -0.23545112 -0.032970544 -0.009267644 -0.5917254 -0.021571971
0.22703886 -0.015988192 0.22986197 0.10164178 -0.2218505 0.19436197 -0.03396706 -0.060521916
-0.22322872 -0.30446774 0.0028003766 -0.040210135 0.11649146 -0.16032645 0.14771765 -0.39672592
-0.08966117 0.001854176 0.07406521 0.14434412 0.17336853 -0.23957378 0.009643657 -0.15250538
0.21455859 -0.012335513 0.40479606 -0.1708579 0.07462363 0.036270678 0.20652838 -0.25476745
0.20843476 0.03529243 0.019211942 -0.23229088 0.014806984 -0.05423839 -0.12942056 0.19503887
0.06819144 -0.2344188 -0.22624335 -0.029786104 0.123541944 -0.080514364 -0.52152187 -0.04057422
-0.17415923 0.094313785 0.2012199 -0.22094645 0.11280605 0.13721533 0.054344952 -0.07726531
0.26044407 0.10464733 0.11310359 -0.15514962 -0.0599589 0.04061273 -0.3686885 -0.019685552
0.1393162 0.19101478 -0.038113553 -0.07206214 -0.13002896 -0.034189902 0.03993286 0.049962483
-0.178523 -0.021740912 0.2818993 0.08243293 -0.03111625 -0.1674145 -0.73877925 -0.04769397
-0.054097053 0.10255347 0.18021129 0.13428256 -0.27469924 -0.124760784 -0.011828081 0.25177303
0.19851089 -0.25997606 -0.17318991 0.10049627 -0.12983613 0.1928782 -0.0772297 0.014499849
-0.20489751 0.20171186 0.22923025 0.13019928 -0.12218893 -0.20295215 -0.15672417 0.22370096
0.0054273373 0.0017346153 0.024337549 -0.2728987 0.0409641 -0.14596698 -0.76225287 -0.102205485
0.16464007 -0.054406486 0.024713557 -0.06879128 -0.16155268 -0.10551085 -0.09386258 0.1427646
0.02316778 0.2030274 -0.14485994 0.23200582 0.020824552 -0.053167447 -0.576691 -0.086195916

fc1.bias f4 [128]
00000000: ddbb 8fb7 11c2 0037 22f5 78b7 2192 01b8
00000010: 00f7 dc37 5a24 a6b8 a4cb f6b5 d18d c437
00000020: eadd 5b37 f45d c5b7 3060 4cb8 918f 87b8
00000030: 0293 e9b6 e87a 5637 8a10 98b8 beb3 27b8
00000040: a57d 55b7 bc52 1837 9081 d6b4 e390 1838
00000050: 046b 4cb7 89d1 ac36 1042 ad35 1c4c 39b6
00000060: a6b0 0c37 c076 3839 4fa7 e638 f56e a838
00000070: f21a 3538 c89f bd37 e0b3 8fb5 6f65 5838
00000080: 3ed8 2338 650f 0339 c693 b8b5 286c ab38
00000090: 46e3 67b8 2c52 d6b7 8440 c0b8 f36a 0438
000000a0: 5770 9c37 dc6a 4c36 420f 48b8 dcdd 0339
000000b0: 0009 c434 5a77 81b7 d157 e5b7 0e20 4bb8
000000c0: ee60 1b37 589c 6c37 9b62 15b8 6c77 86b7
000000d0: 01e0 8ab7 6fbd bdb7 586a 2337 c87e 5937
000000e0: d669 03b8 4c3d 0e36 12d9 8cb7 cfb1 84b7
000000f0: 4e9f 18b8 3358 48b6 cc40 a337 dbd5 6c38
00000100: 02fb cdb7 a4ee 9b37 708b 9b37 e156 7337
00000110: 38e2 ef38 be73 87b7 ee99 3cb8 05bb 88b8
00000120: 8a86 50b8 2f26 39b8 b0f4 c9b4 ba89 2837
00000130: 7879 9e37 fe8c 36b7 79c6 f6b8 5c68 a9b7
00000140: 2750 b437 f0df 0336 585d e236 bd0b 2cb7
00000150: 2ba1 0737 bc99 2db7 11ea 3038 9ae6 b6b7
00000160: 34e8 c937 8659 3e37 dd54 0838 ba52 2236
00000170: 4ae3 2d38 0f69 1db8 9ad9 75b6 072b ef37
00000180: a5c9 d538 5025 9d37 e066 9835 b06f 3236
00000190: 330e 1bb8 3e36 1f38 be74 e2b7 2ad5 7ab8
000001a0: 921e ffb7 d47a 3b38 9031 cb36 ebf2 9d35
000001b0: a2f9 43b8 aea6 c937 c7b5 0f37 56d2 2837
000001c0: 16c7 7938 8f32 ddb7 f63c 9bb7 4ce5 b7b6
000001d0: 3751 5237 0d84 3a38 6b9f 5938 b435 ebb7
000001e0: db72 f8b7 d49a 5737 fc63 d038 c482 dbb6
000001f0: 927f 3c39 2a29 8a38 5d8a 56b8 19c2 6436
-1.7134409e-05 7.674579e-06 -1.4839026e-05 -3.089209e-05 2.6341062e-05 -7.922268e-05 -1.8387695e-06 2.343106e-05
1.3105086e-05 -2.352798e-05 -4.872697e-05 -6.464043e-05 -6.961055e-06 1.278401e-05 -7.2510054e-05 -3.99833e-05
-1.2725043e-05 9.079169e-06 -3.9954875e-07 3.637456e-05 -1.2184264e-05 5.1503926e-06 1.2908731e-06 -2.761145e-06
8.385779e-06 0.00017591845 0.00010998418 8.0315316e-05 4.3178858e-05 2.260496e-05 -1.0706681e-06 5.159288e-05
3.906362e-05 0.00012498868 -1.3752076e-06 8.174061e-05 -5.5286357e-05 -2.5549052e-05 -9.1672904e-05 3.1570857e-05
1.8648961e-05 3.046057e-06 -4.7697926e-05 0.00012575783 3.6514393e-07 -1.5433576e-05 -2.733982e-05 -4.8428825e-05
9.261288e-06 1.4103098e-05 -3.56162e-05 -1.6029655e-05 -1.6555192e-05 -2.2618768e-05 9.740317e-06 1.29637265e-05
-3.13314e-05 2.1195328e-06 -1.6790382e-05 -1.5818425e-05 -3.6387988e-05 -2.985366e-06 1.9461288e-05 5.6465953e-05
-2.4554789e-05 1.8588566e-05 1.854237e-05 1.4504157e-05 0.000114385446 -1.614715e-05 -4.496605e-05 -6.5198205e-05
-4.9716364e-05 -4.4143e-05 -3.76172e-07 1.0045647e-05 1.8891631e-05 -1.0880873e-05 -0.000117671625 -2.0194966e-05
2.1494996e-05 1.965087e-06 6.7461915e-06 -1.0254732e-05 8.084152e-06 -1.0347398e-05 4.217966e-05 -2.1803473e-05
2.4069195e-05 1.1345726e-05 3.2503962e-05 2.4188034e-06 4.1458094e-05 -3.752956e-05 -3.6634506e-06 2.8511056e-05
0.00010194191 1.8733233e-05 1.1354823e-06 2.6589078e-06 -3.6968104e-05 3.795907e-05 -2.6995662e-05 -5.980317e-05
-3.0412604e-05 4.4698667e-05 6.0556413e-06 1.176811e-06 -4.672411e-05 2.4038683e-05 8.5657875e-06 1.0062553e-05
5.955164e-05 -2.6368796e-05 -1.8505827e-05 -5.4805187e-06 1.2535885e-05 4.4468838e-05 5.18853e-05 -2.803919e-05
-2.9617388e-05 1.2851047e-05 9.9368364e-05 -6.5419317e-06 0.00017976601 6.58802e-05 -5.1150437e-05 3.4087627e-06

bn1.weight f4 [128]
00000000: ad2b 423f ddfc 473f a04c 2a3f 503a 633f
00000010: 22d7 6a3f c902 6a3f 00d7 3c3f 329d 513f
00000020: be31 4c3f 243b 713f fdae 803f 3fee 7c3f
00000030: 6479 6e3f 5729 6e3f 5e37 833f 48fa 703f
00000040: d223 5d3f 6106 563f b3d4 6a3f 0670 823f
00000050: b838 5d3f 03b5 303f b9f9 403f bd1e 463f
00000060: c6b4 5b3f 2913 803f 5f5c 733f 834c 8a3f
00000070: 497a 913f 391d 673f 9571 673f 3079 7b3f
00000080: f088 463f 6795 753f 0ce2 5c3f 9a9c 623f
00000090: 9757 7a3f fd85 513f 22ec 833f ecd7 713f
000000a0: 9a92 873f 42fd 6e3f 86e8 833f ecd6 923f
000000b0: a883 643f 4eb9 513f b23d 3b3f 208c 573f
000000c0: d6b2 873f 68d2 6a3f 8fc4 603f 39df 583f
000000d0: b0f2 1a3f 7974 5a3f a6c0 473f a837 4b3f
000000e0: e879 8d3f b489 523f 6c74 703f 26ed 573f
000000f0: c30a 623f fd82 343f 6a74 5d3f 282e 873f
00000100: 7c6c 493f 3570 6b3f cb8a 673f 2971 293f
00000110: de45 7e3f fa53 673f b249 823f cfc8 803f
00000120: 4ae7 523f 3907 673f bdba 503f 7d98 843f
00000130: 50c0 653f 159d 7b3f c4fc 793f c4aa 503f
00000140: 42e8 673f 715a 703f d05d 253f 7864 663f
00000150: 03ea 583f a324 1e3f aad7 503f 99f6 6d3f
00000160: 53f5 493f 2274 833f 7039 523f 1dac 3a3f
00000170: 2159 473f 682d 7f3f a0f2 3c3f ce17 4f3f
00000180: 421b 723f 8c95 743f 5079 823f 6b0f 853f
00000190: be9c 613f 2ecf 523f 17db 4b3f 7b98 713f
000001a0: 7ecf 423f fa1f 6e3f 17c6 223f 0fe1 413f
000001b0: 279c 713f c0d2 5c3f e362 6e3f d2cf 653f
000001c0: cb15 853f 15ce 673f ac36 673f 940e 313f
000001d0: 1f7b 593f 84ee 6a3f f11c 823f 6b01 5d3f
000001e0: 70ba 733f bbed 683f 7c9d 853f d121 6c3f
000001f0: 45cb 853f 8c84 6d3f 50d6 6a3f 5105 3e3f
0.75847894 0.78120214 0.6652317 0.8876085 0.91734517 0.914105 0.73765564 0.81880486
0.797634 0.94230866 1.0053402 0.98801035 0.9315398 0.9303183 1.0251272 0.941319
0.8638278 0.83603483 0.91730803 1.0190437 0.8641467 0.690262 0.75381047 0.7739065
0.85822713 1.0005847 0.9506282 1.08046 1.1365443 0.90278965 0.9040769 0.9823179
0.775527 0.95931095 0.8628242 0.88520205 0.977899 0.81845075 1.0306437 0.94470096
1.0591614 0.9335519 1.0305336 1.1471839 0.8926339 0.8192338 0.73141015 0.8419819
1.0601451 0.91727304 0.87799925 0.8471561 0.6052656 0.85333973 0.78028333 0.793818
1.1052828 0.8224137 0.93927646 0.84346235 0.8829767 0.7051237 0.8650576 1.0560961
0.7868116 0.9196809 0.90446156 0.66188294 0.9932536 0.90362513 1.017874 1.0061282
0.8238417 0.90245396 0.8153494 1.0359036 0.8974657 0.98286563 0.97651315 0.8151057
0.9058877 0.93888 0.6459627 0.89997053 0.84732074 0.61774653 0.8157908 0.92954403
0.7888996 1.0269816 0.8211889 0.72918874 0.77870375 0.9967866 0.73807716 0.808957
0.9457284 0.9554069 1.0193272 1.039533 0.88129795 0.8234738 0.7963118 0.9437329
0.7609786 0.9301754 0.6358351 0.7573404 0.94378895 0.8625908 0.9311964 0.89770234
1.0397276 0.9054883 0.903178 0.6916287 0.8495349 0.91770196 1.0165082 0.8633029
0.95206356 0.9098775 1.0438685 0.922391 1.0452658 0.92780375 0.91733265 0.7422686

bn1.bias f4 [128]
00000000: 053c a0be e890 b2bd c079 2bbe db96 edbd
00000010: 7821 d4bd c5cb ecbe e3a5 b5be f599 d2be
00000020: 8b50 fe3b bc71 92bd 64d1 cdbe 4682 83be
00000030: 1337 f0be 89d8 6ebe 47cd e5be afdd a7be
00000040: 1b7e 46be ccf3 fdbe 1937 40be b937 75be
00000050: 8430 3abe e44d abbd 60a9 19be 24df a3be
00000060: 1eca a1be 9754 15bd 6980 d63d b4b4 03bf
00000070: 5d84 3ebe 7eed 7bbe 4d2e b7be 5dcd 91bd
00000080: 7e10 3ebe 4b12 99be a06d 81be e5b5 59be
00000090: 6398 96bd cb84 21bf 6f26 e8be 2245 19bf
000000a0: bc85 42be 5de1 babe 322f 0ebf 87ea 57be
000000b0: a69d c3be dde0 88be b231 cabe a940 81be
000000c0: 7abb aabd 54f2 d1be 9ad7 4ebd aba7 c5be
000000d0: 6394 e4be 3f47 1cbd e10f 89bd 329c 06be
000000e0: 0229 dabd 2fb4 cabe aa7e e5be 5cdf c4be
000000f0: 7785 a1bc 04cd c5be 27b6 d0be b88f cfbe
00000100: b817 93be 2394 dbbd 764f 7fbe 830c e2be
00000110: ff56 d6be fec5 17be 7da6 2a3e 05cf bfbe
00000120: 3fd5 aebe 7d50 05bf 6abf 85be bb39 97be
00000130: 2d3b 8abe 5926 f9be 3191 e1be 51c2 7abe
00000140: 9306 17be f33f 503c 2402 bcbe 81ef 7bbe
00000150: fee1 1abe 648f e5be 1da8 cebe 4985 b4be
00000160: 67a8 e4bd fef8 cebe e777 a9be f96a 92be
00000170: eea7 63be c22f 59be c6c6 9bbe 3032 c1be
00000180: 965f e9be 70b2 a6be 643a 10bf f121 a3be
00000190: ca80 43be 504e bebe 6f10 28be 38b3 89be
000001a0: f861 d4bd b5c8 50be bf1c b2be 3507 5e3d
000001b0: c2ac cabe 0c13 0fbe b593 5c3d 9eb4 3abe
000001c0: ec42 cabe 4bab 99be 16e9 38bd f553 93be
000001d0: 34fe 1bbe 125c 11bf c69b 90be 6493 6abd
000001e0: 5e42 13bf a9e9 aabe e235 f5be 1126 1bbe
000001f0: de3d e8be 5aad 5ebe a479 6cbd ea7f 98be
-0.3129579 -0.08719045 -0.16745663 -0.11601039 -0.10357946 -0.46249214 -0.35478124 -0.41133085
0.0077610663 -0.07150599 -0.40198815 -0.25685328 -0.46917018 -0.23324789 -0.44883177 -0.3278632
-0.19384043 -0.49600065 -0.18771018 -0.23947038 -0.1818257 -0.08364466 -0.15006018 -0.3200618
-0.31599516 -0.036457624 0.10473711 -0.51447606 -0.1860518 -0.24602315 -0.35777512 -0.07119248
-0.18560979 -0.2989677 -0.2527895 -0.21260794 -0.07353284 -0.6309325 -0.45341823 -0.59871113
-0.18996328 -0.36500064 -0.55540764 -0.21085559 -0.38206214 -0.26734057 -0.3949104 -0.25244644
-0.083365396 -0.41005194 -0.050498582 -0.38604483 -0.4464446 -0.038153883 -0.06692482 -0.13145521
-0.10652353 -0.39590594 -0.448232 -0.3845166 -0.019716961 -0.38632977 -0.4076397 -0.40539336
-0.28729033 -0.10721614 -0.24932656 -0.4415017 -0.41863248 -0.14821622 0.16665073 -0.3746263
-0.3414707 -0.5207594 -0.261226 -0.29536232 -0.26998273 -0.4866207 -0.44056085 -0.24488188
-0.14748602 0.012710559 -0.36720383 -0.24603082 -0.15125272 -0.4483596 -0.40362635 -0.35257939
-0.11164933 -0.4042434 -0.3309929 -0.2859724 -0.22232029 -0.21209624 -0.3042509 -0.37733603
-0.4558074 -0.32558012 -0.563391 -0.31861833 -0.19092098 -0.37169123 -0.16412519 -0.26894546
-0.103702486 -0.20389064 -0.34787557 0.054206092 -0.3958493 -0.1397211 0.053851802 -0.18232962
-0.39504182 -0.300135 -0.045144163 -0.28774992 -0.1523369 -0.56781113 -0.28243846 -0.05726947
-0.57523143 -0.33381394 -0.47892672 -0.1515124 -0.453597 -0.21745816 -0.057733193 -0.2978509

bn1.running_mean f4 [128]
00000000: 80fc 663e f75e a93e 5820 4bbe 39e6 bd3e
00000010: 6f6a 613e 0b55 1ebf efdd ec3e fe3c 22bf
00000020: ae2e 333e 261c 4f3e 2e41 c8be d09a c2be
00000030: 1df0 51bf afbf 15be 47fa 4bbf 64b7 25bf
00000040: 4f6a a83e 06b1 50bf d7d2 b8be e7ba fabe
00000050: e9a8 0c3e 017a 933e 0e8d 513e ff33 aabd
00000060: db98 a73e 1b98 6c3e 7e34 ce3e 147a 03bf
00000070: a419 bbbe c54e b73d ce42 02bf f706 0abe
00000080: a070 ac3e f9e4 43bd 13ce c03e 18ae 173d
00000090: c9ec 7f3e 2ae6 5abf e6d7 30bf be79 63bf
000000a0: ee7b e7be c2ca 13bf 85fa 1abf 5aea 05bf
000000b0: 9a10 3dbf 7606 bb3e ae87 c33e 3623 f3bd
000000c0: 32af 913c db4f 33bf 12fd 263e 66d6 d03e
000000d0: 830e 2ebe 8f13 853e 79f6 b43e c075 263e
000000e0: 983f 90be 4797 0cbe f7c1 47bf a551 183d
000000f0: 0f1d 8f3d 2ec8 07be 0b94 1d3d d2a9 46bf
00000100: be19 dd3c 118a 8a3e d9dd 043d be2d fc3d
00000110: 3803 0cbf 3316 bb3e 0bc0 a43e da86 29bf
00000120: a130 d1be 298d 4bbf e63c 00bd 443d 05bf
00000130: 54d8 dc3d b05e 4cbf b929 43bf cd8e 92be
00000140: 4d0c dd3d be61 2e3e 8959 1f3e 3da5 0ebe
00000150: 08a4 a9bd acb7 393e 8b7b 71bc ae52 acbb
00000160: 51b4 c93c 80bc 26bf b023 16bd 833d 2c3b
00000170: 9c5f 2d3e 9ed5 d2be 7c34 353e 7b0e 663d
00000180: ff66 41bf fd0a b73d 99c4 49bf 9c35 11bf
00000190: bae9 35bc 06fe 013d fc82 f03d f23c ba3e
000001a0: 2809 833e d88b 12bf e6ed 87bd 3811 ba3e
000001b0: dca6 fcbe 3352 683e b0a9 423e 8233 9bbe
000001c0: 9b00 27bf 6c6f 273b 0d3d 203e 8855 59be
000001d0: 00fc c93d b94a 35bf bced 39bf b0fe 153f
000001e0: e720 2abf 2920 a5bc accc 46bf 8634 e53d
000001f0: 5fae 26bf 15ad 0fbf 91c0 033f d3ff d3be
0.22557259 0.33080265 -0.19836557 0.37089708 0.22013257 -0.61848515 0.46263072 -0.63374317
0.17498276 0.20225582 -0.39112228 -0.38008738 -0.8200701 -0.14623903 -0.7967877 -0.64732957
0.32893607 -0.81520116 -0.36098358 -0.4897072 0.13736309 0.2880402 0.20463964 -0.08310699
0.32733807 0.23104899 0.40274423 -0.5135815 -0.36543 0.08950571 -0.50883186 -0.1347922
0.33679676 -0.047825787 0.37657222 0.037031263 0.2499267 -0.8550745 -0.69079435 -0.8885764
-0.45211738 -0.5773126 -0.6053851 -0.5231072 -0.73853457 0.36528367 0.38189453 -0.1187195
0.017783735 -0.70043725 0.16307476 0.40788573 -0.16997723 0.25991485 0.35344294 0.16255856
-0.28173518 -0.13729583 -0.7803034 0.037187237 0.06987964 -0.13259956 0.038471263 -0.77602875
0.026989814 0.2705846 0.032438133 0.12313412 -0.5469241 0.36540374 0.32177767 -0.6622139
-0.40857413 -0.7951227 -0.031308077 -0.5204661 0.10783449 -0.7983198 -0.7623554 -0.28624573
0.10793362 0.17029473 0.15561499 -0.13930221 -0.082832396 0.18136472 -0.014738928 -0.0052588796
0.024622114 -0.6513138 -0.036655128 0.002628178 0.16931003 -0.41178602 0.17695802 0.056166153
-0.75547785 0.08937643 -0.7881561 -0.56722426 -0.011103088 0.031736396 0.11743733 0.36374623
0.25592923 -0.57244635 -0.066371724 0.36341262 -0.49346054 0.22687607 0.19010043 -0.30312735
-0.652353 0.002554859 0.15648289 -0.21224034 0.09862518 -0.7081714 -0.7262838 0.5859175
-0.66456455 -0.020156937 -0.77656054 0.11191659 -0.6510982 -0.5612348 0.5146571 -0.41406116

bn1.running_var f4 [128]
00000000: 70c3 0540 b7c8 f23f b48c 443f 9b8f 0d3f
00000010: 3347 443f fb2a 863f 96aa 963f fd57 a13f
00000020: cda8 c13f e4dc 6b3f c036 6e3f 5a75 253f
00000030: 90b5 e73f c25b 433f 39b3 e33f 07a4 9f3f
00000040: 35ae 8e3f a05b ce3f d85c bb3f 0656 ae3f
00000050: 99ed c33f 5c9f 3d3f 41a2 b33f 314a f73f
00000060: 6ba4 393f d121 fb3e e085 163f 5f71 6b3f
00000070: 5ffa 913f 7c5b 593f 44ba 8d3f 7a32 1f3f
00000080: 3945 943f 4a5b a23e 2540 a13f 4fd9 9f3f
00000090: bcba 5b3f d742 e13f 8a72 a93f d09c 0b40
000000a0: 8797 ee3f be13 be3f 8480 883f 6f4b 973f
000000b0: 5246 c93f 9e9c 863f 957f be3f aad3 733f
000000c0: 69fa 413f fda8 bc3f ce79 be3e 786c 4c3f
000000d0: 277e ae3f 4418 c53f 552a 4b3f 8e9c 8e3f
000000e0: 3419 353f 1e6c b43f c4b0 c73f 1925 7b3f
000000f0: aac0 803f 593b 843f 4187 223f e768 e03f
00000100: 14e3 2b3f d2eb 1a3f 9654 0d3f 0917 573f
00000110: c4a3 823f 7e66 f73e 61f5 ee3f 2640 c23f
00000120: e768 203f 5463 d33f c0f4 f23f 5392 0140
00000130: fe77 023f 126c e13f 9456 d43f 8f55 383f
00000140: 8436 853f b9b3 843f 0f31 803f 4490 653f
00000150: d0f5 4b3f 499a b93f 3f56 1e3f 2acb 393f
00000160: 64bb 0140 4a4b aa3f 9554 bb3f 0b58 cf3e
00000170: 84ac bb3f 2be4 653f 3264 733f f74d 353f
00000180: 557d b93f 4384 2a3f cc65 ce3f 729e 7f3f
00000190: 1b9c 1c3f 9322 5b3f ee06 b63f 805d 1c3f
000001a0: 8e58 2f3f 57e9 603f 7c8d 0840 ad0e 3f3f
000001b0: d33d 3d3f cb5e 873f 1af0 813f 1957 d93f
000001c0: 3cc2 bb3f aa0d 983f fc52 0e3f e4fd 2e3f
000001d0: b257 153f 2f48 9e3f e48d c13f 0191 8a3f
000001e0: 9489 843f 3264 803f 2b22 c03f 396f 123f
000001f0: 2cdf 8b3f 7284 833f 9de0 6b3f 8c30 b63f
2.0900536 1.8967503 0.76777196 0.5529725 0.7667114 1.0481867 1.1770809 1.2604977
1.5129639 0.9213393 0.9305229 0.6463219 1.8102283 0.76311886 1.778907 1.2471932
1.1146914 1.6121712 1.4637709 1.3620002 1.5306884 0.7407129 1.4033891 1.9319516
0.72516507 0.49049237 0.5879803 0.91969866 1.1404532 0.8490522 1.1072469 0.62186396
1.1583625 0.31710273 1.25977 1.2488192 0.8583181 1.7598523 1.323808 2.181446
1.8639992 1.4849775 1.066422 1.1819896 1.5724585 1.0516546 1.4882685 0.9524485
0.7577272 1.4739071 0.37202305 0.7985301 1.3632249 1.539803 0.7936147 1.1141527
0.7074158 1.4095495 1.560082 0.9810348 1.0058796 1.0330611 0.6348763 1.7532014
0.6714337 0.60516083 0.5520719 0.84019524 1.0206227 0.48320383 1.8668634 1.5175827
0.6266007 1.6514688 1.8980942 2.024556 0.50964344 1.7611105 1.6588922 0.7200555
1.0407262 1.0367347 1.0014971 0.89673257 0.79671955 1.4500209 0.6185035 0.7257563
2.0270624 1.3304226 1.4635187 0.4049686 1.4662023 0.8980128 0.9507476 0.7082209
1.4491373 0.66608065 1.6124816 0.99851143 0.611757 0.8559963 1.4220865 0.6108017
0.684945 0.8785605 2.1336355 0.7463177 0.7392246 1.0575804 1.0151398 1.6979705
1.4668651 1.187917 0.55595374 0.68356156 0.5833694 1.2365779 1.5121427 1.0825502
1.0354486 1.0030577 1.5010427 0.5720096 1.0927482 1.0274794 0.9213961 1.4233565

fc2.weight f4 [64, 128]
00000000: 5549 cebd 6f35 0dbd 0d51 88bd 7d6e b03c
00000010: 8a15 01be a729 17be 5cf1 9fbd a543 11be
00000020: 17a5 75be 7676 5c3d c6be debd e104 1fbe
00000030: d2ca 42bd d556 9fbe e97e 62be 0403 ef3d
00000040: 2ad5 1d3e 7e9b acbd 1501 66bc 610c f63c
00000050: 2fda 1fbe efde 193d 819e c5bd b01e d13c
00000060: a066 363e 50d6 27be ca7e 2bbd a976 21be
00000070: b814 b8bd 332b c93d e6cf 003d 319d 22bc
00000080: d42b f83d 09f1 2dbe 3317 973d 92bc 25be
00000090: e18d c43d e116 1bbc a90d c0bd ffc6 c2bc
000000a0: 9b10 8c3c a0c8 15be 8e2f 95bd 99aa 0b3e
000000b0: 9ab8 c93d 1dc2 9abd 375b 1a3d ab62 bbbc
000000c0: eaa8 a7be cc9e 33bd ad8f acbc cdbf 023d
000000d0: 5ed6 70bd 7d0e be3d a2d5 3d3d cdb6 84bd
000000e0: b9eb cbbd f12f 94be 7a8b 93bd 54b7 7b3d
000000f0: 9674 313e 795d 6fbd 66ed 01bc 5a33 41be
00000100: 1add 443d 738b 8abd 6ed3 6ebc c342 bbbd
00000110: 07b3 f7bd f4aa 9dbc 6026 083e 6ae2 d13c
00000120: 1a3c ca3c 755a 25bd f9d1 58be 1753 c53d
00000130: 5076 cb3d ec25 8abe 3582 66be 957d 6dbd
00000140: 84cc 4a3e c739 66bd 16f7 28bd 39be b7bd
00000150: 76ff 743c 5f4e 163e ba7b 0c3e 2e6c 11be
00000160: f264 c3bd df34 253e a4aa 00be c3fb 6ebe
00000170: 41e1 21bd df05 813c 3679 a3bc 8fe8 5e3b
00000180: 0fcd 3abe 03d0 b7bd ada3 b2bd 2c4e 31bd
00000190: 689c 62bc c9b3 a1be ca81 a93d 8c7c 05be
000001a0: 37d1 2a3d fe8a 86be e333 06be 5060 66bd
000001b0: d87b eabd dcd5 1ebc 4a66 60bd 64f0 0fbd
000001c0: 6a6b 1a3e ccfb 4e3d 10d8 7fbd d48f 0dbe
000001d0: 7288 ef3d ffb8 f8bd d791 5bbe 98c2 ab3d
000001e0: 318e c8bd 1d0b 15be c44b d5bd a0b7 0cbe
000001f0: 4133 703d d0c8 53be 4d85 cc3d 3047 77bd
00000200: 8cc8 6dbd 6bac 50bd 4200 11bd be67 913d
00000210: 2502 3fbe 2ea9 0b3e 1e56 10be 0e8a acbd
00000220: cd3b 00be 00fb 583e 5ed5 8b3d 9601 5ebe
00000230: 09e7 843c 1380 cabe cb2e ed3c 2c26 473d
00000240: 4661 a13c 0d4a 66be 4157 b63d 00d2 12be
00000250: a53a 2b3c b353 c73d d2be 143d 6dc7 9d3d
00000260: ed14 f93d 5406 eebc d108 62bd 837e 6abe
00000270: 6d43 8abd cdf5 a03d d949 2f3e 01d4 083d
00000280: a9ca 943e 5deb 3d3d 65ec 0d3e 39b1 6ebd
00000290: 0edb 213e 025a 9bbc e860 e8bc 9123 cebd
000002a0: ad54 14be 7c22 92bd 632c debc f004 e13c
000002b0: ab67 6fbd 15c5 8a3c 5cbb 443d e759 14bd
000002c0: f61f 0dbe 00b3 0bbe 86bf 2ebe 1075 343d
000002d0: f2cb 8fbd 79a8 673d e7b2 c63d d3ce 273e
000002e0: 19b0 9ebd 4c15 1ebe c578 223d 9438 55be
000002f0: 5647 173e 13f8 c0bd c7ca 893d cab5 2f3d
00000300: a626 b53d 1ff3 e83d 24c7 743e 53e4 2ebe
00000310: 65c7 80be 06ed dabc 4532 843d 1ba7 1abe
00000320: d76e 44bd c448 34bd d746 f0bd 4227 57be
00000330: 6dfc 0fbe de6e 41be 9331 c0bd 6a15 56bd
00000340: 6ace 28bc 1353 4bbd c599 103c fea1 563d
00000350: b471 b83d f340 683d aab9 a5bd 53a6 afbc
00000360: 72ff 5bbe 3884 95bd 2827 2abe 51c8 24be
00000370: d071 e5bd 2af3 3f3d 75c5 19be fc4d fabc
00000380: 871f 80bd 8823 a4be 874c f3bd 3c6c d6bd
00000390: 62a4 f43c 1dfa 0cbe e394 c93d 366f 76be
000003a0: 8cc4 ea3d 9a4a e13d ff43 0ebe de2a c8bc
000003b0: 19b4 06bd c754 2ebe 4a19 fc3d f17e 7f3d
000003c0: 9d48 3dbe fbd3 3f3e 55c8 7c3d 2807 04be
000003d0: 460b 2dbe 5ab8 a2bd 9e6b ee3c 1865 0b3d
000003e0: bec2 02bc 54b3 543c f033 0cbe 03f3 ddbd
000003f0: 5f48 35be 60d0 533d b423 113d 6ad1 0fbe
-0.10072581 -0.034474786 -0.06656084 0.02153706 -0.12605873 -0.14761983 -0.078097075 -0.1418596
-0.23988758 0.05382391 -0.10876231 -0.15529205 -0.047556706 -0.31120935 -0.22118725 0.11670497
0.15413347 -0.08428095 -0.014038344 0.0300352 -0.15610574 0.03756612 -0.09649373 0.025527328
0.17812586 -0.16390347 -0.041868962 -0.15767922 -0.08988327 0.09822693 0.031448267 -0.009925173
0.121177346 -0.16986479 0.07377472 -0.16185215 0.09597374 -0.009465904 -0.093776055 -0.02377653
0.017097762 -0.14627314 -0.07284461 0.13639297 0.09849663 -0.075565554 0.037684646 -0.022874197
-0.3274606 -0.043852612 -0.021064604 0.031921197 -0.058798186 0.09280107 0.046346314 -0.06480179
-0.0995707 -0.28942826 -0.072043374 0.061454132 0.1732963 -0.05843875 -0.007930135 -0.18867245
0.04806242 -0.06764879 -0.014576776 -0.09143593 -0.12094694 -0.019246556 0.13295889 0.025620658
0.024686862 -0.04036947 -0.21173848 0.09634989 0.09934676 -0.26982057 -0.22510608 -0.057981092
0.19804579 -0.056207445 -0.041251265 -0.08971829 0.014953485 0.14678334 0.13719073 -0.14201424
-0.09540738 0.1613345 -0.12565094 -0.23338227 -0.03952146 0.01574987 -0.019955259 0.0034013127
-0.18242286 -0.08975222 -0.08722625 -0.04328744 -0.0138312355 -0.31582478 0.082767084 -0.13035792
0.04170343 -0.26277918 -0.1310573 -0.056244195 -0.114494026 -0.009694543 -0.05478505 -0.035141364
0.15080038 0.0505331 -0.062461913 -0.13824397 0.11695947 -0.1214466 -0.21442352 0.08386725
-0.09792746 -0.1455502 -0.10414842 -0.13741922 0.05864263 -0.20682073 0.099863626 -0.060370624
-0.058052585 -0.05094568 -0.035400636 0.070998654 -0.18653162 0.13638756 -0.14095351 -0.08424769
-0.12522812 0.21189499 0.06827806 -0.21680292 0.016223447 -0.39550838 0.028952977 0.048620388
0.019699704 -0.22489186 0.08903361 -0.14337921 0.010450994 0.09732761 0.036314793 0.07704053
0.121621944 -0.029055752 -0.05518419 -0.22899823 -0.06751142 0.07859383 0.17118014 0.033405308
0.29060867 0.046367038 0.13859709 -0.05827448 0.15806219 -0.018963818 -0.028366521 -0.100653775
-0.14485426 -0.071354836 -0.027120775 0.027468175 -0.058448475 0.01693968 0.048030242 -0.03621855
-0.13781723 -0.13642502 -0.17065248 0.044056952 -0.07021321 0.056557152 0.09702092 0.16387491
-0.07748432 -0.15437812 0.039665956 -0.20822364 0.14773306 -0.094223164 0.0672813 0.042897977
0.08845262 0.11374497 0.23904091 -0.17079286 -0.25152126 -0.02672435 0.06454901 -0.15102808
-0.047957268 -0.044014707 -0.11732262 -0.2101107 -0.14061137 -0.18889949 -0.093844555 -0.052266516
-0.010303119 -0.049639773 0.008825724 0.05240058 0.09006062 0.056702565 -0.08092053 -0.021441614
-0.21484163 -0.07300609 -0.166165 -0.1609204 -0.11203349 0.04686276 -0.1501673 -0.030554764
-0.06256013 -0.32058358 -0.11879831 -0.10469863 0.02986354 -0.13767286 0.09842851 -0.24065861
0.114632696 0.11000557 -0.13893126 -0.024434503 -0.0328866 -0.17024527 0.12309511 0.06237692
-0.18484731 0.18733208 0.06171449 -0.12893355 -0.16898832 -0.079453185 0.02910405 0.034031957
-0.0079810005 0.012982208 -0.13691688 -0.108373664 -0.17703389 0.051712394 0.03543444 -0.14044729

fc2.bias f4 [64]
00000000: d29a 2cb7 cabd 6937 a8a5 d536 c617 3738
00000010: 629b 36b8 b571 31b8 7672 5637 b072 a937
00000020: 6399 b137 1982 bdb8 fc95 7e38 486d 3bb8
00000030: b757 4537 c2ec 28b8 bc0b bd37 be8e 20b6
00000040: 9348 4336 aa2b 53b8 027f 8b37 bcaf 13b7
00000050: 5048 0237 834c e3b7 66ad 0638 4644 a2b8
00000060: 0e3b 2f38 8011 2638 c2f2 dab6 705a 99b8
00000070: 1b04 7d38 aa5a 9c35 4aeb 5db8 f4bf 58b7
00000080: 2371 d137 9fd2 2538 c05c 3a35 55eb 80b6
00000090: 3a25 82b8 09f1 2d37 650d 8cb8 a647 08b6
000000a0: a104 9837 42e9 1bb7 07dd e4b7 05b0 5e37
000000b0: d176 80b8 7d5e 3a37 c809 3338 81f0 2237
000000c0: a469 4bb7 9d0a 22b8 0806 53b5 606b 3c38
000000d0: fe62 a436 9800 6837 7843 acb5 398e dbb7
000000e0: 933a 7838 d9ec 8138 af08 44b7 b473 bb37
000000f0: 9ff9 2ab8 9c42 4038 a43a 4638 20c0 5034
-1.0288046e-05 1.3932071e-05 6.3671796e-06 4.365274e-05 -4.3536893e-05 -4.2305986e-05 1.2782044e-05 2.0199775e-05
2.117147e-05 -9.036455e-05 6.0698003e-05 -4.468605e-05 1.1762538e-05 -4.027482e-05 2.253602e-05 -2.3924945e-06
2.9099508e-06 -5.0346986e-05 1.6629234e-05 -8.802799e-06 7.76544e-06 -2.7096137e-05 3.210958e-05 -7.737479e-05
4.177825e-05 3.9593782e-05 -6.525167e-06 -7.312454e-05 6.0323724e-05 1.1649292e-06 -5.2909636e-05 -1.2919296e-05
2.4967425e-05 3.953522e-05 6.942537e-07 -3.8420935e-06 -6.205817e-05 1.0367724e-05 -6.678215e-05 -2.0307284e-06
1.8121968e-05 -9.2930295e-06 -2.7282642e-05 1.3273214e-05 -6.125647e-05 1.1108464e-05 4.2686035e-05 9.711949e-06
-1.2124339e-05 -3.8633694e-05 -7.86124e-07 4.4922694e-05 4.899105e-06 1.3828416e-05 -1.2834635e-06 -2.6173062e-05
5.918236e-05 6.195316e-05 -1.1684532e-05 2.2346016e-05 -4.0763636e-05 4.5838402e-05 4.7261492e-05 1.9441404e-07

bn2.weight f4 [64]
00000000: 5700 5d3f 1d3c 4e3f 7ab9 593f bea3 703f
00000010: f93e 8f3f 5c34 863f d3ba 8e3f f3d4 773f
00000020: 1f35 503f 9620 943f 7bba 7e3f 43a3 6b3f
00000030: 41d4 923f c225 603f f09f 6f3f ab88 803f
00000040: 11e7 4b3f ed75 7d3f 1e09 8d3f aee3 843f
00000050: bdfe 8e3f af83 903f 80dc 773f e7c8 8b3f
00000060: d982 853f 14e7 783f b546 833f 4072 7e3f
00000070: 5b92 593f a98f 693f d5a2 603f 0c98 7a3f
00000080: 2488 723f 3df1 4f3f 1e69 5a3f 30ac 843f
00000090: 3c59 8b3f df31 543f 8172 5d3f c59f 893f
000000a0: 90e1 963f db34 633f db2f 703f 4c28 853f
000000b0: c87b 793f 28a8 903f 29bb 6d3f 920a 703f
000000c0: 3993 5c3f 8b1d 783f 2bd5 783f 1253 783f
000000d0: 94cb 7f3f 3036 503f 646d 703f c36c 6e3f
000000e0: 7f53 793f 472b 553f aeb8 7f3f 187f 8f3f
000000f0: 61b1 683f adee 803f f2be 823f d683 733f
0.86328644 0.80560476 0.8504864 0.9399985 1.1191093 1.0484729 1.1150764 0.9680931
0.81331056 1.1572444 0.99503297 0.9204599 1.1471025 0.87557614 0.9360342 1.0041708
0.79649454 0.99008065 1.1018407 1.0381982 1.117149 1.1290187 0.9682083 1.0920686
1.0430557 0.972276 1.0255953 0.9939308 0.84988946 0.91234833 0.8774846 0.97888255
0.94738984 0.81227475 0.85316646 1.0365047 1.0886607 0.828886 0.86502844 1.0751883
1.1787586 0.88752526 0.9382302 1.0402923 0.974545 1.1301317 0.9286371 0.9376613
0.86162144 0.9692008 0.9720027 0.97001755 0.9992001 0.81332684 0.93916917 0.9313471
0.9739303 0.8326916 0.99891174 1.1210661 0.9089566 1.0072838 1.0214522 0.9512304

bn2.bias f4 [64]
00000000: 4170 8cbd de1f 91be e9f4 89be ca1c 15bd
00000010: d24e ffbb f6ed 83be 385f 86bd c1a6 683d
00000020: 605c 75be 6a01 a3bd 96d8 843d 8090 1e3e
00000030: 073c 81bd d771 13be 3c37 6a3d 2510 c1bd
00000040: 4dd0 30bd 36e4 85bd 63dd 60be 02de 87be
00000050: 7edb 51bd 8812 b1bd 9b36 94be 2be2 e8bb
00000060: da52 58bd 55c1 bc3d 0219 9abe 4367 0a3e
00000070: 8539 a7bd fde8 82bd 7c21 73bc 7aa8 8ebd
00000080: decb 55be 86aa 213d b758 edbc 2c8e 66be
00000090: 019e a83d d4d9 a5be 3e2f d23d a450 c13d
000000a0: 29ce b13c f97b d2bd f59d 47be b139 4bbe
000000b0: b1a6 28be 9f44 353e d803 d3bc 2c63 40be
000000c0: 32f2 8cbe 240f fdbd 492c 90be a0fa 283e
000000d0: 1343 653d 00a2 c8bd afe0 0ebd 3769 f5be
000000e0: e008 adbd 5e2a ec3d c79d a2be 2535 7abd
000000f0: 005d b8bd d916 b1be 69ed c3bd 17e7 94be
-0.06857348 -0.28344625 -0.26944664 -0.03640441 -0.0077913785 -0.25767487 -0.0656113 0.056799654
-0.2396102 -0.07959254 0.06486623 0.1548481 -0.063102774 -0.14398895 0.05718158 -0.094269074
-0.0431674 -0.065376684 -0.21959452 -0.26536566 -0.051234715 -0.08646113 -0.2894791 -0.0071070394
-0.05281339 0.09216563 -0.30097204 0.13515954 -0.08165268 -0.06392095 -0.014839526 -0.06965728
-0.2087855 0.039469264 -0.028972967 -0.22515172 0.08233262 -0.32392752 0.10262917 0.09439209
0.02170475 -0.10277552 -0.1949385 -0.19846226 -0.16469838 0.17701958 -0.025758669 -0.18787831
-0.2752853 -0.123564035 -0.28158787 0.16501856 0.05597217 -0.09796524 -0.034882244 -0.47931835
-0.084489584 0.115315184 -0.31761 -0.06108584 -0.09002113 -0.34587744 -0.09566767 -0.29082558

bn2.running_mean f4 [64]
00000000: dd26 8cbf 4703 23bf 438b 463f d5a9 aabf
00000010: cb90 9dbf 85a6 23bf 3660 febd 727a 96bf
00000020: a185 3ebf 861f eabe 7374 6abf 25d6 94bf
00000030: d5d9 39bf a0ab 93bf 3bff ddbf 9219 d9bf
00000040: 0b75 e73d d439 0fbf 73fa b0bf 9634 ff3e
00000050: fea7 06bf f259 b4be dca6 ad3e e497 e7be
00000060: 2158 bebf 6425 9fbf 94ec 943f 01d7 ebbe
00000070: f04e 74bf f5eb 90bf fa03 09bf d58e edbe
00000080: 1800 c3bf 0504 42bf 24c8 c4bf febb 90bd
00000090: cf23 52bf 6488 91be 10d2 37bf 3096 15bf
000000a0: e873 41bf 4ac2 39bf 5788 4f3f 830b 893f
000000b0: 86de 29bf 2074 a7bf 80b6 72bf f61b 99bf
000000c0: ecb2 acbf 1bba 04bf 4af4 cd3f 2d3d 4cbf
000000d0: 296e 47bf d0bb 12bf 7320 35bf 68e4 a43f
000000e0: c5ef 5dbf 7626 9abf 8da4 cbbd 2642 b4be
000000f0: 7239 f5bf 3b62 db3f c34b bbbf 7dc7 3bbf
-1.094936 -0.63676876 0.77556247 -1.3333079 -1.2309812 -0.63925964 -0.124206945 -1.1756117
-0.7442265 -0.45727175 -0.9158394 -1.1627852 -0.7259801 -1.1536751 -1.7343515 -1.6960928
0.11301621 -0.55947614 -1.3826431 0.49844807 -0.52600086 -0.35224873 0.33916366 -0.4523307
-1.4870645 -1.2433286 1.1634698 -0.46062472 -0.9543295 -1.1322008 -0.5352169 -0.46398035
-1.5234404 -0.75787383 -1.5373578 -0.07067107 -0.8208589 -0.2842437 -0.71804905 -0.5843229
-0.75567484 -0.72562087 0.81067413 1.0706638 -0.6635517 -1.3082314 -0.9480972 -1.1961658
-1.3492103 -0.51846474 1.6090176 -0.79780847 -0.77902466 -0.5731783 -0.7075264 1.2882204
-0.86693984 -1.2042987 -0.09943495 -0.35206717 -1.9158156 1.7139353 -1.4632496 -0.7335127

bn2.running_var f4 [64]
00000000: bc1f 1540 a9d0 d43f 1907 873f 0ce7 1740
00000010: b280 b640 a06a 5040 059b 3c40 20c3 cb40
00000020: 15e8 d13f d2e0 6640 062c 1240 3a19 c33f
00000030: 60d6 a340 4b80 ee3f 51fe f13f 195b 6e40
00000040: d149 b63f a1ed 9040 3c7e 1e40 9ec9 2b40
00000050: 316b 7140 30ad 6640 bf18 c13f eb0a 8a40
00000060: de6e 0f40 85fd ef3f 839e 0f40 8201 2040
00000070: 0b7f f13f c0f5 db3f 80d0 943f 3258 4340
00000080: f127 2140 527e d83f 4440 f33f e1e9 5e40
00000090: e453 8040 bc85 ac3f 1f3c fc3f b707 cf40
000000a0: 1297 9340 af5f e53f 188b e43f 0173 f93f
000000b0: c245 a13f 4a46 d140 9d95 953f 8fad bd3f
000000c0: 2999 e93f 231c 0540 5e28 0840 1464 ed3f
000000d0: 5301 c83f 3581 2340 c1ef d83f f256 2540
000000e0: 937e 8b40 04d2 9b3f ee72 4540 d7f7 1240
000000f0: 9ad8 1740 f512 f93f c7a6 1740 914c b23f
2.330062 1.6626178 1.0549041 2.373477 5.70321 3.2565079 2.9469616 6.367569
1.6398951 3.607472 2.283937 1.5242074 5.119919 1.8632902 1.8905736 3.7243102
1.4241277 4.5290074 2.4764547 2.6841807 3.7721674 3.6043205 1.5085677 4.3138328
2.2411418 1.8749243 2.2440498 2.500092 1.8866895 1.7184372 1.1626129 3.052258
2.5180628 1.691355 1.9003987 3.4830248 4.0102406 1.3478312 1.9705848 6.4696918
4.612191 1.7919825 1.7854948 1.9488221 1.2599413 6.53983 1.1686283 1.4818591
1.8249866 2.0798423 2.1274638 1.8546166 1.5625404 2.5547612 1.6948167 2.5834317
4.359201 1.2173467 3.0851398 2.296377 2.3725953 1.945891 2.3695543 1.3929616

fc3.weight f4 [32, 64]
00000000: 73bf aabc d8b6 c4bd 3324 dabc 6438 133e
00000010: 69a1 1bbe 4e97 1bbe 1378 cdbb 326a 4bbd
00000020: 49d9 c13d 74ba 39be 03fe 4cbd 4c3c 9ebd
00000030: 0f94 a1be cde2 273e 22e0 573d c9e8 1abe
00000040: e0df ff3d a7d4 a4be 4020 053e 8946 59bc
00000050: a229 67bd c487 99bd e572 4dbe 02a8 97be
00000060: c47b 8c3d 5338 11be 3bd1 9abe 166b 4c3c
00000070: fbe4 31bd fe51 863c 9ba6 6cbd e9d7 4abe
00000080: 29e2 52be 0874 bbbc 21c8 6bbb 09de e63c
00000090: 1244 42be 963f b2bd 0ffe 0c3e af69 8bbe
000000a0: 3e2f c0be 852e 2e3c 0d82 133c b1a0 83be
000000b0: a1cc d43d ba39 b5be 868d a53c 248a 34bc
000000c0: 6946 b03d c93d f33c 3fad 86bd 3757 c33d
000000d0: 3339 8ebc 3614 36bd 8f31 4e3e b020 463b
000000e0: 8502 50be e885 b7bd db41 87be d7ff 2abe
000000f0: 4cdc a8bd 0400 a83d 8894 2abe 62a8 cf3d
00000100: 8283 f4bd 77a2 26be 445f c1bd f68d 28be
00000110: f49b 213e b818 d53d 6c1e 41bd 1ab1 fc3d
00000120: 6ef9 57bd c5d9 38bd a483 9dbe 0379 95be
00000130: 5a56 b33d baf8 2fbe 2e7d 32be 5eab da3b
00000140: 2c27 17be 8627 b03d 065f 1bbe 4dab 773d
00000150: 993a 853d bd18 b6ba 5ff7 be3d ad27 6c3d
00000160: 66ec d8be 71f8 aabe f60f 053e 5519 5f3c
00000170: 039d 4b3a b3c5 46be 1a74 d7bd e3a6 843d
00000180: 6047 273e 2eab 51bd 9d1d b7be 80cf 2c3e
00000190: c99a b43d 4a4c bf3c a25d 5abe 6233 833c
000001a0: 62e6 a43d f848 c6bd 30c3 35bc 0f9e 6b3d
000001b0: be94 a1bd 5d7c 913d 5885 74be f358 6bbd
000001c0: dab8 13bd 859d 36be 4d71 16bd cce6 12be
000001d0: b290 13be d766 e7bd a1ac 8fbe 245c 843d
000001e0: 9a0d a63d 55c5 b3be 3ef7 96bd 0980 a93d
000001f0: 3659 6bbd 93b2 6d3d 03ba a5bd 1157 00be
00000200: bcf7 563d 4078 963d 79e6 41bd 91db 31bd
00000210: 4d65 bf3d 90fa 56be 873c 4bbe ad35 60be
00000220: ff29 ec3c abd8 30be 62ff 4b3d 34d7 3dbe
00000230: d980 c23c 3077 253d df24 bc3d ef05 2f3e
00000240: 4aec b53d 87ce 3c3e 7974 3cbd a757 ccbd
00000250: 8ac1 4cbe 5638 253e 7f24 1c3d 8174 52be
00000260: dc00 8cbd f5ac dcbd 278a 8abd a112 87be
00000270: 46fc 9ebd 004c 553e a995 50bd abbc b0be
00000280: 1e00 e7bc bf80 9bbd fcdd d63d 5613 2abe
00000290: 566e 50bd 3d57 21be 2bb2 7b3d 4de1 8bbe
000002a0: 043d c8bd 0480 033e b858 433c 6ac6 18bd
000002b0: 8de0 56be d022 6fbd 874f 7e3e 5179 14be
000002c0: 4934 0d3e 87b1 ce3d 8e5a a2be c782 1cbe
000002d0: 1abf b1bd c91c 88bd 1d54 e13c 6d4f febd
000002e0: 8623 44bd 37a3 0abd e665 29be bb39 d4be
000002f0: baa4 e83d 8849 523d 63a6 bd3d 3633 a1be
00000300: 28e5 91be fe88 cdbd 1982 60be 05a2 18be
00000310: b3b9 94bd 1aca 853d c25b 253d 9695 42bd
00000320: b229 37be ed7b e43d 398d 8cbe d0f0 21be
00000330: f030 983b 8e62 d8bd 4a5b 9fbe 806f 8abd
00000340: a427 06be e900 e53d de55 74be 8f03 d43d
00000350: 8430 383d e765 c63c 7b21 763d e967 313d
00000360: 452d bfbe dbe7 93be 6fe4 703d 7596 c93d
00000370: 5109 94be efc8 43be 43a2 06be 28d0 673d
00000380: e262 a03d 215a a2bb ae6b 0ebe 1424 313d
00000390: e05e cebd 731d 643d 6a20 50be 2441 0abd
000003a0: c7fa 63bd 76ec 49be edbf 023e ff25 023d
000003b0: 514e 73bd 87bb 253d 99dd 2cbe 03c9 3bbe
000003c0: c841 b9bd cc68 88be 4c93 e93d 90a7 11be
000003d0: 3e52 c8bd 86a3 783d 375a 87be 7f36 8a3d
000003e0: addc 093d 4d7f 51be f549 e43d ce51 503d
000003f0: 63ac 28be 0c94 403c d50e 85be 1207 babe
-0.020843243 -0.09605187 -0.02662859 0.1437698 -0.15198292 -0.15194437 -0.0062704175 -0.049661823
0.09465272 -0.18137532 -0.050046932 -0.077263445 -0.31558272 0.16395111 0.052703984 -0.15127863
0.12493873 -0.3219349 0.13000584 -0.013261446 -0.05643619 -0.07496598 -0.2006336 -0.29620367
0.06859544 -0.14181642 -0.30237755 0.012476703 -0.043431263 0.016396519 -0.057776075 -0.19808926
-0.20594086 -0.022882476 -0.003597744 0.028182046 -0.1897128 -0.08703534 0.1376879 -0.27229068
-0.37536043 0.010631208 0.0090031745 -0.25708535 0.10390592 -0.35395604 0.020209085 -0.011019263
0.0860718 0.029692547 -0.06576013 0.09538119 -0.01736126 -0.04445287 0.20136093 0.0030231886
-0.20313461 -0.089610875 -0.2641743 -0.16699158 -0.08245143 0.08203128 -0.16658223 0.10139538
-0.119391456 -0.16272913 -0.094419986 -0.16460404 0.15782148 0.10405105 -0.047148153 0.12338467
-0.05272811 -0.045129556 -0.30764496 -0.29193887 0.08756705 -0.17184725 -0.17430565 0.0066732606
-0.14761037 0.086012885 -0.15172967 0.0604661 0.06505317 -0.0013892871 0.09324526 0.057655025
-0.42367858 -0.3339267 0.1299437 0.0136168795 0.0007767232 -0.19411354 -0.105201915 0.064771436
0.16335821 -0.05118864 -0.3576478 0.1687603 0.088185854 0.023351807 -0.2132478 0.016015712
0.080517545 -0.096818864 -0.0110939 0.057523783 -0.078896984 0.071037985 -0.23878992 -0.057457875
-0.03606496 -0.17833526 -0.036729146 -0.14345855 -0.14410666 -0.11298912 -0.28061393 0.06462887
0.08108063 -0.3511149 -0.073713765 0.08276374 -0.057458125 0.05803163 -0.080921195 -0.12533213
0.05248235 0.073471546 -0.047338936 -0.043422285 0.093454935 -0.2099402 -0.19847308 -0.21895476
0.028828619 -0.17270152 0.0498041 -0.18539125 0.02374308 0.04039687 0.0918672 0.17092107
0.08882959 0.18438159 -0.046009514 -0.09977656 -0.19995704 0.16134772 0.038120743 -0.20552255
-0.068361014 -0.107751764 -0.06764632 -0.263814 -0.07762961 0.20829773 -0.050923977 -0.34518942
-0.028198298 -0.07592916 0.10491559 -0.16608939 -0.050886475 -0.15755935 0.06144921 -0.27320328
-0.09777263 0.12841803 0.011923008 -0.037298597 -0.20984097 -0.05838281 0.24835025 -0.14499404
0.13789476 0.100924544 -0.31709713 -0.15284263 -0.08679028 -0.06646115 0.027505929 -0.12417493
-0.04788544 -0.03384706 -0.16542777 -0.41450295 0.11359544 0.051339656 0.092602514 -0.31484383
-0.28495145 -0.10035895 -0.21924628 -0.14905556 -0.07261982 0.065326884 0.04037071 -0.047505938
-0.17886999 0.111564495 -0.27451494 -0.15814519 0.0046445057 -0.10565673 -0.31124336 -0.06759548
-0.13101059 0.11181814 -0.2386088 0.10352241 0.044968143 0.024218513 0.060090523 0.043311987
-0.37339225 -0.2888783 0.0588116 0.098431505 -0.28913358 -0.19119619 -0.13147835 0.056594998
0.078313604 -0.004954592 -0.13908264 0.043247297 -0.1007669 0.055692147 -0.20324865 -0.03375353
-0.05565908 -0.19719109 0.12768526 0.031774517 -0.05940086 0.040462043 -0.16881408 -0.18338399
-0.0904575 -0.26642454 0.11405048 -0.14224076 -0.097813115 0.060702823 -0.26436016 0.067486756
0.03365772 -0.20458718 0.11146919 0.050859265 -0.1647201 0.011754047 -0.25987878 -0.3633352

fc3.bias f4 [32]
00000000: 4a6d 1c38 3857 36b8 a93f f737 484c b936
00000010: b43e 68b7 9e9b 2fb7 4464 05b6 3454 7a36
00000020: 06a9 c0b8 396f 8a38 e851 8337 2f93 2eb9
00000030: 38ee c8b7 ff37 3db8 a44b 4bb8 6904 f537
00000040: 6888 fb36 64e8 fe37 5823 0cb8 300e dfb7
00000050: 69bb f437 8082 1638 2b39 f0b6 1aa2 5e37
00000060: a25b abb7 68f4 f5b5 4061 25b5 3801 6038
00000070: b51e aeb7 d49e 06b9 f4fc 1338 a4b2 65b8
3.729508e-05 -4.347341e-05 2.9474339e-05 5.52231e-06 -1.3842877e-05 -1.0467045e-05 -1.9876907e-06 3.7301916e-06
-9.1867565e-05 6.6010696e-05 1.5654558e-05 -0.00016648763 -2.3952787e-05 -4.5113262e-05 -4.8469417e-05 2.920833e-05
7.4962627e-06 3.0387375e-05 -3.3411518e-05 -2.6590278e-05 2.9174336e-05 3.5884324e-05 -7.1592126e-06 1.3269973e-05
-2.0427458e-05 -1.8325054e-06 -6.160881e-07 5.3406897e-05 -2.0756715e-05 -0.00012838404 3.5283112e-05 -5.4764227e-05

bn3.weight f4 [32]
00000000: 7307 273f 2fb1 3e3f 20af 2e3f d84d 4e3f
00000010: 20ed 273f 5ada 273f 7ed6 2b3f d552 373f
00000020: 0281 3f3f d747 403f 71eb 2b3f 6252 3e3f
00000030: f137 433f 1102 3f3f 4355 4b3f 7c9b 4d3f
00000040: 59dd 2f3f 10f5 403f da61 193f cd68 333f
00000050: 5c30 303f b64f 413f 90e3 393f f06f 2a3f
00000060: a59a 273f c22c 433f d2ad 3b3f 999e 343f
00000070: d4ab 2c3f c1f4 453f 7e31 3b3f f3af 383f
0.6524574 0.7448911 0.6823597 0.8058753 0.655962 0.65567553 0.67124164 0.71610767
0.74806225 0.7510962 0.6715613 0.74344456 0.76257235 0.7461253 0.79426974 0.80315375
0.68697125 0.75373936 0.59914935 0.7008179 0.6882379 0.75512254 0.7261286 0.66577053
0.65470344 0.7624017 0.73312104 0.705545 0.6744969 0.7732659 0.73122394 0.7214348

bn3.bias f4 [32]
00000000: 1328 3a3d 6a1d e4bd 271c b2bc fa30 36be
00000010: ee9d 4bbe b696 ad3d 6661 883d 9b29 7abd
00000020: 09c0 2abd c118 53bd f208 183d 5115 ebbd
00000030: f203 eebd 10be 03bd 563a 0bbe 9e20 f73a
00000040: 24c4 613d bbfc 4abd 91b4 003d ec00 29be
00000050: 2dd3 24bd 89f9 bcbd d02c 03be 5640 df3d
00000060: 2489 ee3d 8daf 07be 9204 41bd e97e 433d
00000070: 8724 9c3c a419 4e3c 72f6 97bd fdef ecbd
0.045448374 -0.11138423 -0.02174194 -0.1779212 -0.19884464 0.084760115 0.06659202 -0.061074834
-0.041687045 -0.05153728 0.037117906 -0.11478675 -0.11621846 -0.03216368 -0.13596472 0.0018854325
0.055118695 -0.04955743 0.0314222 -0.16504258 -0.040240455 -0.092272826 -0.12810063 0.10900943
0.11647251 -0.13250561 -0.0471235 0.047728453 0.019060386 0.012579355 -0.074200526 -0.11569212

bn3.running_mean f4 [32]
00000000: 9ca0 cbbf f477 a6bf c7c0 9bbf 175f d5bf
00000010: f0b2 41bf 7b53 babf 5d0c ddbf 0324 c1bf
00000020: c3cd 95bf 376d 1fbf 4af6 d2bf 965a 91bf
00000030: 91ae 89bf aac9 a7bf ae3f b5bf d33d dfbf
00000040: 98b7 e7bf 6484 27bf 51cc a9bf 20a9 08bf
00000050: 404d 90bf 6526 c2bf e8f3 d1bf b2cb dabf
00000060: 6217 74bf f582 d6bf dd06 80bf 5ea4 b7bf
00000070: 306e c9bf bd4b a5bf b4c1 38be feef c5bf
-1.5908389 -1.3005357 -1.2168206 -1.6669644 -0.7566366 -1.4556726 -1.7269398 -1.5089115
-1.1703418 -0.62276024 -1.6481411 -1.135577 -1.0756398 -1.3108418 -1.4160058 -1.7440742
-1.8102903 -0.6543639 -1.3265477 -0.53383064 -1.1273575 -1.5167967 -1.6402559 -1.7093413
-0.9534818 -1.6758715 -1.0002095 -1.4347036 -1.5736752 -1.2913738 -0.18042642 -1.5463865

bn3.running_var f4 [32]
00000000: ddc2 bc40 d692 6540 e022 2f40 b172 3640
00000010: a79c 843f ce2c 5d40 744c bf40 b37a 9040
00000020: 272c f83f e903 0940 8f3f cd40 20d2 903f
00000030: 9b94 4e40 c202 ae40 3491 3b40 76f3 1e40
00000040: 2bcf e840 16c2 7040 b781 8040 4e68 bc3f
00000050: 5fe2 4640 6e9e 5b40 94e9 9240 5954 9140
00000060: f704 6d40 8642 2a40 6786 2940 224b 9640
00000070: fee7 9c40 9a55 4540 316d c93f 8bde 0040
5.898787 3.5870872 2.7365036 2.8507502 1.0360307 3.4558597 5.9780827 4.514978
1.9388474 2.1408637 6.4140086 1.1314125 3.2278202 5.4378366 2.9307375 2.4836097
7.275289 3.761846 4.0158343 1.4719331 3.1075666 3.4315448 4.591013 4.5415463
3.703428 2.6603103 2.6488283 4.6966715 4.9033194 3.0833497 1.5736448 2.013583

fc4.weight f4 [3, 32]
00000000: 1d3c e63c b8fb 7dbd 07b3 3a3b 9174 d4bc
00000010: a773 3abd 9dff 3d3d 910e 5e3d 5829 a9bc
00000020: 3738 d83d fd36 5fbd 4ba4 073d 76ea 023d
00000030: 2943 94bd 6f68 373d 985c 52bd 2fc1 aebc
00000040: 6ce0 4c3d 4420 88bd 7758 85bc 46a5 71bd
00000050: 13e5 e2bc 8122 81bd 7ba5 4a3c fdc4 893b
00000060: fb74 953d d541 27bd 27cc 43bd 5cd6 1f3d
00000070: 75db 903b a23a bf3d 6e95 a93d e43f 823b
00000080: e186 fabd 87b7 bf3d 6ee9 34bc cb55 c33d
00000090: c3ee 0dbd 9544 40bd 9a1b 9abd 04d8 e3bd
000000a0: 2918 d0bc 3ea3 82bd 42fa c4bd 74f7 da3d
000000b0: 08d5 de3d c979 a0bd bf24 ca3d 3ca9 ea3d
000000c0: ff67 c5bd 8dfb cc3d d5fb cabd 7578 02bd
000000d0: 8773 4fbd 8a13 ec3d 407e a5bd bd9f b3bd
000000e0: 7fe0 babd 4db2 d53d 1866 a53d 4f11 4dbd
000000f0: 334f c2bd 87e2 6fbd 8f62 33bd cfc4 76bc
00000100: e465 643d 2cec a8bc 5e30 993d b8dd 90bc
00000110: 8fe7 003d b624 8b3d 4002 853d c812 923d
00000120: 0660 50bd c68f c23d 2e5b 743d a15b 04be
00000130: 6670 a1bc 04d3 3c3d 9dd1 803b 8696 10bd
00000140: 1b5e 153d 5b29 bdbc 3d9e 393d 2f0d 813d
00000150: f30f c93d 41c8 66bc c34f d03d 9e47 6a3d
00000160: 7567 cb3c 43e3 a5bb 6b1c afbc c25e 473d
00000170: cf49 4a3d 3c19 453c a5bf d5bc c852 ab3d
0.028104836 -0.062007636 0.0028488056 -0.02593449 -0.04552045 0.04638635 0.05421311 -0.020649597
0.10557597 -0.0544958 0.033115666 0.03196188 -0.07239372 0.04477733 -0.051357836 -0.021332351
0.050018713 -0.06646779 -0.016277535 -0.058995508 -0.027697122 -0.06305409 0.012368555 0.004204391
0.07297703 -0.040834267 -0.047802117 0.03902279 0.0044206926 0.09337355 0.082804546 0.0039749015
-0.12232757 0.09361177 -0.011041982 0.09537848 -0.03465153 -0.046940405 -0.07524796 -0.11125186
-0.025402145 -0.06378792 -0.096180454 0.10691729 0.10880476 -0.07835729 0.0987029 0.1145806
-0.09638976 0.10008917 -0.099113144 -0.031853158 -0.050647285 0.11527164 -0.08080721 -0.08770702
-0.091248505 0.10434399 0.080761135 -0.050065335 -0.09487762 -0.058565643 -0.043795165 -0.015061571
0.055761233 -0.020620428 0.074799284 -0.017683849 0.03147083 0.067941114 0.0649457 0.071324885
-0.050872825 0.09500079 0.05965727 -0.12925579 -0.019706916 0.046099678 0.003931238 -0.0352998
0.0364667 -0.023091009 0.045316923 0.06301343 0.09817495 -0.01408583 0.10171463 0.057197206
0.024829606 -0.005062492 -0.021375855 0.048674352 0.049386796 0.012029942 -0.02609236 0.08365399

fc4.bias f4 [3]
00000000: b3d9 fa3d 4c2e f3bd 4b49 35bd
0.12248554 -0.11874065 -0.04425935
